assets/models/Butt_kick_model.tflite (tflite, 570984 bytes, 7 tensors)

arith.constant f4 [64]
0	0x3ca0a4d0	0.019609839
1	0xbbbc6241	-0.0057490175
2	0x3c6b745c	0.014371004
3	0x3c8d09f2	0.017216656
4	0x3c976222	0.01847941
5	0x3b64a16b	0.0034886252
6	0xbbc42c99	-0.005986762
7	0x3b19cca2	0.0023467918
8	0x3c93ec23	0.018056935
9	0x3c9af8e8	0.018917516
10	0x3c92ec99	0.017935084
11	0x3c93b035	0.018028358
12	0xbbfe05d3	-0.007752159
13	0x3c9016cd	0.017588997
14	0x3c8f9288	0.017525926
15	0x3c93f614	0.018061675
16	0x37e8540a	2.7695689e-05
17	0xbb315f80	-0.002706498
18	0x3c78df49	0.015189954
19	0x3c8bc7c8	0.017063037
20	0x3c70ff19	0.0147092575
21	0x3c98291d	0.018574292
22	0xbc07ab63	-0.008280608
23	0x3c931ef0	0.017959088
24	0x3c7ca922	0.015421184
25	0x3c881235	0.016610244
26	0x3c93206c	0.017959796
27	0x3c93efc4	0.018058665
28	0xbabb0a9a	-0.0014270127
29	0x3a46627f	0.00075677776
30	0x3c918dc6	0.017767798
31	0xbb8f9d09	-0.0043827337
32	0xb4815492	-2.4089655e-07
33	0x3c755b28	0.014975347
34	0x3c880a2a	0.01660641
35	0x3c0f14b4	0.008732963
36	0x3c935495	0.017984668
37	0x3c602594	0.013680834
38	0x3c99eee3	0.018790668
39	0x3bdd4d9e	0.0067536375
40	0x3b976485	0.004620137
41	0x3c97885d	0.01849764
42	0xbb2d7825	-0.0026469317
43	0x3c820581	0.015871765
44	0x3bebab86	0.007192078
45	0xbb841802	-0.0040311823
46	0x3bbeb346	0.005819711
47	0x3c8c3278	0.01711391
48	0x3c6fe086	0.014640933
49	0xbbc5f4a6	-0.0060411273
50	0xbc2159f3	-0.009848106
51	0x3c1c8eb9	0.009555512
52	0x3c90aacd	0.01765957
53	0x3c5eb3b0	0.0135926455
54	0x3c2b3c01	0.010451318
55	0x3c93de82	0.018050436
56	0x3c70c07a	0.0146943275
57	0xbc05e20b	-0.008171569
58	0x3c36e26a	0.01116238
59	0x3bfc44fb	0.007698653
60	0x3c9e0fd0	0.01929465
61	0xbc037792	-0.008024113
62	0x3c944547	0.01809944
63	0x3c994b4b	0.01871266

arith.constant1 f4 [64, 3, 3, 32]
0	0x3d7aef35	0.06126328
1	0xbc9519fb	-0.018200865
2	0xbbed258c	-0.007237142
3	0x3dae7460	0.085182905
4	0xbd50aabd	-0.05094408
5	0x3b7737ad	0.0037722394
6	0x3d9d08e2	0.0766771
7	0x3cd6c500	0.026216984
8	0xbc8c0e1c	-0.017096572
9	0xbc826112	-0.015915427
10	0x3d8ecb11	0.069723256
11	0xbd62b9c6	-0.05535295
12	0xbc64aa9f	-0.013956695
13	0xbda2ad1d	-0.07943175
14	0x3d60de25	0.054899354
15	0xbd8bf813	-0.06834426
16	0x3d896eaa	0.067105606
17	0xbd24712f	-0.040147003
18	0xbc40fded	-0.011779291
19	0xbbad4bb2	-0.0052885646
20	0x3d47e12e	0.048798732
21	0x3a2e1bca	0.0006641714
22	0x3dc39045	0.095490016
23	0x3d336a53	0.04380257
24	0x3d9e00d4	0.07715002
25	0x3d687019	0.05674753
26	0x3af6002b	0.0018768361
27	0xbd8f24ac	-0.069894165
28	0x3d61cf37	0.055129256
29	0x3dbd89cd	0.09254799
30	0xbd736116	-0.05941876
31	0x3daa3221	0.083103426
32	0x3d18b5c2	0.037282713
33	0xbcd7183a	-0.02625667
34	0x3d2162b5	0.039400775
35	0x3b035c5f	0.002004407
36	0x3d9b9912	0.07597555
37	0xbd2e7c69	-0.042599116
38	0xbbfdd2bd	-0.007746069
39	0x3db11dfc	0.08648297
40	0x3d699550	0.05702716
41	0x3d0ac82a	0.033882298
42	0xbce60c19	-0.02808194
43	0xbc91cb05	-0.017797003
44	0xbd000800	-0.03125763
45	0xbd8fd702	-0.07023431
46	0x3d9c276d	0.07624707
47	0xbd2d341e	-0.04228603
48	0xbafa6fff	-0.0019106864
49	0xbd54772e	-0.05187147
50	0xbd461903	-0.048363697
51	0xbc8f90d3	-0.017525112
52	0x3d904767	0.07044869
53	0x3d58d2be	0.052935354
54	0x3dab4933	0.08363571
55	0x3d8f81ca	0.07007177
56	0x3d0ac4d5	0.03387912
57	0xbd3fc5f9	-0.04681966
58	0xbc5574e3	-0.013028356
59	0x3cb69887	0.022289528
60	0x3b2d9768	0.002648795
61	0xbd38ab3b	-0.045085173
62	0xbce840d8	-0.028351232
63	0x3d9336b4	0.07188168
64	0xbc9e5b46	-0.019330632
65	0x3d168326	0.036746167
66	0x3c50585b	0.012716378
67	0x3d4ea07f	0.05044603
68	0xbcb77582	-0.0223949
69	0xbd229aa5	-0.03969826
70	0x3d7297ae	0.059226684
71	0x3a665633	0.00087866484
72	0x3dcf189f	0.10112118
73	0xbbcdec0d	-0.006284243
74	0x3b855940	0.0040694773
75	0xbd981f07	-0.07427793
76	0x3c85f704	0.016353138
77	0xbcc1fd2e	-0.023680296
78	0x3d48691a	0.048928358
79	0xbc6e4efe	-0.0145452
80	0xbc8696bd	-0.0164293
81	0xbc144fc4	-0.009052221
82	0x3d8652d7	0.06558769
83	0x3d7aef39	0.061263297
84	0x3da9409c	0.082642764
85	0xbcada733	-0.02119789
86	0xba24001a	-0.00062561186
87	0x3d29542b	0.041340034
88	0x3cfff9b4	0.031246997
89	0x3d73449e	0.05939161
90	0x3cac41dc	0.021027498
91	0xbcb8043a	-0.022462953
92	0xbab2999c	-0.0013626101
93	0x3d49e8bc	0.04929422
94	0xbd11282a	-0.035438694
95	0x3d7e3da6	0.06207051
96	0xbd8bfa4e	-0.06834851
97	0xbd0c7fc2	-0.034301527
98	0xbd7a1a30	-0.06106013
99	0x3dbd4ccf	0.09243166
100	0xbcd54317	-0.026032967
101	0x3d67486c	0.05646555
102	0x3d795caa	0.060879387
103	0xbcd87e6b	-0.026427468
104	0xbd73eef0	-0.05955404
105	0x3d6ffc64	0.058590308
106	0xbd430503	-0.0476122
107	0xbd95cb6a	-0.07314189
108	0xbac8718d	-0.001529263
109	0x3d18de32	0.037321277
110	0xbd8b7167	-0.06808739
111	0x3d52037e	0.05127286
112	0x3d25fe52	0.040525742
113	0x3c3acd82	0.011401536
114	0x3d0452d9	0.032305572
115	0x3db86c1c	0.09004995
116	0x3d53cda7	0.051709797
117	0xbd2886cd	-0.04114418
118	0xbd4f9942	-0.050683267
119	0x3da803b5	0.08203832
120	0xbd9d1c17	-0.07671373
121	0xbb362fb1	-0.0027799422
122	0x3cc465d5	0.023974339
123	0x3d816856	0.063187286
124	0xbb41f5de	-0.002959601
125	0x3dbf575f	0.093428366
126	0xbd682521	-0.056676034
127	0x3d9348fd	0.07191656
128	0xbce353e8	-0.02774997
129	0x3bb41163	0.0054952367
130	0x3d58dd1c	0.05294524
131	0xbd5c1bfd	-0.05373763
132	0x3cabfccb	0.020994565
133	0xbbf1a597	-0.007374476
134	0x3d8f913e	0.070101246
135	0x3b505cd1	0.0031793604
136	0xbc81c476	-0.01584075
137	0xbc805717	-0.015666528
138	0xbd8044a1	-0.0626309
139	0x3da164f0	0.078805804
140	0xbd4a1e94	-0.049345568
141	0xbda81c97	-0.08208578
142	0xbdb872e6	-0.0900629
143	0x3da94966	0.08265953
144	0xbd4f6568	-0.050633818
145	0xbd3426aa	-0.043982185
146	0x3bb11daa	0.0054051476
147	0x3db7c126	0.08972387
148	0x3db0a562	0.08625294
149	0x3dc1063f	0.094250195
150	0x3db26992	0.08711542
151	0xbd629eb2	-0.055327125
152	0xbd158a53	-0.03650887
153	0xbdb9cd5a	-0.09072371
154	0x3d496c36	0.049175464
155	0xbd3cc120	-0.046082616
156	0xbd04fce9	-0.032467756
157	0xbd89dbb6	-0.0673136
158	0x3d6ed853	0.05831177
159	0xbd77b7f0	-0.06047815
160	0x3d3ca405	0.04605486
161	0xbc8b8f41	-0.017036082
162	0xbd6ef457	-0.05833849
163	0xbbfb4b54	-0.007668892
164	0xbc9b56e2	-0.018962327
165	0xbd004a3e	-0.031320803
166	0xbd09e9c2	-0.033670194
167	0x3cf2b112	0.02962545
168	0xbc75d094	-0.015003342
169	0x3dc55f17	0.096372776
170	0xbcc18216	-0.0236216
171	0xbd958d91	-0.07302392
172	0xbd2a1ded	-0.041532446
173	0x3d9158fe	0.07097052
174	0x3da46a57	0.08028095
175	0xbc886782	-0.016650919
176	0x3d356c38	0.04429266
177	0xbd846c6f	-0.064659946
178	0xbd3aa873	-0.045570802
179	0x3c5a6b4f	0.013331248
180	0x3d8be738	0.06831211
181	0x3d4630e5	0.048386473
182	0x3cd38528	0.02582033
183	0x3da6075a	0.08106871
184	0x3db1bf48	0.08679062
185	0x3d36ab00	0.044596672
186	0x3d59066c	0.05298464
187	0x3be2fdd5	0.006927232
188	0x3ba803a6	0.005127388
189	0x3c78c979	0.015184754
190	0x3d423c2e	0.047420673
191	0x3c41dd6e	0.011832578
192	0x3ca467f6	0.020069104
193	0x3d95a932	0.07307662
194	0xbd911586	-0.070841834
195	0x3d83c093	0.06433215
196	0xbd2d24a0	-0.042271256
197	0x3d5b02ec	0.053469583
198	0xbc9a1287	-0.018807663
199	0x3d04efb2	0.032455154
200	0x3cb039a4	0.02151186
201	0xbcf02c68	-0.02931805
202	0xbc8b7e4a	-0.017027993
203	0xbd925158	-0.07144421
204	0x3d4553a1	0.048175458
205	0x3da672d3	0.0812737
206	0xbd8e3551	-0.06943763
207	0x3be5dff3	0.007015222
208	0xbd4842e6	-0.048891924
209	0x3d21b4ec	0.03947918
210	0xbd3c7e57	-0.046018925
211	0xbcddf42d	-0.027093971
212	0xbd7d5d20	-0.06185639
213	0xbd1cb11f	-0.038254853
214	0x3d03de0a	0.032194175
215	0xbced2540	-0.028948426
216	0x3d96692f	0.07344281
217	0xbd11a18b	-0.03555445
218	0xbd06aaf4	-0.032877877
219	0x3cf8adca	0.030356307
220	0xbd67a939	-0.056557868
221	0xbd545743	-0.05184103
222	0x3dbcd8c6	0.09221034
223	0xbd8bf6b0	-0.06834161
224	0xbb02ab43	-0.0019938506
225	0xbd9cb8be	-0.07652424
226	0x3d189f51	0.03726131
227	0x3d91d5aa	0.07120831
228	0xbd9ac0c9	-0.07556302
229	0x3c424c32	0.011858987
230	0x3bc14651	0.005898275
231	0xbcf6e655	-0.030139128
232	0x3cdd69f7	0.027028067
233	0xbd3c077f	-0.045905586
234	0xbd869d5d	-0.065729834
235	0x3db19701	0.0867138
236	0xbc162524	-0.009164128
237	0xbac8fe2d	-0.0015334539
238	0xbc265761	-0.010152669
239	0xbd893b28	-0.06700736
240	0xbb59c477	-0.0033228674
241	0xbd53231d	-0.05154716
242	0xbc971372	-0.01844189
243	0xbd2cc0b8	-0.04217598
244	0x3ba929e2	0.0051624635
245	0x3d865938	0.06559986
246	0xbc13810a	-0.009002933
247	0x3da4a8c4	0.08040002
248	0x3d20d789	0.03926805
249	0x3cb1f188	0.021721616
250	0x3d3e3a82	0.046442516
251	0xbd845558	-0.064615905
252	0xbd7d09a6	-0.06177678
253	0x3a5dfe4f	0.0008468376
254	0xbd5ae1f8	-0.053438157
255	0xbdb80052	-0.08984436

arith.constant2 f4 [1, 128]
0	0x3e4e13ef	0.20124792
1	0xbe0e8e36	-0.13921437
2	0xbd60dde4	-0.05489911
3	0xbd9b62a5	-0.07587174
4	0x3e55bceb	0.20872848
5	0x3d8c0b98	0.06838149
6	0xbdec7822	-0.11546351
7	0x3de909f8	0.113788545
8	0xbd984143	-0.07434323
9	0xbd47d57c	-0.04878758
10	0xbd2573f1	-0.040393773
11	0x3d0b44e5	0.03400125
12	0xbd35c0db	-0.044373374
13	0x3de18288	0.11011225
14	0xbc9965c8	-0.01872529
15	0xbc24238d	-0.010018242
16	0x3cddc151	0.02706972
17	0xbda6c00a	-0.08142097
18	0xbdd8caa5	-0.105855264
19	0x3ca97ed2	0.020690355
20	0x3e31e2db	0.17371695
21	0x3e2feeef	0.1718099
22	0xbe410480	-0.18849373
23	0xbdceea96	-0.101033375
24	0x3d9122a4	0.07086685
25	0x3d908e36	0.070583746
26	0x3e38a06a	0.18029943
27	0xbe256c54	-0.16154605
28	0xbd95f58b	-0.07322224
29	0x3dd19b0a	0.102346495
30	0x3d4fbcc7	0.05071714
31	0xbde9eb96	-0.114218876
32	0xbe2f243d	-0.17103668
33	0x3e080876	0.13284478
34	0x3e64856e	0.22316524
35	0xbd693f0e	-0.0569449
36	0x3e3dc692	0.1853278
37	0x3de5ba84	0.11217216
38	0xbc1f8551	-0.009736375
39	0xbcfc8f87	-0.030830158
40	0x3e2df188	0.16986668
41	0xbe383535	-0.17989047
42	0x3e20e353	0.15711717
43	0xbe25da52	-0.16196564
44	0xbe056155	-0.1302541
45	0x3d970479	0.073739
46	0x3e4de63d	0.2010736
47	0xbd9ce93e	-0.07661675
48	0xbd591eac	-0.053007767
49	0xbe321cf7	-0.17393862
50	0xbe13c30b	-0.14429872
51	0xbe50ac53	-0.20378236
52	0xbe2bcb9c	-0.1677689
53	0x3e3802c8	0.17969811
54	0x3e258f81	0.16168024
55	0xbe421e51	-0.18956877
56	0xbe008a15	-0.12552674
57	0x3e004252	0.12525299
58	0x3e05bcb8	0.13060272
59	0x3e6d67ae	0.23184082
60	0x3d15d086	0.036575817
61	0x3d0fe095	0.035126287
62	0x3da62f88	0.081145346
63	0xbcd28fec	-0.025703393
64	0xbe37cafa	-0.17948523
65	0xbe3455c8	-0.17610848
66	0xbe1b2685	-0.15151413
67	0xbe4d54aa	-0.20051828
68	0x3cdc5b84	0.026899107
69	0x3df979a8	0.12181407
70	0x3db4c43c	0.08826491
71	0xbdbc8741	-0.09205485
72	0x3e054882	0.13015941
73	0xbd43b2e7	-0.047778036
74	0xbda7c38c	-0.081915945
75	0xbdff65b5	-0.12470571
76	0x3e33a2e6	0.1754261
77	0x3d932a91	0.07185853
78	0x3e50d030	0.20391917
79	0xbd666c62	-0.056255706
80	0x3b29c780	0.0025906265
81	0x3e55f6ef	0.20894979
82	0x3df4eec5	0.11959604
83	0xbe25cc2a	-0.16191164
84	0x3e657d9a	0.22411194
85	0x3dc4a16b	0.096011005
86	0xbe1a6e81	-0.15081216
87	0x3e3ce793	0.18447714
88	0xbda9bde5	-0.08288173
89	0xbd0e3024	-0.03471388
90	0xbe3364c7	-0.17518912
91	0xbe032182	-0.12805751
92	0x3e1800f5	0.14844115
93	0x3e0aeb4a	0.13566318
94	0x3e4a59dd	0.19760843
95	0xbc8562a8	-0.016282395
96	0x3d9470f9	0.0724811
97	0xbc21c9bf	-0.00987476
98	0x3e6819a3	0.2266603
99	0xbe38316e	-0.17987606
100	0x3e2ef3bf	0.1708517
101	0xbdde7f4a	-0.10864122
102	0x3e32806c	0.17431802
103	0x3e40d642	0.18831733
104	0x3de00025	0.109375276
105	0x3dd65484	0.10465339
106	0xbd772e54	-0.060346916
107	0xbe0df2a8	-0.13862097
108	0x3e2ca836	0.16861042
109	0x3d68d869	0.05684701
110	0xbe331ad9	-0.1749071
111	0x3e41b363	0.18916087
112	0xbdf871d3	-0.12131085
113	0x3e6a6c06	0.2289277
114	0xbcbbbb40	-0.022916436
115	0x3e391d9c	0.18077701
116	0x3e489552	0.19588211
117	0xbe0a4ce2	-0.13505891
118	0x3e1b33cb	0.15156476
119	0xbdca6d93	-0.09884181
120	0x3db55ad6	0.08855216
121	0xbd8ba2cf	-0.06818163
122	0xbd8d1f52	-0.068907395
123	0xbe313768	-0.17306292
124	0xbc0b0b60	-0.008486599
125	0x3d95ec05	0.07320408
126	0xbd870e03	-0.065944694
127	0xbe4f1686	-0.20223436

arith.constant3 f4 [128, 960]
0	0xbccd36d6	-0.025050562
1	0x3d0a0471	0.033695642
2	0xbbe8442f	-0.0070882062
3	0xbc8a331a	-0.01687007
4	0x3dac3cce	0.08410035
5	0x3d186d18	0.037213415
6	0xbcab92ac	-0.020943962
7	0x3ce068c4	0.027393706
8	0x3ba8011c	0.0051270854
9	0xbc525271	-0.012837038
10	0x3d91001a	0.070800975
11	0xbd4e39d9	-0.050348137
12	0xbd3014ac	-0.042988464
13	0x39cb6353	0.0003879318
14	0x3d977da8	0.07397014
15	0x3c05ad0d	0.008158934
16	0x3cb16349	0.021653788
17	0x3d82b1e9	0.0638159
18	0x3d946a83	0.07246878
19	0x3da79d93	0.08184352
20	0xbd374b81	-0.04474974
21	0xbbf8f813	-0.007597932
22	0x3ce6baf4	0.028165318
23	0xbc004c39	-0.007830673
24	0x3c062220	0.008186847
25	0xbc81edca	-0.015860457
26	0xbbd3063c	-0.006439952
27	0xbc966985	-0.018360863
28	0xbd4b6f3c	-0.04966663
29	0x3d0209f4	0.031747773
30	0x3b8c30e0	0.0042782873
31	0x3c8038a8	0.015652016
32	0x3b9b9150	0.004747547
33	0x3aa38611	0.0012475868
34	0xbc808a03	-0.01569081
35	0xbcf1652b	-0.029467186
36	0xbd5a179e	-0.05324518
37	0xbb8ca444	-0.004292043
38	0x3d983ddd	0.074336745
39	0x3d331ac1	0.043726686
40	0xbd4626dd	-0.048376907
41	0xbc10fb0a	-0.008848915
42	0xbd3f1042	-0.046646364
43	0x3d8fb964	0.07017782
44	0x3da611ad	0.0810884
45	0x3d71605c	0.058929786
46	0x3d74bb57	0.059748974
47	0x3d427a36	0.04747983
48	0xbd0e3e46	-0.034727357
49	0xbc345f28	-0.011009015
50	0xbd69414e	-0.056947045
51	0x3d9ab191	0.07553399
52	0x3da649a4	0.081195146
53	0x3c4c937a	0.012486333
54	0x3b88618b	0.0041620187
55	0x3cabbbcd	0.020963574
56	0x3d481b3a	0.04885409
57	0xbce22a85	-0.027608166
58	0x3d0a4234	0.033754542
59	0xbd748f9a	-0.05970726
60	0xbd486b89	-0.04893068
61	0xbd30afa2	-0.043136247
62	0xbc73bc04	-0.014876369
63	0x3d6c6579	0.05771396
64	0xbc862950	-0.016377121
65	0xbceaa82e	-0.028644647
66	0xbc3349fe	-0.010942934
67	0xbd228848	-0.03968075
68	0xbc35dc19	-0.011099839
69	0x3d94d98c	0.07268056
70	0xbcaa5df8	-0.02079676
71	0x3b5ea80a	0.003397467
72	0x3d91a810	0.071121335
73	0x3d3e9599	0.046529386
74	0xbbde124c	-0.0067770835
75	0x3c4f7ca0	0.01266399
76	0x3ad13200	0.0015960336
77	0xbbd98121	-0.006637708
78	0x3daa646c	0.08319935
79	0x3c804ede	0.015662607
80	0x3d6f30f1	0.058396284
81	0x3ca21dcb	0.019789597
82	0xbd5366b7	-0.05161163
83	0x3d440643	0.047857534
84	0x3da04731	0.07826079
85	0x3d3624c2	0.04446865
86	0xbd730eff	-0.059340473
87	0xbcc4f0e5	-0.024040649
88	0xbd5bd69b	-0.05367146
89	0x3d2c1d72	0.04202027
90	0x3da75172	0.08169831
91	0x3c25d4e0	0.010121554
92	0x3d13c866	0.036079787
93	0x3d95c310	0.07312596
94	0x3ced1f38	0.02894555
95	0x3ae33b40	0.0017336383
96	0xbd27efe8	-0.041000277
97	0xbc89e651	-0.016833456
98	0xbd750139	-0.05981562
99	0x3d324c96	0.04353007
100	0x3d23358e	0.039845996
101	0x3d8af360	0.06784701
102	0x3d057bcb	0.03258876
103	0x3d0d156f	0.03444427
104	0xba42487e	-0.0007411315
105	0x3a904abd	0.0011008602
106	0xbd6f7945	-0.05846526
107	0x3cd9e5d2	0.026598845
108	0x3da70579	0.08155341
109	0xbbde03a9	-0.0067753387
110	0x3d49974e	0.04921656
111	0x3d332965	0.04374065
112	0xbcd7d4ba	-0.026346553
113	0x3d841a58	0.06450337
114	0x3d94371a	0.07237072
115	0xbc8bf65e	-0.01708525
116	0x3c7c5f44	0.0154035725
117	0x3d3b2683	0.045691025
118	0x3d887d54	0.066645294
119	0xbcfcafed	-0.030845607
120	0x3d0df476	0.034656964
121	0xbd7c98a1	-0.061668996
122	0xbceed949	-0.029156344
123	0x3c80c9ff	0.01572132
124	0x3d18b80c	0.037284896
125	0x3d30444c	0.043033883
126	0xbd1d2c3f	-0.038372274
127	0x3d94f8a8	0.0727399
128	0xbbb78044	-0.0056000073
129	0x3d8c14c7	0.068399005
130	0x3d5530b8	0.052048415
131	0xbc574d0a	-0.013140926
132	0x3d0ef779	0.034903977
133	0x3d0881c2	0.03332687
134	0x3d86493e	0.065569386
135	0x3d94b4e2	0.07261063
136	0x3cd5db6a	0.026105601
137	0x3d6408ef	0.055672582
138	0xbc02ff1b	-0.007995392
139	0x3c30e6ea	0.010797242
140	0xbc169230	-0.009190127
141	0x3cd8e66a	0.026477057
142	0x3d8abdda	0.067744926
143	0x3d9edba8	0.0775674
144	0x3cce12d6	0.025155466
145	0xbd8980e4	-0.06714037
146	0x3d4b5601	0.049642567
147	0xbc923def	-0.017851798
148	0x3ce3b7b7	0.027797563
149	0xbcf1214e	-0.029434826
150	0xbd909a8d	-0.07060728
151	0x3d5b75d0	0.05357915
152	0x3da632ec	0.08115181
153	0xbc546612	-0.012963789
154	0x3c38837d	0.011261818
155	0x3c91821c	0.017762236
156	0x3d937d72	0.07201661
157	0xbd46ebc4	-0.048564687
158	0x3d94c6b9	0.07264466
159	0x3d893d38	0.0670113
160	0x3d0956a4	0.033529893
161	0xbd4d164d	-0.050070096
162	0x3c96eacd	0.018422509
163	0x3d7b9a8c	0.061426684
164	0x3c95feb1	0.018309923
165	0xbd52e302	-0.051486023
166	0x3c20e694	0.009820599
167	0x3d843552	0.064554825
168	0x3dae38f9	0.085069604
169	0x3c54e88d	0.012994898
170	0xbc9c7254	-0.019097485
171	0x3d8995bb	0.06718012
172	0x3db698b4	0.089158446
173	0xbc77cfe7	-0.015125251
174	0x3da93818	0.08262652
175	0x3db3f45c	0.08786842
176	0x3c39918b	0.011326204
177	0xbcf1266a	-0.029437263
178	0xbb14ef74	-0.0022725733
179	0x3c5adc31	0.013358162
180	0xbd0e2e62	-0.034712203
181	0x3d55a136	0.052155696
182	0x3da7846c	0.08179554
183	0x3d77738a	0.06041292
184	0x3d962a0b	0.07332238
185	0xbb57af07	-0.003291072
186	0xbd1d7eb5	-0.038450915
187	0x3d405e16	0.046964727
188	0x3c1d13dc	0.009587254
189	0xbd902a12	-0.07039274
190	0x3dabf6b0	0.08396661
191	0xbd42e0d5	-0.047577698
192	0x3da0bbdb	0.078483306
193	0x3c837119	0.01604514
194	0x3db1cc82	0.08681585
195	0x3c7a47a3	0.015275869
196	0x3cb5fbeb	0.02221485
197	0xbcb21112	-0.021736655
198	0xbcf3038b	-0.029664775
199	0xbd714570	-0.05890411
200	0x3d687346	0.05675056
201	0x3ce40071	0.027832242
202	0x3d73f9d6	0.059564434
203	0x3d323576	0.043508016
204	0xbd67c316	-0.056582533
205	0x3c45dfaf	0.012077256
206	0xbc545288	-0.01295913
207	0x3d3b7e49	0.04577473
208	0xbc5ca47e	-0.013466952
209	0x3ceec86c	0.029148303
210	0x3cfb62cd	0.03068676
211	0xbd2273f8	-0.039661378
212	0xbcb749e5	-0.022374103
213	0x3d5e71a3	0.05430759
214	0xbd64a79e	-0.055823915
215	0x3d515c83	0.051113617
216	0xbb36c1d6	-0.0027886531
217	0x3c4c40ff	0.012466668
218	0xbd434eac	-0.04768245
219	0x3db49ab4	0.0881857
220	0x3d3e921d	0.046526063
221	0xbceae8cc	-0.02867546
222	0x3d9d9163	0.07693746
223	0x3d2496c8	0.04018286
224	0x3cf2e608	0.029650703
225	0x3db3baee	0.087758884
226	0xbd759249	-0.05995396
227	0x3d7c00b6	0.061524116
228	0xbb070e30	-0.0020607822
229	0x3d3c1e2a	0.045927204
230	0xbd3f69d2	-0.046731777
231	0xbca2ede0	-0.019888818
232	0x3d8e7b14	0.06957069
233	0x3d870036	0.06591837
234	0xbcf7de4b	-0.030257365
235	0x3d94210a	0.07232864
236	0x3b5c2f6b	0.00335976
237	0x3cb32774	0.021869399
238	0xbcf59da2	-0.029982392
239	0x3d98c6ed	0.07459817
240	0x3db015d1	0.08597911
241	0x3d17402a	0.036926426
242	0xbd27b7f8	-0.04094693
243	0x3c4d95ad	0.0125478925
244	0x3d837382	0.06418516
245	0x3d483584	0.04887916
246	0xbd5b9b10	-0.053614676
247	0xbca208cc	-0.019779585
248	0x3ca51d4b	0.02015557
249	0xbc7d0f48	-0.015445538
250	0x3daa1e66	0.08306579
251	0xbd81faa2	-0.063466325
252	0x3b38370a	0.0028108978
253	0x3d15dd46	0.036587976
254	0xbb9f9d53	-0.0048710494
255	0xbc6431ca	-0.013927886

arith.constant5 f4 [128]
0	0x3c785365	0.015156602
1	0x00000000	0.0
2	0xbbc47910	-0.005995877
3	0xbbcca49c	-0.006245209
4	0x3c807aa4	0.01568348
5	0x00000000	0.0
6	0x00000000	0.0
7	0x00000000	0.0
8	0xbc08ee99	-0.008357667
9	0xbbc49a96	-0.0059998734
10	0xbba3537d	-0.004984318
11	0x3c8221be	0.01588523
12	0xbc067100	-0.008205652
13	0x3c82fe28	0.015990332
14	0x00000000	0.0
15	0xbbae7cc9	-0.005324934
16	0x3c8c7c75	0.01714919
17	0xbc1fd217	-0.009754679
18	0xbbd58619	-0.00651623
19	0x3c991718	0.01868777
20	0x3c83240e	0.016008403
21	0x3c67b566	0.01414237
22	0xbc0acf00	-0.008472204
23	0xbc116fa6	-0.008876717
24	0x3c8b05e6	0.016970586
25	0x3c7d7471	0.015469656
26	0x3c7c0eb5	0.015384366
27	0xbc0a0e61	-0.00842628
28	0xbbc4c479	-0.0060048667
29	0x3c8140a8	0.0157779
30	0x3c86ace2	0.016439859
31	0xbc0b4726	-0.00850085
32	0xbc0aed3c	-0.008479413
33	0x00000000	0.0
34	0x3c76e081	0.015068174
35	0xbc0022d1	-0.007820801
36	0x3c8222df	0.015885768
37	0x00000000	0.0
38	0xbbc38216	-0.005966435
39	0xbbcd6130	-0.006267689
40	0x3c513f18	0.01277139
41	0xb985e90c	-0.0002554137
42	0x3c78d8ec	0.015188437
43	0x00000000	0.0
44	0xbbe5d70c	-0.007014161
45	0x3c844b44	0.01614917
46	0x3c798fbf	0.015232026
47	0x00000000	0.0
48	0x00000000	0.0
49	0xbbc4ad43	-0.0060020997
50	0xbbc4c493	-0.006004879
51	0xbbc4af94	-0.006002376
52	0xbbc4c786	-0.0060052304
53	0x3cac4ece	0.02103367
54	0x3c7f610b	0.015587102
55	0x00000000	0.0
56	0xbbcdf912	-0.006285795
57	0x3c7cee75	0.015437712
58	0x00000000	0.0
59	0x3c7f020e	0.015564455
60	0x3c826276	0.01591609
61	0x3c846724	0.016162463
62	0x00000000	0.0
63	0xbc257e73	-0.010100949
64	0xbc217bd4	-0.009856183
65	0xbbc4aba6	-0.0060019074
66	0xbbd86640	-0.006603986
67	0x00000000	0.0
68	0x3c890485	0.016725788
69	0x00000000	0.0
70	0x3c6a73c7	0.01430983
71	0x00000000	0.0
72	0x3c85d8c5	0.016338715
73	0xbbc4bfe3	-0.00600432
74	0xbc02a2c7	-0.007973379
75	0x00000000	0.0
76	0x3c811ef3	0.015761828
77	0x3c7e4464	0.015519235
78	0x00000000	0.0
79	0xbbb5cd2a	-0.005548139
80	0x00000000	0.0
81	0x3c7ebb81	0.015547634
82	0x3c807010	0.015678436
83	0x00000000	0.0
84	0x3d6386e7	0.055548575
85	0x3c84ae6a	0.016196448
86	0xbbc4c76f	-0.0060052196
87	0x3c77317b	0.015087481
88	0xbbdbe8b1	-0.0067110886
89	0xba0e2236	-0.0005421968
90	0xbbec230e	-0.0072063273
91	0xbc04583d	-0.008077678
92	0x3c86ccac	0.016455017
93	0x00000000	0.0
94	0x3c614603	0.013749602
95	0x00000000	0.0
96	0x3c81aeb0	0.015830368
97	0xbbfa3d57	-0.007636707
98	0x3c7e4a8a	0.015520701
99	0xbc0b20a2	-0.008491667
100	0x3c84e45a	0.016222168
101	0xbc0c4f99	-0.008563899
102	0x3c7ee8c0	0.015558422
103	0x3c875304	0.016519077
104	0x3c7b49e8	0.015337445
105	0x3c7f15a7	0.015569127
106	0x00000000	0.0
107	0xbbc4a660	-0.0060012788
108	0x00000000	0.0
109	0x3c893a16	0.01675133
110	0xbc1bb464	-0.009503458
111	0x3c811ca9	0.015760737
112	0xbbe273c4	-0.006910773
113	0x3c7f8a7b	0.015596981
114	0x00000000	0.0
115	0x00000000	0.0
116	0x3c7da2d7	0.015480719
117	0xbbb146ab	-0.0054100356
118	0x3c82672c	0.015918337
119	0x00000000	0.0
120	0x3c7f16a0	0.015569359
121	0xbc113ef0	-0.008865103
122	0xbc3c2956	-0.011484465
123	0xbc0b8ad4	-0.008516986
124	0x00000000	0.0
125	0x3c7b29f3	0.015329826
126	0xbc4d2a1a	-0.012522245
127	0xbbc4c46d	-0.006004861

sequential_3_1/conv2d_8_1/convolution f4 [32, 3, 3, 1]
0	0xbd9d4457	-0.076790504
1	0xbd9ecc5c	-0.07753822
2	0x3db29540	0.087198734
3	0x3e1d09a4	0.15335709
4	0x3df54c7b	0.11977478
5	0xbdba6890	-0.09101975
6	0x3d9a9127	0.07547217
7	0x3de8d5ba	0.1136889
8	0x3d7d2ec6	0.061812185
9	0xbc8ccf26	-0.01718862
10	0x3d51444b	0.05109052
11	0x3e1364e9	0.14393963
12	0x3a62c38c	0.00086503546
13	0x3daa3a22	0.08311869
14	0x3db1a78e	0.08674537
15	0x3df4ad15	0.11947075
16	0x3c6f782c	0.014616054
17	0xbe08526c	-0.13312691
18	0x3e0f8fd2	0.14019707
19	0x3c4d0eea	0.012515763
20	0xbdab3452	-0.08359589
21	0xbdaba00c	-0.08380136
22	0xbce7acc8	-0.02828063
23	0xbe0d0a65	-0.13773496
24	0xbd5629b1	-0.052285854
25	0xbd836bff	-0.06417083
26	0x3cc358c4	0.023846038
27	0x3d80732e	0.06271969
28	0x3ba69cb4	0.0050845984
29	0x3d8ee21e	0.06976722
30	0xbdb4bdb8	-0.088252485
31	0x3e0194f7	0.12654482
32	0xbdad3016	-0.08456437
33	0xbd29d763	-0.041465174
34	0xbca8ec47	-0.020620478
35	0x3d807496	0.06272237
36	0x3d97be1f	0.074093096
37	0xbd9cb652	-0.07651962
38	0xbdd618b7	-0.10453933
39	0x3dee011f	0.116213076
40	0xbddd2cff	-0.10799598
41	0xbd40acb0	-0.047039688
42	0xbb922cde	-0.004460915
43	0xbdea4cb3	-0.114404105
44	0xbd386fee	-0.04502862
45	0x3e174605	0.14772804
46	0xbdebbd21	-0.11510683
47	0x3dd39515	0.103311695
48	0x3d92d664	0.07169798
49	0x3dff6396	0.124701664
50	0xbd4ed7de	-0.050498836
51	0xbd33a346	-0.04385688
52	0x3d152523	0.03641237
53	0xbdea5c26	-0.11443357
54	0x3d7c34a5	0.061573643
55	0xbd017619	-0.031606767
56	0xbb6bf6c3	-0.0036005236
57	0x3ddeae15	0.10873047
58	0x3de6860c	0.11256036
59	0x3dd06c99	0.10176963
60	0x3cef99b2	0.029248092
61	0x3d9f1de0	0.0776937
62	0x3dd6e622	0.10493113
63	0x3dae2cfb	0.08504673
64	0xbd806811	-0.06269849
65	0xbd682295	-0.056673605
66	0x3e0d4e2a	0.13799348
67	0x3cb69737	0.022288902
68	0x3df78e2a	0.120876625
69	0xbd7eb0ff	-0.062180515
70	0xbd4119e7	-0.047143843
71	0xbdc205d0	-0.09473765
72	0x3d902cf5	0.07039825
73	0xbda5f56c	-0.08103451
74	0xbd39a399	-0.045322035
75	0x3df16656	0.11787097
76	0x3d8cab2d	0.06868587
77	0x3d6f2326	0.05838313
78	0xbd51aed2	-0.051192112
79	0xbe00a4e9	-0.12562908
80	0x3e0b2e67	0.1359192
81	0x3d4c590d	0.049889613
82	0xbdedf643	-0.11619236
83	0x3d0e9ae6	0.03481569
84	0xb8590371	-5.1740037e-05
85	0x3e13cf85	0.14434631
86	0x3e225d6f	0.15855955
87	0x3d3a93ad	0.04555099
88	0x3cd1866d	0.025576795
89	0xbc1a52ae	-0.009419126
90	0xbded2ee6	-0.11581211
91	0xbdcad9b6	-0.09904806
92	0xbd8a63a9	-0.0675729
93	0x3e016ce2	0.12639192
94	0xbc58d371	-0.013234005
95	0xbc5f16cd	-0.013616276
96	0x3cbe48db	0.0232281
97	0xbc8bc9f9	-0.017064082
98	0x3d3f7d31	0.04675025
99	0x3cadb8d9	0.021206306
100	0xbd69921d	-0.05702411
101	0xbd54accd	-0.05192261
102	0x3c49451f	0.012284546
103	0xbe0fdee0	-0.14049864
104	0xbdfc2c7a	-0.12313171
105	0x3dc896ab	0.09794363
106	0xbdf31311	-0.11868871
107	0xbd98f15d	-0.074679114
108	0x3d9554a6	0.07291536
109	0x3da142f8	0.078741014
110	0x3de11011	0.109893925
111	0xbd60b815	-0.054863054
112	0xbe05b0fa	-0.13055792
113	0xbd42282e	-0.0474016
114	0xbd2b9cce	-0.041897587
115	0xbe1a289b	-0.15054552
116	0x3d859c8d	0.06524
117	0x3de08eef	0.109647624
118	0xbd425fd4	-0.04745467
119	0xbdf2c1c8	-0.11853367
120	0xbd9f39d4	-0.07774702
121	0xbd777df7	-0.060422864
122	0x3d8d77ec	0.06907639
123	0x3b05a7e1	0.0020394253
124	0x3db2f7db	0.08738681
125	0xbd4284cc	-0.047489926
126	0x3dd255e9	0.10270292
127	0xbd3efa60	-0.046625495
128	0xbd89d721	-0.06730486
129	0x3dd3a6b7	0.10334533
130	0x3dfa9a6c	0.12236485
131	0xbd8a926b	-0.06766208
132	0x3e04bf1c	0.12963527
133	0xbe026613	-0.1273425
134	0xbc87a2f4	-0.016557194
135	0x3d994e0f	0.074855916
136	0x3d82a6e5	0.06379489
137	0x3e24ed98	0.1610626
138	0xbb8e433c	-0.004341511
139	0xbd520d91	-0.05128247
140	0xbd828d5a	-0.06374617
141	0xbde98abe	-0.11403416
142	0x3e24cac7	0.16092978
143	0x3e20cbbc	0.15702718
144	0xbc62d1cc	-0.013843965
145	0x3db3e04a	0.08783014
146	0xbd29c9ff	-0.041452404
147	0x3e0753cd	0.13215561
148	0xbdee2cb2	-0.11629619
149	0xbdbeb3f3	-0.09311666
150	0xbd617594	-0.055043772
151	0x3dcbf599	0.099589534
152	0xbdf8c82c	-0.12147555
153	0x3c11e927	0.0089056855
154	0xbd86d3ed	-0.065833904
155	0x3daad581	0.08341504
156	0xbdf0f595	-0.11765591
157	0xbc96ad1d	-0.018393094
158	0x3daaa7e3	0.08332803
159	0xbdffa55a	-0.1248271
160	0xbd255940	-0.04036832
161	0xbc9fcbc6	-0.019506346
162	0x3df00ad3	0.117208146
163	0x3db5c940	0.08876276
164	0xbdb9cf77	-0.09072774
165	0x3bdbecc1	0.006711573
166	0x3d84d4bb	0.064858876
167	0x3c950430	0.018190473
168	0x3cc8aefb	0.0244975
169	0x3d3ab7f3	0.045585584
170	0x3d622837	0.055214133
171	0xbd0bb990	-0.034112513
172	0xbde0a394	-0.109687
173	0x3cb56979	0.02214502
174	0x3cc12f91	0.023582252
175	0xbcc8ec7d	-0.024526829
176	0xbc9c56eb	-0.019084414
177	0x3ded467a	0.11585708
178	0x3dd2e48b	0.10297497
179	0x3de0eb3f	0.1098237
180	0x3df85935	0.1212639
181	0x3c987f8e	0.01861551
182	0x3cd1a5d4	0.025591768
183	0xbdfc4ff3	-0.123199366
184	0x3c5666dd	0.013086048
185	0x3e158a31	0.14603497
186	0x3dd44691	0.10365022
187	0xbc7b787d	-0.015348551
188	0xbca379d5	-0.019955555
189	0x3cf746fe	0.030185219
190	0xbdd74abf	-0.105123036
191	0x3de738df	0.11290144
192	0x3dc554be	0.09635304
193	0xbdaf832b	-0.0856994
194	0xbd12f79d	-0.035880674
195	0x3e0e5a33	0.13901596
196	0x3c3b39dd	0.01142737
197	0x3df95aef	0.12175547
198	0x3d031d33	0.03201027
199	0x3e1ddef2	0.15417078
200	0x3d68eec4	0.05686833
201	0xbc86bbed	-0.016447032
202	0x3d057555	0.0325826
203	0x3e1ea203	0.1549149
204	0xbdaf3bc6	-0.08556323
205	0xbacb3dc7	-0.0015506082
206	0xbdbb1513	-0.09134879
207	0x3d81d2ae	0.06339012
208	0x3cf8e738	0.030383691
209	0xbc18eab8	-0.009333305
210	0x3d14bfed	0.036315847
211	0xbd10480b	-0.035224956
212	0xbdce817d	-0.10083292
213	0x3bb55e00	0.0055348873
214	0xbd448af5	-0.047984082
215	0x3dc8f697	0.09812658
216	0xbd1155ca	-0.035482205
217	0xbd32157f	-0.04347753
218	0xbd748a4d	-0.059702206
219	0x3ca17ad3	0.019711887
220	0xbd88baa2	-0.066762224
221	0xbcd1855a	-0.025576282
222	0x3e050d02	0.12993243
223	0xbdeed5ff	-0.1166191
224	0xbe0e92f4	-0.13923246
225	0xbdf23506	-0.1182652
226	0xbcc7bea3	-0.024382895
227	0xbd82c342	-0.06384899
228	0x3e16075f	0.1465125
229	0x3c498adb	0.012301172
230	0x3d93acb8	0.07210678
231	0x3deeb196	0.116549656
232	0xbdc0b122	-0.094087854
233	0xbd28be57	-0.041197147
234	0xbd3c354a	-0.045949258
235	0xbd78e4b6	-0.06076499
236	0xbd1c24b2	-0.038120933
237	0xbd183f50	-0.037169755
238	0x3dbf6693	0.09345736
239	0x3e00f7c6	0.12594518
240	0x3d37cec6	0.04487493
241	0xbc0dceaf	-0.008655234
242	0x3de65981	0.1124754
243	0x3df20fe5	0.11819438
244	0xbd6f0b70	-0.058360517
245	0xbde7d3cb	-0.11319693
246	0xbcad9fb3	-0.021194315
247	0x3de263d4	0.11054197
248	0xbdafdf1f	-0.08587479
249	0x3db90343	0.09033825
250	0x3d940f1f	0.072294466
251	0xbd14b4de	-0.0363053
252	0x3c12347d	0.008923647
253	0xbcf65f82	-0.030074839
254	0x3dc95c15	0.098320164
255	0x3d97a688	0.0740481

sequential_3_1/conv2d_8_1/Relu;sequential_3_1/conv2d_8_1/BiasAdd;sequential_3_1/conv2d_8_1/convolution; f4 [32]
0	0x3c5e83b2	0.013581203
1	0x3beec12c	0.0072862115
2	0x3c888c65	0.016668508
3	0x3ca84039	0.020538436
4	0xbc6a7627	-0.014310396
5	0x3ca3348c	0.019922517
6	0x3c9a7bd7	0.01885788
7	0x3ca281d5	0.0198373
8	0x3c86e516	0.016466659
9	0x3c9ecb31	0.019383999
10	0xbb09a1b9	-0.0021000935
11	0x3d314507	0.04327872
12	0xbc0fc89a	-0.0087758545
13	0x3c34043f	0.0109873405
14	0x3c7e1cae	0.015509767
15	0x3c9d9aa1	0.019238772
16	0x3c32a9db	0.0109047545
17	0xbc19d2e6	-0.009388661
18	0x3c85852d	0.016298855
19	0x3c986122	0.018601004
20	0x3c58e2be	0.013237653
21	0x3c1be88b	0.009515892
22	0x3c9f46ae	0.019442882
23	0x3c83908a	0.016060133
24	0xbbf15455	-0.0073647895
25	0x3c75ce1f	0.015002756
26	0x3c9f7863	0.019466585
27	0x3c81c6e2	0.015841905
28	0x3cabb99e	0.020962533
29	0x3c99a163	0.018753713
30	0x3bb65486	0.005564275
31	0x3c8b06c6	0.016971003
