assets/models/Calf_Raises_model.tflite (tflite, 570996 bytes, 7 tensors)

arith.constant f4 [64]
000000 b6 d5 a1 3c 2c cd 0b bc 5e 72 84 bb 02 e0 98 3c
       0.019755226 -0.0085328035 -0.004041954 0.018661503
000010 4a 2b b9 3b 8c 6f 95 3c 25 03 a2 3c 0d d1 8b 3c
       0.0056509124 0.018241666 0.01977689 0.017067457
000020 7d c4 94 3c 6a bf 97 3c 5c 49 6e 3c 16 f6 9b 3c
       0.0181601 0.01852389 0.014543857 0.019038241
000030 31 23 01 3c 40 34 6b 3b 70 cd 2e 3c 00 23 8c 3c
       0.007881925 0.0035889298 0.010669097 0.017106533
000040 ed 9b 27 bb 44 a2 5d 3c 97 c1 95 3c 2b db 90 3c
       -0.0025575117 0.013527457 0.018280787 0.017682632
000050 80 bf 94 3c 5e 4f 82 bb 28 bb 16 3c 00 00 00 00
       0.01815772 -0.0039767465 0.009199895 0.0
000060 14 09 2c 3c ab 3e 9a 3c 15 3a 67 bb 61 11 6f 3c
       0.010500211 0.01882871 -0.0035282422 0.014591546
000070 b9 26 72 3c 71 38 3b bb 65 a6 da bb ae db 7a 3c
       0.01477974 -0.0028567577 -0.006672668 0.015311165
000080 eb 11 96 3c 81 2f b3 bb cf 04 93 3c 94 7f 15 3c
       0.01831909 -0.0054683094 0.017946629 0.009124655
000090 e1 41 44 3c 3e 21 a1 3c ee 14 9f 3c ef 6f 04 3c
       0.011978597 0.019669171 0.01941916 0.008083328
0000a0 30 c3 9f 3c b1 ab 96 3c d8 b6 7a 3b b8 21 90 3c
       0.019502252 0.018392416 0.0038255956 0.017594203
0000b0 58 1f 92 3c c8 61 1a 3b 59 2e 71 3c b4 8f e8 ba
       0.017837211 0.0023556817 0.014720523 -0.0017743022
0000c0 42 c2 ac 3c 86 55 5c 3c 72 2e 9b 3c 63 ef 95 3c
       0.021088723 0.013448125 0.018943045 0.018302625
0000d0 22 13 68 3b 54 97 37 3c 39 95 50 3c 6d 18 9a bb
       0.0035411795 0.011205513 0.01273089 -0.004702619
0000e0 4a c7 95 3c 5a 29 74 3c d3 82 8b 3c 82 24 8b 3c
       0.018283505 0.014902437 0.017030155 0.016985182
0000f0 a4 d8 31 bc 7c 8d 56 3c b3 52 ff 3a a8 b2 92 3c
       -0.010854874 0.013095256 0.0019479602 0.017907456

arith.constant1 f4 [64, 3, 3, 32]
000000 6e 9b c4 3b f9 56 a4 ba 8e 31 3c 3d a4 03 20 bd
       0.005999974 -0.0012538127 0.045945697 -0.039065972
000010 2d 60 fa 3c 11 db 01 3d 3d c3 30 3d 73 21 7f 3d
       0.030563438 0.03170306 0.043154944 0.06228776
000020 cb ff e0 3b c8 a5 c5 3b 32 63 a8 bb b2 f8 2a 3c
       0.0068664304 0.0060317256 -0.005138778 0.01043527
000030 08 75 b8 bc d6 40 52 bd f4 75 a8 3d 4a 38 9f bc
       -0.022516742 -0.051331364 0.08225623 -0.01943602
000040 e3 0d f3 bc e7 52 e2 3c 4c 8a 08 3d bd 2e 42 3c
       -0.029669708 0.027627422 0.033335015 0.011851964
000050 ae 13 58 bd b2 69 6e b9 29 63 45 bd 86 6c ba 3d
       -0.052753143 -0.00022736823 -0.04819027 0.091027305
000060 87 88 60 bd 8e 0b 38 bd b6 f4 17 bd f2 ea ad 3d
       -0.054817703 -0.044932894 -0.03709861 0.08492078
000070 43 9a b3 3d ce 52 81 3d 91 3d 42 bc 6f 06 d9 bc
       0.087696575 0.06314622 -0.011855499 -0.026492326
000080 49 a3 98 3d f6 cf 02 3d 1d c8 92 3d 68 c0 ba 3d
       0.07453019 0.03193661 0.07167075 0.0911873
000090 8b 85 d3 3c 15 91 85 bc 53 76 8a bc 26 18 44 3d
       0.025820514 -0.016304532 -0.016902125 0.047874592
0000a0 48 b3 a6 3d d3 88 f0 3c 0f 97 9f bc 09 60 46 bd
       0.08139664 0.029362118 -0.01948121 -0.04843143
0000b0 b8 45 ba bb c2 57 a0 3c dc 97 20 3d 57 df ae 3d
       -0.0056845807 0.019573096 0.039207324 0.085386924
0000c0 ea 96 7a bc b3 1a 5c 3d 10 cd 94 3d dd 8d b8 3d
       -0.01529477 0.0537364 0.07265675 0.09011433
0000d0 a6 68 aa 3d f8 ff 7b bd cd 48 b5 3d ef 6b 4d 3d
       0.08320741 -0.061523408 0.08851776 0.05015176
0000e0 7a d4 45 3d bd f8 81 3c 57 56 a2 bb 8b 21 18 3d
       0.048298337 0.015865678 -0.00495414 0.037141364
0000f0 a3 16 99 3c c4 bc 05 bd 95 f4 43 3d ac d7 4a 3d
       0.018687552 -0.032650724 0.047840673 0.049522087
000100 ec 6b 78 bd 97 31 c9 3d 70 9d c8 3d fe 7c 8a ba
       -0.060649797 0.09823912 0.09795654 -0.0010565815
000110 40 3a c2 bc 19 d9 ae bc 9c fd 5a bd b7 e4 69 3d
       -0.023709416 -0.021343755 -0.053464517 0.057102885
000120 fc 1f bc 3d 49 54 93 bc ad 5d d8 3c a5 e7 98 3c
       0.09185788 -0.017984526 0.026411856 0.018665144
000130 9a 06 ca 3d e1 78 37 bd df ba 79 bd 59 4f 4c bd
       0.098645404 -0.044793013 -0.06096923 -0.04988036
000140 ed 6c e4 39 8d 00 6e bd b4 5e 81 bd ed 66 86 bd
       0.00043568705 -0.058105994 -0.06316891 -0.065626
000150 3b 88 00 bd 91 30 b3 3d 4d 14 61 bc 7b c6 1f 3d
       -0.03137992 0.08749498 -0.01373775 0.039007645
000160 0e 22 be 3d f3 9b f9 ba 9f ee fc 3c d0 20 9b 3d
       0.09283839 -0.0019043669 0.030875502 0.07574618
000170 71 d6 cd 3c 1e d2 ab 3d 88 93 4a 3d d0 b3 96 3d
       0.025126668 0.08389686 0.049457103 0.07358515
000180 1f 28 26 bc e0 27 72 bd c7 a3 31 bc da 08 9c bb
       -0.010141402 -0.05912006 -0.01084227 -0.0047617974
000190 16 38 d6 3c 62 cd 4e 3d 3c 94 7f 3d 7c ed 68 bd
       0.02614979 0.050488837 0.062397227 -0.056867108
0001a0 d5 79 7e 3d f4 1c c8 3c 31 56 c8 3d 5b 97 c9 bc
       0.062127907 0.024427868 0.09782065 -0.024608305
0001b0 dc f8 5d 3d 24 c7 37 3d 41 65 25 bd d1 04 00 bd
       0.05419241 0.04486765 -0.040379766 -0.031254593
0001c0 bc 7b 2d bd a5 ff 62 bd 18 87 80 3d 89 53 12 bd
       -0.04235433 -0.055419583 0.06275767 -0.035724197
0001d0 97 b7 72 3d a9 2a 89 3d b7 3a 2e bd c2 cd 2f bd
       0.059257116 0.0669759 -0.042536464 -0.042920835
0001e0 44 05 d7 bb f6 bd 98 3d 5a fd 11 3d 2a 90 a6 3b
       -0.006561907 0.07458107 0.035642006 0.0050831037
0001f0 b3 33 09 3d 83 70 98 3c 66 ab 6f 3d 0d 97 b5 3d
       0.03349657 0.018608337 0.058513068 0.08866701
000200 39 a8 66 bd b1 5b 8c 3d 00 37 80 3c 6f 04 61 bd
       -0.056312773 0.06853426 0.015651226 -0.05493587
000210 c1 a2 36 bc b3 58 74 3d a0 eb 25 3d 29 56 b7 3d
       -0.011147202 0.059654903 0.040507913 0.089519806
000220 30 de 95 bc c6 07 a5 3d 57 6f 1f bd 3c 1b c6 bc
       -0.018294424 0.08058123 -0.03892454 -0.024182908
000230 b4 5f 78 bd b4 66 72 3c 05 e2 b8 bc f7 e4 7b 3d
       -0.060638145 0.014794994 -0.022568712 0.061497655
000240 00 69 e0 3c 22 97 00 bc c8 bc 54 bc c4 2a f4 3b
       0.027393818 -0.007848533 -0.012984462 0.007451387
000250 c5 30 8e bc b0 6f 8d 3d ca e8 42 3d 38 af 19 3d
       -0.01735724 0.06906068 0.047585286 0.037520617
000260 90 0a 60 bd 85 fb 48 3d a9 09 f0 bb 63 72 42 3d
       -0.054697573 0.049067993 -0.0073253703 0.04747237
000270 75 e1 15 bd 46 c5 b5 3d 6d 77 2e bd 84 31 1a bd
       -0.036591966 0.088755175 -0.042594362 -0.037644878
000280 25 40 9f bc b9 b8 48 3d 7c e8 b2 bb 59 8c 24 3d
       -0.019439766 0.04900429 -0.005459843 0.04017291
000290 d5 32 85 3c 8d c9 f5 3c e5 cc 9e 3d 74 15 1e 3d
       0.01625959 0.030003333 0.07753924 0.038594678
0002a0 1e b6 17 bd cc 05 96 3d d4 d7 b3 bc 7d ca 4c 3d
       -0.037038915 0.073253244 -0.0219535 0.049997795
0002b0 1d 3a 01 bd b0 2e 89 3d 5c 3c 7d bd 50 ab c3 3d
       -0.03154956 0.06698358 -0.06182514 0.0955416
0002c0 ab 2b b4 3d 4b 02 b4 3c 64 c8 3c bd 7a dc 75 bc
       0.087973915 0.02197375 -0.046089545 -0.015006179
0002d0 b1 92 1f 3d a1 91 b5 3d d9 f4 70 bd 53 61 93 3d
       0.038958255 0.08865667 -0.058827255 0.071962975
0002e0 ba 38 0b bc b0 bf 8e 3d 0f a9 33 3c f7 3c 82 3d
       -0.008497411 0.06970155 0.0109656 0.06359284
0002f0 67 85 a9 3d 32 01 77 3d ef 9a bd 3d 62 7c 8f 3d
       0.082773976 0.060303874 0.09258067 0.07006146
000300 be 51 31 bd 53 8b 3b bd 1b 92 88 3d 05 74 7f bc
       -0.043290846 -0.045787167 0.066684924 -0.015591626
000310 2d 99 9b 3d ce 96 56 3d e5 4c 1a 3d 7f 69 39 3c
       0.07597575 0.052389912 0.03767099 0.011316656
000320 4c c6 61 bd c3 29 d6 3b 3b 83 ab 3c 5e ea 54 bd
       -0.05512075 0.00653574 0.020936599 -0.051981322
000330 a9 d5 f1 bb be a2 0d bd 96 51 4b bc d2 c0 a5 3c
       -0.0073802066 -0.03457903 -0.012409588 0.020233545
000340 09 41 98 3d cf 3a 21 bc 28 c1 5c 3c b3 22 0f 3d
       0.074342795 -0.009840681 0.013473786 0.0349452
000350 7a 0b 74 3d 3c c1 b7 3c f3 97 8b 3d 68 46 81 bd
       0.059581257 0.022431009 0.068160914 -0.06312257
000360 02 7e 18 3d 66 30 57 bd bf ad da 3c 1c 3e d0 3c
       0.037229545 -0.05253639 0.026694177 0.025420241
000370 04 5e 34 3d 7c 96 5b 3c c1 bd a3 3d 52 8d 5d 3d
       0.044034973 0.0134025775 0.07995177 0.05408985
000380 02 15 c6 3d fb 63 12 bd a6 c8 aa bc 5e ab 8e 3d
       0.09671976 -0.03573988 -0.02084763 0.069662794
000390 e7 c4 03 bd 4f 2b 58 bd 41 e7 3d 3c 8a ce 7f bd
       -0.032170203 -0.052775677 0.01159078 -0.06245283
0003a0 a2 8a 7b bb ae 66 c5 3d fb 5b 23 bd f2 70 86 3c
       -0.0038382192 0.09638725 -0.03988264 0.016411278
0003b0 ac 4d 07 3d 0d 37 27 bc b0 2f 95 bc fa eb 56 3d
       0.033033058 -0.010205996 -0.018211216 0.05247114
0003c0 6d 4a c0 3d 90 62 4c bd 92 87 62 3d e1 07 df 3c
       0.093891956 -0.049898684 0.05530507 0.027225437
0003d0 cd 83 2b 3b b0 10 04 bd 4c 56 02 bb fc bb 5f bd
       0.0026171089 -0.032242477 -0.0019887863 -0.054622635
0003e0 37 6e 64 3c b2 7b 34 3d 4d 33 87 3c 30 bb 57 3d
       0.013942293 0.044063278 0.016503954 0.05266875
0003f0 b8 63 e5 bc e9 03 ae 3d d0 c9 52 bd 5e f1 5e 3d
       -0.028001651 0.084968396 -0.051461995 0.054429404

arith.constant2 f4 [1, 128]
000000 d3 eb 23 3e d2 aa de bd 12 c2 49 be fe 9d 48 3e
       0.16007929 -0.10872425 -0.19702938 0.19591519
000010 ae 2f 2f bd af f8 87 bd 29 45 a2 3d c6 7b 39 3e
       -0.04277008 -0.066392295 0.079233475 0.18113622
000020 3a e6 3c be b6 ec 41 3e 85 5a 3e be 40 28 bb 3d
       -0.184472 0.18937954 -0.18589218 0.091385365
000030 26 6a ab bd aa 35 4d 3d f2 81 0d be 05 58 13 bd
       -0.083698556 0.050100006 -0.13819101 -0.035972614
000040 55 79 07 3d 6f be 37 be bf fb be bc 02 43 72 bd
       0.033074696 -0.17943738 -0.023313401 -0.059145935
000050 54 9c 87 3d 6f e2 53 3e a4 7a dd 3d cc 9a 04 be
       0.06621614 0.20691846 0.108144075 -0.12949675
000060 1a 37 b8 bd ec ec 30 3e 1d e8 04 be 5b 5c 71 bd
       -0.08994885 0.17277879 -0.12979169 -0.058925968
000070 f3 9a 69 3e dd 45 b3 bd 40 88 76 bb 86 59 53 3e
       0.22813015 -0.0875356 -0.0037617832 0.20639619
000080 2e 86 07 3e 7b 06 45 3d 10 0b 14 3d 21 f3 13 be
       0.13234779 0.048101883 0.036143363 -0.14448215
000090 8b 38 f1 bd 24 93 74 bd aa cd e8 bd 5c d0 6b 3d
       -0.11778363 -0.059710637 -0.11367352 0.057571754
0000a0 74 90 f5 bd 0c 08 25 3e 59 62 c5 3d ca 2a 1b be
       -0.11990443 0.16116351 0.09637899 -0.15153041
0000b0 0f 04 68 3e 19 07 5c 3e 30 00 67 3d 37 9f 3b bd
       0.22657798 0.21487083 0.056396663 -0.045806136
0000c0 b2 87 06 3d 37 71 50 be cc d5 15 3e eb 24 e0 bd
       0.032844253 -0.20355688 0.14632338 -0.109445415
0000d0 e0 48 f2 bc aa 58 c8 39 42 e3 38 3e b3 89 e1 3a
       -0.029575765 0.00038213033 0.18055442 0.0017207175
0000e0 49 a0 68 3e bb cf 36 3e 67 cf 6e 3d 80 a3 bd bc
       0.22717394 0.1785268 0.058303263 -0.023149252
0000f0 a0 30 26 3e fb 1f e6 bd 10 53 27 3c 79 78 12 3e
       0.16229486 -0.112365685 0.010212675 0.14303769
000100 bb b1 27 3e 88 ce 01 bb e8 39 f4 3d c7 cf 89 bc
       0.16376393 -0.001980694 0.11925107 -0.016822709
000110 a8 00 56 3e db a0 48 3e 6e 98 46 3d fe 2f a3 3d
       0.20898688 0.19592611 0.048485212 0.07968138
000120 b1 88 1a 3e c1 d8 61 3e 3b 2e db 3d 0c b4 1e be
       0.15091206 0.22055341 0.10702177 -0.1549837
000130 80 fa e0 3d b2 a0 58 3e e8 c7 1d be ea 16 3d 3d
       0.10985279 0.2115505 -0.1540829 0.04616443
000140 d0 c0 35 3d b7 27 09 3d c8 3e 5e 3e 98 bd 2b 3e
       0.044373333 0.03348514 0.21703637 0.16771543
000150 f3 f6 c5 3d 4a fe 03 ba 38 a7 bc bd 14 9b 08 3d
       0.096662425 -0.00050351454 -0.09211582 0.03335102
000160 79 1d cd 3d 08 ad 11 3d 5a bb ac bd ef 5f 50 be
       0.10015387 0.035565406 -0.08434172 -0.20349096
000170 c0 65 e6 bd 88 8f 38 be 0e 74 8d bd ab 62 28 be
       -0.11249876 -0.18023503 -0.06906901 -0.16443889
000180 3c e2 ed 3c 49 bf 3e be 5b 71 d9 3d 30 ee 3c 3d
       0.029038541 -0.18627657 0.10617324 0.04612559
000190 f6 81 e1 3d 7b 24 06 3e e4 95 0f bd ea fb 8d 3d
       0.11011116 0.13099854 -0.035055056 0.069328144
0001a0 45 88 21 bd df 48 66 3d 68 d2 cd 3d 71 a0 c7 3d
       -0.039436597 0.05622184 0.100498974 0.09747399
0001b0 c7 14 43 3e ad a8 df 3d 0d f5 00 bd 15 02 cc 3d
       0.19050895 0.10920844 -0.0314837 0.099613346
0001c0 73 be 2e be dc bb b2 bd 69 bd 15 be e4 e8 53 bb
       -0.17064838 -0.087272376 -0.14623035 -0.0032334859
0001d0 bd dc ad bd ac 35 3d 3e 0f 7e 1c be 8a 1b b6 3d
       -0.08489368 0.18477505 -0.15282463 0.088919714
0001e0 de fd 35 3e ee ed 00 bd 9c 81 64 bd 40 d9 41 3d
       0.17772624 -0.031476907 -0.055787668 0.047326326
0001f0 46 09 87 3c 05 bc 50 be ae 0c 1b 3e 2d 1a 1d be
       0.016483914 -0.20384224 0.15141556 -0.15342017

arith.constant3 f4 [128, 960]
000000 5c 4b c2 3b 30 a6 ad 3b 99 8e 4e bd 72 a0 46 bd
       0.0059293937 0.005299352 -0.05042896 -0.048492856
000010 f7 e5 49 3d 18 04 a4 bc 37 47 79 3d eb 0b 02 bd
       0.049291577 -0.020021483 0.06085893 -0.031749647
000020 09 23 c4 3c c0 9b a4 3d c9 1e c5 bb a8 43 27 3d
       0.023942487 0.080375195 -0.006015633 0.040836006
000030 21 72 91 3c 19 8c 82 bd de 91 85 bc ed 31 df bc
       0.017754616 -0.06374378 -0.016304906 -0.027245486
000040 10 44 73 3d 77 02 79 3d 3f 71 73 3d 2b 95 d1 bc
       0.05939108 0.060793366 0.05943417 -0.025583824
000050 05 87 1d 3d e8 9a 78 3d 2c 61 3a 3b 2e 45 83 3d
       0.038458843 0.060694605 0.0028439267 0.06409679
000060 6a b1 a5 3d 17 1e 65 bd ef 27 38 3c d2 0c e9 bc
       0.0809048 -0.0559369 0.01123999 -0.028448496
000070 70 c8 cf 3c 54 2a c3 bc bd 54 46 bd fe e6 63 bd
       0.02536413 -0.023823895 -0.048420656 -0.055640213
000080 d6 fb 47 bd c4 2e 1f bd 4a 53 a5 3d d7 42 77 bd
       -0.048824154 -0.03886296 0.08072527 -0.060366478
000090 2b fc a2 3d 72 27 8d bc b0 58 88 3d 21 33 26 3d
       0.079582535 -0.017230723 0.06657541 0.040576104
0000a0 18 33 10 3d fa 12 0a 3d da 00 0c 3d f5 8c 3d 3d
       0.035204977 0.033709504 0.0341805 0.046277005
0000b0 d7 f4 9c 3d b1 0c 6a 3d fc 6f 46 bd fd b2 13 bc
       0.07663887 0.05714101 -0.04844664 -0.009014842
0000c0 4f b1 4b bd cc 39 30 3d 6b fa 80 3d 4b 16 d7 3c
       -0.04972964 0.04302387 0.062977634 0.026255747
0000d0 35 0a 50 3c 48 63 88 3d f9 4e 69 3d ac 23 96 3d
       0.012697746 0.066595614 0.05696008 0.073310226
0000e0 93 59 3d bd 2c c5 57 bc 96 c4 6f 3d 27 45 33 3d
       -0.046228003 -0.013169568 0.05853709 0.04376712
0000f0 12 0a 7c bd 81 31 36 3d c7 02 26 3d 64 c0 9f 3d
       -0.06153304 0.044480804 0.040529992 0.078003675
000100 ef 20 3d bd 5c 04 04 3d 45 82 01 bd b5 a8 d0 3c
       -0.046173986 0.03223072 -0.031618375 0.02547107
000110 c4 c1 32 bb b4 21 1f 3d ef 1f 3f 3c dd 17 a6 3d
       -0.0027276138 0.0388505 0.011665328 0.0811002
000120 7a d2 63 3d 5f 3c a6 3c 1d 8a 31 bc 23 fa 88 bc
       0.055620648 0.020292459 -0.010836151 -0.016720837
000130 8c 34 a7 3d 65 23 96 bd de 83 f4 bc cd 59 48 3d
       0.081643194 -0.0733097 -0.029848035 0.048913766
000140 34 3b 4d 3d d5 3a 63 bc 6e e4 11 3d 3c a2 33 3d
       0.05010529 -0.013869007 0.03561824 0.04385589
000150 1d a9 d7 bc a8 22 a6 3c f8 98 d9 3c 32 86 80 3d
       -0.026325757 0.020280197 0.026562199 0.06275596
000160 dd d0 e8 bc c9 39 de 3c 32 9b 27 3d dd 06 59 bd
       -0.028419906 0.027127163 0.04091949 -0.05298506
000170 11 4f 36 bc c8 d5 39 bc 00 20 c7 b8 a5 6d 8a bc
       -0.011127249 -0.011342473 -9.49502e-05 -0.016897986
000180 07 45 2f bd 3a 58 42 bc 2c 38 2d 3d 42 fb 53 3c
       -0.04279044 -0.011861855 0.042289898 0.0129383225
000190 e6 4d b8 3d 5b c2 b9 3b 77 21 2e bd 26 47 0b bd
       0.08999233 0.005668921 -0.042512383 -0.0340034
0001a0 91 30 1d 3d 80 df 85 3c 86 0b 00 3d e8 e5 9f 3d
       0.038376395 0.016341925 0.03126099 0.07807523
0001b0 26 ab 36 3d d6 12 b9 bc d6 ab a6 3d 1e 48 21 bd
       0.044596814 -0.02259199 0.08138244 -0.039375417
0001c0 6d 4f 9b 3c 30 20 2a 3d ac 44 0a 3d 70 4a e8 bc
       0.018958772 0.041534603 0.033756897 -0.028355807
0001d0 6d 28 94 bc 0e b1 2a bd ba e3 63 3d 8e 7b 47 bd
       -0.018085683 -0.04167276 0.0556371 -0.048701815
0001e0 da e1 42 bc 92 27 fa 3c 5e 5e a3 3b 63 35 aa bb
       -0.0118946675 0.030536447 0.0049856147 -0.0051943525
0001f0 74 a0 37 bd 0f 55 05 3d 98 66 37 3c 91 87 82 3d
       -0.044830754 0.03255182 0.011193894 0.063735135
000200 59 7d 58 bd 5b c6 71 bd 1b fe e9 3b 15 c5 90 bc
       -0.052853916 -0.059027057 0.0071408874 -0.017672101
000210 45 40 12 bc fa 9d d1 bc 52 51 f8 3c f2 cf 2a 3c
       -0.008926456 -0.025588024 0.030312214 0.010425555
000220 fa 28 0e 3c 08 f8 03 3d fd 4f c8 3c 2c 0f 7b 3d
       0.008676762 0.032218963 0.024452204 0.061293766
000230 d2 1d a8 ba 02 32 65 bd c4 4b af bc 36 6e 7e 3d
       -0.001282627 -0.055955894 -0.021398433 0.062116824
000240 a8 77 12 3d 9a 11 95 3c 15 fa 5b 3d ec ed 85 3d
       0.035758644 0.01819687 0.053705294 0.065395206
000250 b1 bf 8c 3d d4 c8 70 3d 30 78 35 3d 44 d4 86 3d
       0.068725 0.058785275 0.044304073 0.06583455
000260 0e ef 9a 3c e7 18 47 3c bc 8a e3 bc 51 68 ea 3b
       0.018912818 0.012151933 -0.027776115 0.0071535488
000270 d6 9e 3f 3d 74 62 69 bc 5c 1e 4b bd 92 36 5b 3c
       0.046782337 -0.014244664 -0.0495895 0.01337971
000280 ab 07 5d 3d 5f e8 21 bd f1 23 dc bb 91 b1 92 3c
       0.05396239 -0.039528247 -0.0067181517 0.017906936
000290 68 e6 47 3d d4 c0 15 bd 27 ae 96 3c 2a 65 65 3d
       0.048803717 -0.03656085 0.01839359 0.05600468
0002a0 45 3c c4 3c 46 79 17 bd 9e f0 7a bd b8 77 13 bd
       0.02395452 -0.03698089 -0.061264627 -0.036002845
0002b0 55 7d 3e 3c 42 73 14 3d b6 50 2f bd 39 99 34 3c
       0.011626561 0.03624273 -0.04280158 0.011022859
0002c0 55 c4 ab bc 82 6f 53 bd 19 09 29 3d 7a 64 99 3d
       -0.020967642 -0.051620014 0.04126844 0.074898675
0002d0 1f e0 72 bd 17 11 c7 3c 60 89 a8 bc cc b1 8d 3d
       -0.05929577 0.024300141 -0.020573318 0.06918678
0002e0 9e d7 76 3d 96 c1 33 3b da e6 37 3d 2a 6d 7b 3c
       0.060264222 0.0027428619 0.04489789 0.015345851
0002f0 1d 3a 0d 3c e6 df 06 bd e4 64 0c bb f1 02 a5 3d
       0.008619812 -0.03292837 -0.002142244 0.08057202
000300 81 a3 a9 bc ba 8a 16 3d 62 2a 84 bc 72 49 db 3c
       -0.020707848 0.036753394 -0.016133491 0.02676842
000310 4a 32 b2 3d fe 90 4b 3c c1 7d 6b 3d f9 46 58 3d
       0.08700998 0.012424706 0.057492975 0.05280206
000320 1b 91 4f bd e3 ab 0c 3b 09 e5 ae bb 72 ec 19 3d
       -0.050675493 0.0021464757 -0.0053373617 0.037579007
000330 4d aa 7e bb 66 cf 12 3d a1 5c 9f 3d f6 22 18 3d
       -0.0038858831 0.03584232 0.077813394 0.037142716
000340 e0 cd c7 bc a3 5c 4e bd 6d cc 8a 3d 94 83 08 bd
       -0.024390161 -0.050381314 0.067772724 -0.033328608
000350 03 fd dc bc 1a cc 2f 3d 8b bf ab 3d 3c df cd 3c
       -0.026976114 0.042919256 0.08386143 0.02513086
000360 ae 02 13 3d 29 e3 4e bd 90 93 88 3d 79 fa 9d 3d
       0.035891227 -0.050509606 0.0666877 0.077137895
000370 9c f8 0d bc d0 10 8a 3d 00 3f 57 3a 68 9f a0 3d
       -0.00866523 0.06741488 0.0008210987 0.07842904
000380 e7 29 62 3d 6e 86 aa 3b 62 32 37 3d e4 fd 7a bd
       0.055215742 0.0052040135 0.044725783 -0.061277285
000390 b6 cd 78 bd 49 14 af bc 4f 42 82 3c 1f 41 92 bb
       -0.060743056 -0.021371977 0.015900759 -0.0044633294
0003a0 3e c2 53 bd f7 34 04 3d 0e b3 30 3d 50 ad 83 3d
       -0.051698916 0.032277074 0.04313951 0.06429541
0003b0 31 2e a4 3c ef 5d a9 3c 1b 4d ec bb 0e 27 40 bd
       0.020041557 0.020674674 -0.00721134 -0.046912245
0003c0 00 32 3f bd 17 ea 78 3d 75 97 14 3d e1 f3 ca 3b
       -0.046678543 0.06077012 0.036277253 0.0061936234
0003d0 5a be bb 3c d8 ab 8e 3d 06 a7 e3 3c 24 ea 48 bd
       0.022917915 0.0696637 0.027789604 -0.04905142
0003e0 3c c9 80 bc 14 90 89 3c 98 03 f7 bb 50 d5 a7 bc
       -0.015720956 0.016792335 -0.00753827 -0.020487458
0003f0 aa 10 b1 3c 46 ac b9 3c c6 5b 41 3d b9 86 89 3d
       0.021614391 0.022665154 0.047206663 0.067151494

arith.constant5 f4 [128]
000000 9b 3d 80 3c 34 be 1d bc 94 1d a7 bb 9b cd 80 3c
       0.015654376 -0.0096278675 -0.0050999615 0.01572304
000010 bc f0 02 bc 4b 28 01 bc a8 5a 7b 3c 00 00 00 00
       -0.007991966 -0.007883142 0.015341438 0.0
000020 11 09 b6 bb e3 ca 66 3c ea e7 1b bc d0 d8 6c 3c
       -0.00555528 0.014086458 -0.009515742 0.014455989
000030 e9 41 3e bc bd 0a 6f 3c fb c3 1b bc 38 37 0a bc
       -0.011612394 0.014589963 -0.009507175 -0.008436017
000040 ca 38 82 3c be c7 c4 bb e1 ab c4 bb 88 d2 15 bc
       0.01589622 -0.0060052564 -0.006001935 -0.009144433
000050 cb 78 6e 3c 7d ce 72 3c e3 0f 78 3c 00 00 00 00
       0.0145551665 0.014819738 0.015140506 0.0
000060 00 00 00 00 29 f9 7f 3c ac 92 22 bc 3b c2 ae bb
       0.0 0.015623369 -0.009922665 -0.0053332127
000070 66 d1 76 3c 0a ed 22 bc f4 cd 14 af 00 00 00 00
       0.015064573 -0.00994421 -1.3533691e-10 0.0
000080 dd b7 38 3c ee 69 7d 3c 00 00 00 00 00 00 00 00
       0.011274305 0.01546715 0.0 0.0
000090 dd 17 b6 bb d9 72 18 bc 00 00 00 00 d4 b3 7d 3c
       -0.005557044 -0.009304726 0.0 0.015484769
0000a0 94 e2 d5 bb be 04 6a 3c 2a d5 71 3c 92 be c4 bb
       -0.0065272544 0.014283357 0.014760295 -0.006004163
0000b0 3e 66 7f 3c e0 f7 7a 3c 00 00 00 00 a9 93 3a bc
       0.015588341 0.015317887 0.0 -0.011387744
0000c0 4a f9 7e 3c 29 64 06 bc 2a 3a 7b 3c 00 00 00 00
       0.015562365 -0.008202591 0.015333692 0.0
0000d0 00 00 00 00 fa d5 06 bc 00 00 00 00 7f fc 29 bc
       0.0 -0.008229727 0.0 -0.010375141
0000e0 ef d4 79 3c 46 bf 82 3c 66 17 74 3c 00 00 00 00
       0.015248521 0.015960347 0.014898157 0.0
0000f0 1f a3 79 3c 6f cc 3a bc 00 00 00 00 d3 5f 7a 3c
       0.015236645 -0.01140128 0.0 0.015281635
000100 a2 40 74 3c aa 33 fa bb 00 00 00 00 dc f7 a3 bb
       0.014907988 -0.0076355534 0.0 -0.0050039124
000110 df 43 66 3c db c4 81 3c e5 c8 82 3c f1 52 78 3c
       0.014054268 0.015840938 0.015964935 0.0151564935
000120 d8 37 71 3c e4 e6 79 3c 5b 45 75 3c e0 7e ce bb
       0.014722787 0.0152528025 0.014970149 -0.006301746
000130 71 48 76 3c bf 47 76 3c 56 1b b6 bb ca 92 7e 3c
       0.01503192 0.015031754 -0.005557458 0.015537927
000140 a0 25 5d 3c 3a 3a 82 3c 75 b8 7e 3c 00 00 00 00
       0.01349774 0.015896905 0.015546908 0.0
000150 ee b4 71 3c 28 bd 0b bc a8 b7 c4 bb 00 00 00 00
       0.01475261 -0.008528985 -0.006003339 0.0
000160 0b 39 70 3c 78 3c 82 3c e2 ac c4 bb 9b c7 c4 bb
       0.014662038 0.015897974 -0.0060020545 -0.00600524
000170 00 00 00 00 66 20 e2 bb 00 00 00 00 b9 c7 c4 bb
       0.0 -0.006900835 0.0 -0.006005254
000180 46 6c 81 3c d5 c7 c4 bb 1e 79 84 3c 00 00 00 00
       0.0157987 -0.006005267 0.016171034 0.0
000190 38 86 75 3c 52 d4 74 3c 69 fb 1d bc e2 cc 79 3c
       0.0149856135 0.014943199 -0.00964246 0.015246602
0001a0 81 b6 c4 bb 11 89 83 3c 00 00 00 00 36 95 75 3c
       -0.0060032015 0.01605657 0.0 0.014989188
0001b0 b2 1d 82 3c 2f dd 8a 3c 9e ac 2a bc c2 cb 74 3c
       0.0158833 0.016951172 -0.010417132 0.014941158
0001c0 33 4f e4 bb 3b 85 f9 bb f1 91 d6 bb 2c ac c3 bb
       -0.006967449 -0.0076147593 -0.0065481593 -0.005971452
0001d0 5b c2 c4 bb 00 00 00 00 00 00 00 00 20 b4 79 3c
       -0.0060046143 0.0 0.0 0.015240699
0001e0 00 00 00 00 90 99 27 bc 75 06 24 bc 00 00 00 00
       0.0 -0.010229483 -0.010011305 0.0
0001f0 22 c6 09 3c 25 7c 10 bc 71 0b 5b 3c 54 13 0a bc
       0.008409055 -0.008818661 0.013369427 -0.00842746

sequential_4_1/conv2d_10_1/convolution f4 [32, 3, 3, 1]
000000 d1 12 d7 bd 34 e0 1f 3e 2b 87 8c 3d 8a 3e e6 bd
       -0.10501636 0.1561287 0.06861719 -0.11242397
000010 9e 8c b7 bd 27 77 a9 bd 47 53 8a bd f8 03 53 bd
       -0.089623675 -0.0827468 -0.06754165 -0.051517457
000020 0f be a8 bd 27 b6 c2 3c b0 2e 0b 3e d8 f0 9b bd
       -0.08239376 0.023768498 0.13592029 -0.07614297
000030 51 3a a5 bd a8 d5 0a 3e e8 c2 14 be 44 2a 70 3b
       -0.080677636 0.13558066 -0.14527476 0.0036646286
000040 78 cd 3f 3c 3d 50 78 bc fb e3 70 3b dc 71 0c 3c
       0.011706702 -0.015155849 0.003675698 0.008572068
000050 5d 22 84 3d 92 eb 6b bc c3 98 ce 3b 0a 52 7b bd
       0.06451867 -0.014399426 0.0063048317 -0.061357535
000060 32 83 d4 3d 88 c1 cb 3d f8 35 12 3e 3f 42 fa bd
       0.10376586 0.099490225 0.142784 -0.12219667
000070 06 ef 41 bb d6 b5 b4 3d 81 80 b8 bd ed 54 36 3d
       -0.0029591932 0.08823745 -0.09008885 0.044514585
000080 b8 9b 57 3d 50 ee 04 3e 20 7a da bd fc 8f c9 bd
       0.05263874 0.12981534 -0.10667825 -0.09841916
000090 2e 69 d1 3d 1b 93 16 3e f6 ff b7 bd 3d c3 7d 3d
       0.102251396 0.14704554 -0.089843675 0.06195377
0000a0 94 2a 5c bd af 26 3d 3a a9 4e 4d bd 59 fc 8d bc
       -0.053751543 0.0007215542 -0.050123844 -0.017332243
0000b0 ff 69 8d bd 1f 3c 41 3c d9 1a ad bc 69 11 bd 3d
       -0.06904983 0.011794119 -0.021130966 0.09231836
0000c0 3d 14 d2 3d 71 9c d5 3c 42 4a aa bd ae 40 3e bd
       0.102577664 0.026075574 -0.08314945 -0.046448402
0000d0 4b 2f 1f b9 05 66 1d 3e 9f 89 e8 3d 8b ea 58 3d
       -0.0001518104 0.15370949 0.11354374 0.052958053
0000e0 db 00 0a 3e 41 00 d6 3d df 61 8b bd f9 10 e6 bd
       0.13476889 0.10449267 -0.06805777 -0.11233706
0000f0 a3 85 c5 bd 04 80 8b 3d 47 16 bd bd 7c 6a 84 3b
       -0.0964463 0.068115264 -0.09232765 0.0040410142
000100 4f 09 cb 3d 78 1b 18 3e e8 6f 89 3d a4 ff 90 bd
       0.09913885 0.14854228 0.067107975 -0.070800096
000110 39 da 62 bd 8b 4f 54 bd d7 ff ab bc 22 25 82 bb
       -0.055383895 -0.05183367 -0.020996017 -0.0039717117
000120 e2 dc 74 3d 64 eb e2 bd 72 1a e0 3d 3d aa a5 3d
       0.059780963 -0.110800534 0.10942544 0.08089111
000130 2b 8f 9a bd 0d 36 f6 bd 8c ac 18 3e df 69 f5 3d
       -0.075468384 -0.12022028 0.14909571 0.11983084
000140 10 06 60 bc 99 f3 90 bd 0a 5a 49 3b 80 89 92 bd
       -0.01367332 -0.070777126 0.0030723833 -0.07155132
000150 e6 87 7a 3d 0c bd bb 3d a3 de aa bd 15 3f 82 3d
       0.06116476 0.09166917 -0.08343246 0.06359688
000160 6e d8 28 3d d3 7a ea 3d e2 e6 ad bd d9 24 83 bd
       0.04122203 0.11449208 -0.08491303 -0.064035125
000170 43 8a fb bd f5 9e 15 3e 2e 54 0a 3e 14 8f a3 bd
       -0.12282231 0.14611419 0.13508675 -0.07986274
000180 29 28 f3 3d 99 75 00 3e e0 ad 82 3d 0f ca 02 be
       0.11872894 0.1254486 0.0638082 -0.12772392
000190 71 7d 2a bd 33 be 74 3d 98 17 ab bd 7d 99 12 bd
       -0.041623536 0.0597517 -0.083541095 -0.03579091
0001a0 65 b6 56 bc 23 0a 0e 3e a2 75 b3 bd 50 b4 0f bd
       -0.01310501 0.13871054 -0.08762671 -0.03508407
0001b0 ea 0d 07 3e 24 6c 28 3d e2 07 0d 3e c4 9d d1 3c
       0.13188902 0.041118756 0.13772538 0.025587924
0001c0 c2 e0 d7 bd 78 fc b3 bc 5d f8 00 3e 9b 6a 96 bc
       -0.10540916 -0.021970972 0.12594743 -0.01836138
0001d0 03 11 1e 3e cc 15 03 bd 03 88 9f bc c8 3d db bd
       0.15436177 -0.03200321 -0.019474035 -0.10705143
0001e0 7a 54 21 3d 83 59 54 3d d5 33 06 be 3e 10 36 bc
       0.039387204 0.051843178 -0.1310571 -0.011112271
0001f0 dc c8 76 3d 33 ca 36 3c f0 a9 c9 bd e2 8f 33 bc
       0.06025015 0.0111566065 -0.09846866 -0.010959597
000200 5d 3b d6 3d 7d d7 06 3d 83 55 89 bd 8a 38 db bd
       0.104605414 0.03292035 -0.06705763 -0.10704143
000210 b4 2d 13 3e 4c 91 b5 3d 1a 0f 01 3e f9 f2 60 3d
       0.14372903 0.08865604 0.12603417 0.054919217
000220 61 e5 16 3c 47 c1 b2 3c 5e 68 ac bd 59 99 68 3d
       0.009209962 0.021820677 -0.08418344 0.05678687
000230 5c 83 b6 bd e8 aa 80 bd 9f 7e 6a 3d 4a 79 dc 3d
       -0.089117736 -0.06282598 0.05724966 0.107653216
000240 26 da cf bd 2a 79 59 3d 2b 36 01 bd a1 97 1c 3d
       -0.101490304 0.053094067 -0.0315458 0.038230542
000250 f3 cf 94 3d a0 67 93 bc 4b e9 76 3d 9b b6 cf bd
       0.07266226 -0.017993748 0.06028108 -0.10142251
000260 5a 99 f3 3d 1f ed c7 3d e5 7e 85 3d 40 d0 9d bc
       0.11894484 0.09762024 0.06518344 -0.01926434
000270 96 d6 02 3e 5b fb 98 bd 8f 6e c7 3d e1 4d 04 3e
       0.1277717 -0.07469817 0.09737884 0.12920333
000280 6f 26 5f bd ce a5 83 3d 49 cd 01 bd dd 87 e5 3d
       -0.054480013 0.06428109 -0.031689916 0.112075545
000290 f9 7f 1d bd 2d 2c be 3d 84 d4 c9 3d e2 fb 19 3e
       -0.038452122 0.092857696 0.09854987 0.15037492
0002a0 a6 5e 95 bc cb 04 93 bd 60 e1 95 bd 4c 92 9c 3d
       -0.018233608 -0.071786486 -0.073183775 0.076450914
0002b0 f3 37 91 bc 0d 67 8a bd 75 82 04 be ae ea 74 bd
       -0.017726874 -0.067579366 -0.1294039 -0.05979412
0002c0 8f 4f e0 bd 04 76 66 3d fb 41 6d 3c 27 24 ec 3d
       -0.109526746 0.056264892 0.014481063 0.11530333
0002d0 b0 25 2e bd 3c 3b 9f bd 25 f3 ca 3c 3a 9c 2e 3d
       -0.04251641 -0.0777497 0.024774143 0.042629458
0002e0 8a 0c b5 bd 47 a6 0b 3e b3 e6 cb 3b d3 2c b6 bd
       -0.08840282 0.13637649 0.00622257 -0.08895268
0002f0 ad 21 d1 3d c9 75 22 3e 8a 18 71 3c 11 72 27 bc
       0.10211501 0.15865244 0.014715323 -0.010220067
000300 23 a7 b6 3d 5e a3 22 3e 0e 2a d9 bd 32 83 e8 bd
       0.089185975 0.15882632 -0.106037244 -0.113531485
000310 7d 8c a3 3d 2b 27 39 bc f8 d5 63 bd 76 d8 1d 3e
       0.079857804 -0.011300842 -0.05562398 0.15414605
000320 b4 d9 c7 bd 9c 02 6e 3c 29 ac 41 ba a6 71 ba 3d
       -0.097583205 0.014526989 -0.00073880196 0.09103708
000330 7a 5a 1a 3e fb fb 2d 3d d3 bc 31 3d 8b c5 8b 3d
       0.15073577 0.042476635 0.043392967 0.06824788
000340 06 94 d9 3d 55 34 0f be e3 31 b5 3c fa 18 e2 bd
       0.10623936 -0.13984807 0.022118514 -0.1103992
000350 63 e2 39 bc f5 eb 05 be 5f 4f 0e bd cc a8 fb 3d
       -0.011345479 -0.13078292 -0.034743663 0.12288055
000360 d0 aa 43 bc 8e 55 02 3e 4c 8f 09 bd d2 80 ea 3d
       -0.01194258 0.12727949 -0.033583924 0.11450352
000370 28 95 59 3d 34 52 6a bd 45 80 e8 bc c8 0b c6 3c
       0.053120762 -0.0572073 -0.028381476 0.02417554
000380 3b 8f 94 3d a1 30 b3 3d 58 c8 eb bd da f7 c8 3d
       0.072538815 0.087495096 -0.11512822 0.09812899
000390 24 29 10 bd 40 31 a5 3d 20 6d 00 3e fe 5d 88 bd
       -0.035195485 0.08066034 0.12541628 -0.066585526
0003a0 17 19 89 bd c4 9b 07 3e eb 6c cf bc 06 99 ca bd
       -0.06694239 0.13243014 -0.02532049 -0.09892468
0003b0 07 e1 dd 3c 88 69 10 be 2d 5d 3f 3d ff f6 02 3e
       0.02708484 -0.14102757 0.04671972 0.12789534
0003c0 64 d5 01 3d 43 a4 00 3e 23 62 4d 3c 36 7e d4 3d
       0.031697646 0.12562661 0.012535605 0.10375635
0003d0 cb b9 2e bc 84 17 09 3d d7 29 ee bd 3d c6 49 bd
       -0.010664414 0.033469692 -0.11629074 -0.04926132
0003e0 d5 05 82 bc 99 9a f1 bd 1e 7d 8b 3d ec 62 2e 3c
       -0.015871922 -0.11797065 0.068109736 0.010643702
0003f0 14 6d 04 3e 09 ec 83 bc 33 d0 f6 bd b4 a2 0c 3e
       0.12932235 -0.016103761 -0.120514296 0.13733941

sequential_4_1/conv2d_10_1/Relu;sequential_4_1/conv2d_10_1/BiasAdd;sequential_4_1/conv2d_10_1/convolution; f4 [32]
000000 89 15 8f 3c e6 15 b9 3b 88 91 c4 3b c0 11 9a bb
       0.017466323 0.0056483625 0.005998794 -0.004701823
000010 a6 8a b5 3c 11 a1 6c 3c 7a 91 3e 3c a7 f9 91 3c
       0.02216084 0.014442698 0.011631364 0.017819239
000020 e9 2f 49 3c 2d ad a9 3c 9f 9e 8a 3c aa 57 98 3a
       0.012279489 0.02071246 0.01692134 0.0011622806
000030 9a 27 a4 3c 0b a1 7f 3c bc 7e 67 3c 57 78 fd 3b
       0.020038415 0.0156023605 0.014129337 0.007735293
000040 5f db 2a 3c 61 0f 9e 3c 1e 99 84 3c 98 28 37 bc
       0.010428279 0.019294443 0.016186293 -0.011179112
000050 45 c8 02 3d 8e b5 8c 3c 03 b2 ad 3c 75 7b 14 bb
       0.031929273 0.017176416 0.021203047 -0.0022656594
000060 d5 be 86 3c c0 5a a3 3c 1f 09 aa 3c c7 bb 48 3c
       0.016448418 0.019940734 0.020756302 0.012251801
000070 5d 08 a4 3c 74 99 a3 3c 67 43 9b 3c 4c e7 10 bc
       0.02002352 0.019970633 0.018953038 -0.008844208
