assets/models/Frankenstein_walk_model.tflite (tflite, 570996 bytes, 7 tensors)

arith.constant f4 [64]
000000 f7 8d 62 3c 15 b2 53 3c dd a4 9d 3c f9 46 9e 3c
       0.013827792 0.012920876 0.019243652 0.019320952
000010 24 f5 11 3c ce 00 97 3c 97 f0 a3 3c 84 0a 7c bb
       0.008908544 0.018433 0.020012183 -0.0038458416
000020 77 7f a2 3c f7 e6 73 3c 85 05 e7 3b 4d cf 9e 3c
       0.01983617 0.014886609 0.0070502185 0.019385958
000030 b8 e7 a3 3c 0d fb 90 3c 21 87 5c 3c 27 b8 a1 3c
       0.020007953 0.017697835 0.013459952 0.019741131
000040 3b 96 1e bc a1 b2 86 3c d5 ff f5 3b 5a d3 99 3c
       -0.009679372 0.016442599 0.007507304 0.018777538
000050 b5 d3 9f 3c 40 6c a9 3c 40 00 e1 3b 44 9c 95 bb
       0.01951013 0.0206815 0.006866485 -0.0045657475
000060 4c 97 99 3b 2f 72 b5 bb 66 69 a2 3c d1 2d a3 3c
       0.0046872254 -0.0055372934 0.019825649 0.019919308
000070 28 a3 ef 3b f3 b5 85 3c 05 f0 9f 3c 73 1d a0 3c
       0.007313151 0.016322112 0.01952363 0.019545292
000080 ee 71 9f 3c d4 83 80 3c 78 d4 ac 3c ea 78 9f 3c
       0.019463506 0.01568786 0.021097407 0.019466836
000090 b3 60 a3 3c 11 9f c1 3b 7d 68 a0 3c cd 09 52 3c
       0.01994357 0.005908855 0.019581074 0.0128197195
0000a0 42 bb 1a 3c 12 17 9c 3c 95 12 7e bb 1f b4 a1 3c
       0.00944406 0.01905397 -0.00387684 0.019739209
0000b0 6d a2 24 bc 69 d7 9e 3b cb fc ac 34 67 a5 a8 3c
       -0.010048491 0.0048474562 3.2221428e-07 0.020586682
0000c0 ca e4 a2 3c 31 43 07 bb 78 d3 00 bc 70 8e 90 3c
       0.019884486 -0.0020639414 -0.007862918 0.017646044
0000d0 00 00 00 00 1e c8 4a 3c 1a d8 99 3c 15 3f 3d 3c
       0.0 0.012376813 0.018779803 0.011550684
0000e0 50 9a b8 3b 6e 67 9e 3c 95 5f f1 bb 7b 3b 85 3c
       0.00563363 0.019336428 -0.0073661306 0.016263714
0000f0 cc 58 86 3c 95 2b a4 3c a3 93 c3 3b 8c bf 8a 3c
       0.016399764 0.020040313 0.0059685274 0.01693704

arith.constant1 f4 [64, 3, 3, 32]
000000 3a 4c 91 3d 62 13 ef 3c 3e 53 43 bd ae 5f 37 3d
       0.07094617 0.029184047 -0.047686808 0.04476898
000010 b9 a0 0a bd 2a 08 87 bd 4e 63 c3 3d 12 8d b1 bc
       -0.033844683 -0.06593354 0.09540425 -0.021673713
000020 b8 7a 7b 3d ae ff d0 bc 8a 70 1a 3d 47 e7 eb 3a
       0.06139633 -0.025512543 0.037704982 0.0017998003
000030 45 f9 37 bc 3c ad a0 bb b3 81 bd 3d 06 6f 0e bd
       -0.011228864 -0.0049034636 0.09253254 -0.03477385
000040 c5 8d 86 3c 2f a3 44 bd bc c4 0e bd 51 87 d1 bc
       0.016425023 -0.048007187 -0.03485559 -0.02557722
000050 67 ba 8c bc d1 dd 8d 3b 41 15 f2 3a 0d 40 8b 3d
       -0.017178727 0.004329421 0.0018469469 0.06799326
000060 36 9c e6 b7 ad 5b 4f 3c c5 67 7b 3d 38 c1 31 bd
       -2.7490878e-05 0.012656135 0.06137826 -0.04339716
000070 ed 4a b8 bc 83 46 62 bd f7 43 9c 3c 9b a2 ac 3d
       -0.022496665 -0.055243026 0.019075377 0.08429452
000080 22 ff ae bc d2 26 b1 3d e3 68 72 bd 27 ab 1e bd
       -0.021361891 0.086499825 -0.05918206 -0.038737442
000090 ad 6b 04 3d 54 21 e3 bc ca 4e 90 3d 9e 84 ca bc
       0.03232925 -0.027725853 0.07046278 -0.02472144
0000a0 c8 d7 b7 3d b9 ec 72 3d 08 98 69 bd 6f b3 2e bb
       0.08976704 0.059307788 -0.057029754 -0.0026657244
0000b0 97 78 5a 3c 14 b6 23 3d 88 38 35 3d af 18 3f 3d
       0.013334415 0.039968565 0.044243366 0.0466544
0000c0 b8 cc a1 3d ba c2 44 3c a1 f8 25 bd ff dc 8a 3d
       0.07900375 0.012009317 -0.040520314 0.06780433
0000d0 e3 b2 50 bd 14 aa 22 3d 3a eb b2 bb b9 16 a0 3d
       -0.05095185 0.03971298 -0.00546017 0.07816834
0000e0 63 61 76 3d ad 6e a3 3c fd 8b 3c 3c 0d 5a 70 3d
       0.06015147 0.019950235 0.011507985 0.05867963
0000f0 0d 0d b1 3d d6 0c 1b bd aa e6 0f bb e9 68 90 3b
       0.08645067 -0.03785404 -0.0021957555 0.0044070375
000100 b9 77 83 3b f4 13 5e 3c 1a 60 a7 3d 29 c0 a6 bc
       0.004012075 0.013554562 0.08172627 -0.020355301
000110 41 03 c7 3d aa f1 90 3d 6c 66 29 bc 7f 91 a1 bd
       0.097174175 0.07077344 -0.010339361 -0.07889079
000120 60 2c bc bb 4a 38 00 bd 8f b5 bf 3d ae 99 b3 3c
       -0.0057425946 -0.03130368 0.093608014 0.021923866
000130 0f 31 1f bd f0 36 77 3c 71 94 95 3b 29 8c 01 3d
       -0.038865145 0.015088782 0.0045648147 0.031627808
000140 3e 6d 4c bd 9b 75 9e bd da b2 56 bd b4 e6 2b bd
       -0.04990887 -0.07737275 -0.05241666 -0.041968063
000150 1e ea e4 bc 9f 98 ec 3b e3 c3 88 bd 4c 11 53 3c
       -0.027943667 0.0072203423 -0.066779874 0.012882542
000160 da d6 9f bd 11 9b 2c 3d 0b bc be 3d b5 22 ae ba
       -0.078046516 0.04214007 0.0931321 -0.001328549
000170 95 f5 cc 3d fe 1d 6f 3d 7e 85 8c 3d 70 9e 6e 3d
       0.100077786 0.058378212 0.06861399 0.058256567
000180 03 fa d2 3d 5a 93 4b 3d 3b 41 8d bd 57 a5 46 3d
       0.10301592 0.049701072 -0.06897207 0.048497524
000190 d8 24 5a bd 5f 87 47 bc 06 0c b4 bc 36 ea 92 3d
       -0.053257793 -0.012178271 -0.02197839 0.071735784
0001a0 57 d1 0a bd 6b c9 6c 3d 72 73 b7 3d c7 29 68 3d
       -0.03389105 0.057809275 0.08957566 0.056680467
0001b0 fc 1d 89 bd a3 62 c1 3d ce df 12 bd 19 a9 72 3d
       -0.06695172 0.094426416 -0.035857968 0.059243295
0001c0 96 ae 94 3d bf ef fd bb 76 55 06 bd 4a 7c b5 3d
       0.07259862 -0.007749527 -0.032796346 0.08861597
0001d0 72 94 11 3b c2 8a b1 3b 78 aa 7f 3d e9 1a 5f 3c
       0.0022213724 0.0054181525 0.06241843 0.013617256
0001e0 67 54 88 3d 35 4e 95 3d fa 3a 9e 3d a0 b3 06 bd
       0.066567235 0.072903074 0.07726093 -0.032886147
0001f0 7f b6 46 bc 4d 97 72 3d 9c c9 da 3a ae 05 4a bd
       -0.012128471 0.059226323 0.0016692164 -0.049321823
000200 1f a3 45 bd 87 df 74 3c 2b b2 89 b9 3a 0f bb bc
       -0.048251268 0.014945871 -0.00026263422 -0.022834409
000210 fa 14 06 bc 6e aa d3 3c 07 71 6f 3d 2e e0 95 3d
       -0.008183712 0.025838103 0.0584574 0.073181495
000220 cb eb a7 3d 37 79 04 3c 18 b8 65 bd f9 e2 a2 3d
       0.08199271 0.0080855405 -0.05608377 0.07953448
000230 7e 0b de 3c db 3c 0a 3c d6 08 5a 3d 88 40 a6 3d
       0.02710509 0.008437361 0.053231083 0.08117777
000240 f7 ff 7c 3c 22 16 c3 3c 76 49 97 bc 72 df a9 3c
       0.015441886 0.023814265 -0.018467646 0.02073643
000250 a2 30 6a bd 45 63 7f bc 11 c2 5e 3d 90 36 94 3d
       -0.057175286 -0.015587633 0.054384295 0.072369695
000260 ba aa de 3c f0 96 53 bd b6 58 99 3c 65 dc 84 3d
       0.027181018 -0.051657617 0.018719058 0.064873494
000270 49 cd c0 bc 2a eb 38 3d 15 dd 2b 3d 2a fa 3b 3d
       -0.023535388 0.045146145 0.041958887 0.045892872
000280 5d f9 52 bc 8e 94 68 3d a3 85 dc bc aa 4c d2 3c
       -0.012876836 0.056782298 -0.026919192 0.025671322
000290 ee ef 13 3c 94 05 97 3d e3 27 12 bd 16 2f 21 3d
       0.009029372 0.07374111 -0.03568257 0.039351545
0002a0 32 18 69 3d ce cf 83 bd ab 59 9d 3d df d5 ee bc
       0.05690784 -0.0643612 0.076831184 -0.029154716
0002b0 2c d4 a6 3b 17 05 c7 3c c0 3c 5f bd f8 21 8e 3b
       0.005091211 0.02429442 -0.054501295 0.0043375455
0002c0 5c 11 b8 bc 60 5f de 3b 7d c1 66 bd 94 2b 96 3d
       -0.022469215 0.006786272 -0.05633687 0.073325306
0002d0 1e 0e 20 bd 80 29 64 bd 52 bb a7 bb e7 cd 59 3d
       -0.039075963 -0.05570364 -0.005118766 0.05317488
0002e0 3d f9 e3 bc 50 b2 fd bc 6a 1e 31 3b 13 a4 db 3c
       -0.027828807 -0.030968815 0.0027026185 0.026811635
0002f0 ec 04 8c bd f1 25 02 bd 5f 5d b2 3d f3 60 a5 bb
       -0.06836876 -0.031774465 0.087092154 -0.0050469576
000300 48 f8 86 3d cc c9 77 bd 9e 31 ce 3c 5c 43 bc bc
       0.06590325 -0.060495183 0.025170144 -0.022981338
000310 65 47 92 bc 17 ac e6 3c b9 8e 6c bd 4a 72 33 3b
       -0.01785631 0.02815823 -0.0577533 0.0027381354
000320 a6 88 37 bc ce 4d 9c bc e5 7d 35 bc 01 ac 92 3d
       -0.011202013 -0.019080069 -0.011077379 0.071617134
000330 2e 78 7b 3d d4 ec 4f 3d 07 33 71 bd 6f 0f 8d 3c
       0.06139391 0.050762966 -0.058886554 0.017219273
000340 48 86 b0 3d 9b 15 8f 3c 83 41 33 3d 93 af 2c bd
       0.08619362 0.017466357 0.04376365 -0.042159628
000350 5b de b9 3d 02 20 85 bd dc 95 a9 3d 33 54 19 bd
       0.09075614 -0.06500246 0.082805365 -0.037433814
000360 93 43 18 3d 91 28 af 3d 1c be 12 3d 31 4c 05 bc
       0.03717382 0.08552659 0.035825834 -0.008135841
000370 37 a2 75 3d d2 c3 71 3d 00 cf 63 3d 27 d3 2e 3d
       0.059969153 0.05902464 0.055617332 0.04268184
000380 96 56 a8 bc c3 4e 2e bd 69 1a 54 3d 49 a6 1f bd
       -0.0205491 -0.04255558 0.051783 -0.03897694
000390 14 20 87 3d c4 30 54 3d 1a d1 59 bd c5 2c 82 3c
       0.06597915 0.05180432 -0.05317793 0.015890488
0003a0 8a af 95 bc 72 d1 83 bc 7c 0d 19 3c 6f 0e bb 3c
       -0.01827218 -0.016091082 0.009341594 0.02283403
0003b0 23 82 1f bd e7 bf 04 3d e9 f1 45 bc ff 83 76 3d
       -0.038942467 0.032409575 -0.012081602 0.060184475
0003c0 a8 6b 96 3d 20 7c f5 ba b9 73 78 bd fe 38 96 bd
       0.073447526 -0.0018729009 -0.060657237 -0.07335089
0003d0 09 74 87 3d 5a a5 ec bc db e3 9e 3d 8f 0f c0 bb
       0.06613929 -0.02888744 0.07758304 -0.0058612297
0003e0 12 f2 c7 3c e3 c4 a2 3d 24 e3 92 3c 73 16 8b bd
       0.02440742 0.079477094 0.017930575 -0.06791391
0003f0 b3 ca a3 3d 57 fc ac 3c a0 02 72 bd 93 7c 28 3d
       0.07997646 0.021116419 -0.059084535 0.04113443

arith.constant2 f4 [1, 128]
000000 f1 77 19 3e 85 f1 ef 3d 46 38 48 be 43 a2 4c be
       0.1498716 0.11715988 -0.19552717 -0.19983773
000010 91 be f5 bd d8 5c db 3c 84 77 bc bd f7 36 c1 bd
       -0.11999238 0.02677767 -0.09202483 -0.09434312
000020 ac 00 c3 bd 1f 7a 95 bd ca 28 f5 3d c8 08 3a 3d
       -0.095216125 -0.072986834 0.119706705 0.04541853
000030 1a 17 af 3c 20 c4 91 bb cf 85 49 3e 0e 29 28 3e
       0.02137332 -0.0044484288 0.1967995 0.16421911
000040 1a 4f f3 bd 06 a6 1b 3e f0 90 56 be 8e 17 0e 3e
       -0.11880322 0.15200052 -0.20953727 0.13876173
000050 3e 2c 55 be d8 09 5b 3e 4c 74 3a be 4b d4 65 3e
       -0.20817658 0.21390474 -0.18208426 0.22444265
000060 df ef a0 3d ec 79 c0 3d 54 01 cb 3d 18 d3 d3 3d
       0.07858252 0.09398255 0.09912363 0.10342997
000070 0a 41 3b 3d 63 64 0c be 95 7b c7 bd 30 d9 bf bc
       0.045716323 -0.1371017 -0.09740368 -0.023418993
000080 c7 05 18 be b7 ba 19 be 29 a0 d4 bc 5d 17 d1 3d
       -0.14845954 -0.15012632 -0.025955277 0.10209534
000090 01 bc 2e bc 6f 15 4a be a8 62 81 bc 4e 9e 4a be
       -0.010664941 -0.19734739 -0.015794113 -0.19786951
0000a0 47 52 3a be f9 63 97 bc c4 7a 4f bd 08 20 d3 bc
       -0.18195449 -0.018480288 -0.050654188 -0.02577211
0000b0 92 3c df bd 0c f3 1e 3e b2 1a 71 3e 14 bd 47 3e
       -0.10900225 0.15522403 0.2354534 0.19505721
0000c0 21 4b 6a 3d ba 67 20 3e 8d da 47 be 91 e8 3f be
       0.057200555 0.15664569 -0.19516964 -0.18741061
0000d0 67 7a a8 bc 91 49 17 bd de 1e c1 bd 05 7c 3e 3d
       -0.020566178 -0.036935393 -0.094297156 0.046504993
0000e0 42 86 21 be 7d e8 90 3d 60 53 ea 3b ab 70 f5 bb
       -0.15773872 0.070755936 0.0071510524 -0.0074902377
0000f0 0f 80 e6 3a 71 3e a1 bd 3e 01 51 3e cc 78 46 3e
       0.0017585772 -0.07873238 0.2041063 0.19382018
000100 2c 5e 1e be dc 5a 4b bd a7 d9 13 be dd 52 c9 bc
       -0.15465611 -0.049647197 -0.14438497 -0.024575645
000110 4d be 36 3e db d3 21 be 1c 81 37 be 20 35 4e bc
       0.17846031 -0.15803473 -0.17920345 -0.012585908
000120 ca 30 79 bc 8f a8 8d 3d 0d 3e e5 3d 34 f3 83 3d
       -0.015209386 0.069169156 0.11193476 0.06442872
000130 1c da d1 bc 1d 7c cc bb 78 2a 80 3d 89 63 26 be
       -0.025616698 -0.0062403814 0.062581 -0.16248907
000140 d2 97 64 3e cc eb ef 3d 63 dd 9b 3d 72 77 e6 3d
       0.2232354 0.117148966 0.076105855 0.11253251
000150 62 c3 57 be 9a 1f b7 3d 51 77 61 3e 83 ca 17 be
       -0.21070626 0.089415744 0.22018172 -0.14823346
000160 97 11 10 be 5f 35 61 3d 08 3c 0e be 00 a2 f1 bd
       -0.1406921 0.05498254 -0.13890088 -0.11798477
000170 d2 80 39 bd 0c 13 de bc 1b 30 3d bd ad 5c 8e 3d
       -0.04528887 -0.027108692 -0.046188455 0.0695127
000180 c7 35 c2 3c e5 af ec 3d 90 39 3c bd b2 ee 20 bd
       0.023707284 0.11556987 -0.045953333 -0.039290138
000190 16 d2 66 3d 68 12 74 bc 44 c0 88 bd 79 d4 1f be
       0.056352697 -0.0148969665 -0.06677297 -0.15608396
0001a0 5b bc 95 3d db fe 48 be 89 96 d1 3d 7b 7e 80 bd
       0.073113166 -0.1962847 0.102337904 -0.06274124
0001b0 14 99 42 bd 8f ed 06 be b8 69 f4 3d 3e 08 ca bd
       -0.047509268 -0.13176559 0.11934227 -0.09864853
0001c0 cf 93 c8 bc 09 82 26 3e 52 29 60 3e f0 4b c6 3d
       -0.024484543 0.16260542 0.21890762 0.09682453
0001d0 cb f7 ed bd e0 05 01 be 0c 00 02 bd 9e 41 32 be
       -0.116195284 -0.12599897 -0.031738326 -0.17407843
0001e0 3f da a0 3d 8e 2a fa b9 32 4d 5b 3e 6f da 78 3d
       0.07854127 -0.00047715422 0.21416166 0.06075519
0001f0 8a df 3e 3e 1d bc 34 bd 2e d7 a6 3c ad b9 ca 3d
       0.18639961 -0.04412471 0.020366278 0.09898696

arith.constant3 f4 [128, 960]
000000 11 80 16 bd 08 ed be 3c d2 32 3d 3d 69 ff 97 3c
       -0.036743227 0.023306385 0.046191044 0.018554406
000010 5f b8 46 bc 0a 0e c9 bc d5 0a b5 3b ae ff 3d bd
       -0.012128918 -0.024542827 0.005524973 -0.046386413
000020 e6 87 a3 3d 0a c8 45 3d 76 11 34 bd fd 76 b2 3d
       0.07984905 0.048286475 -0.043961965 0.087141015
000030 e1 d1 b5 3a 61 f5 a8 bb 22 a4 75 3d 78 ce aa bc
       0.0013871753 -0.0051562046 0.059970982 -0.020850405
000040 c2 14 25 bd 15 8b b2 3d 81 36 3c 3c 09 81 43 3d
       -0.040303 0.08717934 0.011487604 0.04773048
000050 c0 9e cf 3c 3e 6d ca bc 43 e4 47 3d 3c 6e be 3c
       0.025344253 -0.024710294 0.04880167 0.023245923
000060 09 74 4f 3c a0 4b 46 bb e3 18 7b 3d c3 b9 0c bd
       0.012661942 -0.0030257478 0.06130303 -0.034356844
000070 16 63 f1 bc ca d3 95 3d a3 58 50 3d d8 6c 96 3d
       -0.029466193 0.07315786 0.05086578 0.07344979
000080 0a c8 98 b9 d8 f0 9a 3d cd 57 11 3d fc 94 33 3d
       -0.0002914074 0.075654685 0.035484124 0.043843254
000090 79 78 fd bc b9 73 38 3b f4 e2 79 3d a2 69 a6 3c
       -0.030941235 0.0028145148 0.061007455 0.020314042
0000a0 43 64 8e 3d 30 7d 9e bc 44 c7 36 bd f2 e9 3d 3d
       0.06952717 -0.019346803 -0.04462363 0.046365686
0000b0 4c 89 d1 bc 16 1e 22 3d 9c c3 81 3d 37 59 ba bc
       -0.025578164 0.039579473 0.06336138 -0.02274762
0000c0 a8 7c a1 3d 10 66 64 3c 3e b0 5d bd d7 1b 2b 3c
       0.078851044 0.013940349 -0.054123156 0.010443649
0000d0 39 f5 1a bd 4d 1e 59 3d fd fb 29 bb 74 ea 87 3c
       -0.03783152 0.053007413 -0.002593755 0.016591288
0000e0 93 fc 94 3d a3 a0 dc 3c d1 cc 92 bd c4 75 8e 3d
       0.07274737 0.026932066 -0.07167972 0.06956056
0000f0 6a 26 aa 3d 8a b0 26 bd 36 e2 4a bd 11 83 41 3b
       0.08308108 -0.040695705 -0.049532138 0.0029527585
000100 93 76 0a bd 58 65 10 bd e4 45 12 bd 22 cc 06 3d
       -0.033804487 -0.0352529 -0.035711184 0.03290952
000110 f1 4d 36 3d dc 30 07 3c 93 71 f0 bc b5 20 11 bd
       0.044507924 0.008251395 -0.029351031 -0.035431582
000120 ae 8f a1 3d f3 97 b6 3d c2 bf d8 3c 6a de 0d bc
       0.07888733 0.08915701 0.026458625 -0.008658985
000130 7e 9a 46 bd 19 60 31 3d fc a2 af 3d c5 b6 24 3d
       -0.04848718 0.043304536 0.08576009 0.040213365
000140 af 11 4f 3d 78 02 99 bb 9d d5 0d 3d 25 d9 a1 3d
       0.050553974 -0.0046694838 0.034627546 0.07902745
000150 cb 38 f9 3b 6d 13 50 bc 3d db b1 bc a8 d2 f3 3c
       0.007605647 -0.012699944 -0.021710986 0.029763535
000160 3d e0 20 bd 5a 94 44 bd 77 99 91 bc 8f a0 91 3d
       -0.03927635 -0.04799304 -0.017773373 0.07110702
000170 d5 eb 1f bd a8 9d 3c 3d a4 5e 9e bc 95 58 30 bd
       -0.039043266 0.04604879 -0.019332238 -0.04305323
000180 02 70 3a 3d 0e a3 a5 3d bc de 7c 3d b1 e4 b5 3d
       0.045516975 0.08087741 0.061735854 0.0888151
000190 ca 4f 2b bd f5 ef 50 3d 52 73 a5 bc 46 b2 d3 3c
       -0.04182414 0.05101009 -0.02019659 0.025841843
0001a0 96 48 a1 3c ff f2 8e 3d a8 e5 6a 3d 9c 76 52 3d
       0.019687932 0.069799416 0.057347924 0.051382646
0001b0 88 08 2b 3d 2c ec 10 3d 5e 0e 1e 3d b4 96 b2 3d
       0.041756183 0.03538148 0.03858792 0.087201506
0001c0 bd f5 91 3d 60 e8 4d 3c 10 52 dc 3c 30 5b 3a bd
       0.07126949 0.01256761 0.0268946 -0.04549712
0001d0 8a 6b 01 bd 3e dc 29 3d bb ab 82 3d 1d 51 31 bc
       -0.031596698 0.041469805 0.06380411 -0.010822562
0001e0 d0 22 48 3b 10 82 45 bd a6 7b 94 3d 24 a5 58 3c
       0.0030538328 -0.04821974 0.072501466 0.013222966
0001f0 c1 6b a6 3d 3c 2f 5e 3d b4 dd 24 bd 4c 45 c4 bc
       0.08126021 0.054244265 -0.040250495 -0.023958825
000200 6d 9b 19 bd a2 1d 4e 3d d7 76 b0 3c f7 34 57 3d
       -0.03750174 0.05032123 0.021541042 0.052540746
000210 79 c5 74 3c 80 6b 9a 3d 40 be 31 bd a7 ae 84 3d
       0.014939659 0.07540035 -0.043394327 0.06478625
000220 e7 97 b8 bc e0 09 94 3d 17 71 6d 3d 24 46 98 3d
       -0.02253337 0.07228446 0.05796918 0.07435253
000230 70 2b 06 bd d7 99 3d bc be 92 5b 3d 56 19 e5 bc
       -0.03275627 -0.011572323 0.05360674 -0.027966183
000240 e3 81 60 bd 79 37 71 3d 46 6c 9a 3d 8a 19 1e ba
       -0.05481137 0.058890793 0.07540183 -0.00060310273
000250 02 0a 8e 3c 21 1e 5f bc 48 18 96 3d c0 7a de bc
       0.017338756 -0.013618023 0.0732885 -0.027158141
000260 84 1a 1c 3c 6a 29 c9 bc d1 a9 4c 3c bf 94 39 bd
       0.009527806 -0.02455588 0.012491659 -0.04530787
000270 6a a7 26 3d 47 50 b1 3c 39 16 32 3d 97 1d 9d 3d
       0.040687002 0.021644725 0.043478224 0.076716594
000280 7c c4 a1 bc f7 5e 89 3d a2 85 5e bb 91 da 7c 3d
       -0.019747011 0.06707566 -0.0033954163 0.06173188
000290 58 4e 1c bd f3 99 54 bd 50 31 24 bd 45 5e c7 bb
       -0.038160652 -0.05190463 -0.04008609 -0.006084236
0002a0 68 a6 f6 3c 53 3b a6 3c d2 8f 25 3d bd 7d 00 3d
       0.030108646 0.02029196 0.04042036 0.031369913
0002b0 5c 36 23 bd f8 1b e1 3b 38 1c 93 3d e0 86 f0 3b
       -0.039846763 0.006869789 0.07183117 0.007340297
0002c0 5f 9e 9c bb e7 f7 03 bd 50 4b 9f bc 16 92 f6 bc
       -0.0047796215 -0.03221884 -0.019445091 -0.030098956
0002d0 33 15 14 bd 8e c3 37 3d 1e 3a 82 3d 2e b4 8a 3d
       -0.03615303 0.04486423 0.06358741 0.06772648
0002e0 f9 87 3b bd ec 6d ae 3c 00 4c f9 bc b0 41 59 3d
       -0.04578397 0.02129265 -0.030431747 0.05304116
0002f0 96 da 99 3d 61 66 99 3b b3 34 80 bd a1 82 a3 3c
       0.07512395 0.004681394 -0.062600516 0.01995975
000300 e0 35 0d 3c d6 a6 23 3d 2a 71 b5 3b 97 97 73 3c
       0.008618802 0.03995403 0.005537172 0.014867685
000310 8b 78 a8 bb 99 33 95 3d 52 16 97 3d fe ed 46 3d
       -0.005141323 0.07285232 0.07377304 0.04856681
000320 a8 65 87 3d 5f b7 b4 3d ac 21 8e 3d c0 07 b3 3c
       0.06611186 0.08824038 0.06940016 0.021854281
000330 f5 03 15 3d 9a da 2c bd 7d 1b 78 3d 4b a0 54 3d
       0.036380727 -0.042200662 0.06057309 0.05191068
000340 59 22 1d bd 70 d9 d2 bc 88 4d b5 3d ca f4 8d 3c
       -0.038362835 -0.025738448 0.088526785 0.017328639
000350 e9 5b ce bc ee 12 02 3d 04 ef 02 3d bf c3 72 3d
       -0.02519031 0.031756334 0.031966224 0.05926871
000360 cd 19 82 3d e6 f4 67 bd 2e 90 b8 3d bd 4c 7c 3b
       0.06352577 -0.056630038 0.09011875 0.0038497888
000370 7b 0f b9 3b b9 25 4d 3d fb 69 24 3d 6d d3 88 3d
       0.0056475974 0.050084803 0.040140133 0.06680951
000380 e9 8c 24 3d 66 d4 ab 3d 4e bd 98 3c 6a a8 3b 3d
       0.040173445 0.08390121 0.018644955 0.04581491
000390 cd 06 d1 bc 74 25 b3 3d 62 e5 99 3d 63 97 8f 3d
       -0.025515938 0.08747378 0.075144544 0.070112966
0003a0 9c ce 57 bb a4 06 9a 3c 1f 8c 58 bc cf a3 ab 3d
       -0.0032929545 0.018801995 -0.013217001 0.083808534
0003b0 c0 ab 6f 3c 2f ea 36 3d 5b cb 26 bd 82 29 0d bd
       0.014628351 0.04465693 -0.04072128 -0.034463413
0003c0 67 13 02 3d 3e 72 a6 3d 46 c3 f7 bc f5 09 78 3c
       0.031756785 0.08127259 -0.03024448 0.015139093
0003d0 98 68 84 bd a0 91 a6 3d 8f fe a2 bc 1f 4e fb bc
       -0.06465262 0.081332445 -0.019896774 -0.0306769
0003e0 02 4a b2 3d 56 09 a0 3d 5a 5d 88 3c 87 ac f3 3c
       0.08705522 0.07814281 0.016646076 0.029745353
0003f0 44 d1 5b 3d 66 d2 1d 3d fb 0a 73 bd 19 1f 12 3d
       0.053666368 0.03853073 -0.059336644 0.03567419

arith.constant5 f4 [128]
000000 c3 f8 8c 3c a6 76 88 3c 00 00 00 00 ff c7 c4 bb
       0.017208463 0.016658138 0.0 -0.0060052867
000010 2a 8e da bb 00 00 00 00 22 b0 c4 bb 39 e8 d5 bb
       -0.0066697793 0.0 -0.006002442 -0.0065279272
000020 00 00 00 00 20 bd c4 bb d2 f2 8b 3c 00 00 00 00
       0.0 -0.006003991 0.01708356 0.0
000030 f3 31 9e 3c 00 00 00 00 c2 67 88 3c 00 00 00 00
       0.019310927 0.0 0.016651038 0.0
000040 c0 45 27 bc f3 c4 8d 3c 00 00 00 00 00 00 00 00
       -0.010209501 0.017305827 0.0 0.0
000050 4a 93 12 bc 64 85 80 3c 00 00 00 00 d3 9e 86 3c
       -0.008946249 0.015688606 0.0 0.016433155
000060 da d4 90 3c ca ff 8b 3c 00 00 00 00 00 32 8e 3c
       0.01767962 0.017089743 0.0 0.017357826
000070 5d 46 92 3c 91 91 0c bc 3a 06 23 bc 19 8b 3e bc
       0.017855817 -0.008579628 -0.009950215 -0.011629843
000080 ff dc 10 bc 38 c4 c4 bb 66 4d 31 bc a4 e7 8b 3c
       -0.008841752 -0.0060048364 -0.010821676 0.017078228
000090 29 e7 f0 bb 00 00 00 00 2b 6a 59 bc b7 f0 0c bc
       -0.007351775 0.0 -0.013269941 -0.008602313
0000a0 00 00 00 00 fb 9b d3 bb 00 00 00 00 30 de 22 bc
       0.0 -0.0064578033 0.0 -0.009940669
0000b0 cc c0 c4 bb 00 00 00 00 1f 74 87 3c 11 b7 8a 3c
       -0.0060044285 0.0 0.016534863 0.016932996
0000c0 bc cb 8a 3c 9c 58 88 3c 01 82 f3 bb 94 b6 17 bc
       0.016942851 0.016643815 -0.007431269 -0.009259839
0000d0 c4 47 1f bc 92 2f 0a bc 57 c5 c4 bb b6 12 84 3c
       -0.0097217 -0.008434193 -0.00600497 0.016122203
0000e0 78 39 11 bc 8c 22 86 3c 00 00 00 00 c2 e1 41 bc
       -0.008863799 0.016373895 0.0 -0.01183361
0000f0 35 44 05 bc 36 a2 05 bc f7 73 86 3c 66 46 8a 3c
       -0.008133938 -0.00815635 0.016412718 0.016879272
000100 00 00 00 00 00 00 00 00 ea 94 0a bc 6a 04 46 bc
       0.0 0.0 -0.008458355 -0.012086013
000110 5c d8 ce 38 7c 90 26 bc 37 f2 28 bc 00 00 00 00
       9.8631455e-05 -0.010166284 -0.010311655 0.0
000120 b4 b2 ec bb 53 fb 83 3c c4 be 8d 3c 00 00 00 00
       -0.0072234515 0.016111052 0.017302878 0.0
000130 86 e2 1b bc d4 12 06 bc 6e 7d 83 3c 85 c6 c4 bb
       -0.009514457 -0.0081832 0.01605102 -0.0060051107
000140 f4 78 87 3c 00 00 00 00 4a 3f 8f 3c 7c 05 8c 3c
       0.016537167 0.0 0.017486233 0.017092459
000150 00 00 00 00 30 be 89 3c 64 b8 89 3c 00 00 00 00
       0.0 0.016814321 0.016811557 0.0
000160 25 9c e5 bb 6f 9c 89 3c f1 c0 c4 bb 00 00 00 00
       -0.0070071393 0.016798226 -0.0060044457 0.0
000170 3b 00 18 bc c4 72 a7 bb f9 6e c4 bb 91 c3 8e 3c
       -0.009277399 -0.0051101167 -0.0059946743 0.017427238
000180 72 57 9f 3c d4 4f 75 3c 04 c0 c4 bb 70 ad c4 bb
       0.019450877 0.014972646 -0.0060043354 -0.0060021207
000190 14 2a 6c 3c 9a 75 03 bc c2 c2 c4 bb 2a c7 c4 bb
       0.014414329 -0.008023644 -0.0060046623 -0.0060051875
0001a0 02 6e 7b 3c 50 e1 dd bb 8b 6e 84 3c d3 47 cf bb
       0.015346052 -0.006771244 0.016165992 -0.006325701
0001b0 00 00 00 00 32 00 28 bc 6b 20 8c 3c 9c 98 c4 bb
       0.0 -0.010253953 0.017105302 -0.005999638
0001c0 60 20 18 bc fb 45 87 3c 8f c0 83 3c 74 1a 88 3c
       -0.009285063 0.016512861 0.01608303 0.016614176
0001d0 b7 a1 c4 bb a2 9e f4 bb 00 00 00 00 00 00 00 00
       -0.006000723 -0.0074651996 0.0 0.0
0001e0 94 b8 83 3c 3d 0d c4 bb 00 00 00 00 cc b0 7a 3c
       0.016079225 -0.0059830234 0.0 0.015300941
0001f0 fd 1a 84 3c 4c 1f a6 bb 4a 29 96 3c b5 aa 83 3c
       0.01612615 -0.005069649 0.018330235 0.01607261

sequential_5_1/conv2d_12_1/convolution f4 [32, 3, 3, 1]
000000 b7 5d 8d 3b 2a a4 c0 3d de 25 89 bd a8 2a f9 3d
       0.00431415 0.09406312 -0.06696676 0.12166339
000010 81 04 09 3e 15 b2 e5 bd 65 e8 74 3c 68 a0 90 3d
       0.13380624 -0.11215607 0.014947985 0.07061845
000020 7b 27 cf bd 15 26 b5 3d 11 8f 57 bd 58 0a 30 3d
       -0.10114952 0.08845154 -0.052626673 0.042978615
000030 fb 37 8a bd 2c fb 0c 3e 3c 7a c6 3d bb d2 7d bd
       -0.06748959 0.1376769 0.09691283 -0.061968546
000040 72 15 d1 bd 9b 4c 0f 3e 26 88 3c bd e3 e0 ef 3c
       -0.102091685 0.13994066 -0.04602828 0.029282039
000050 64 bb c7 bd 33 cc 6a bc 89 32 19 3e a0 16 d1 bd
       -0.09752539 -0.014330911 0.14960684 -0.102093935
000060 d3 05 9f 3d d2 da 6b 3d 40 74 02 39 75 ec f4 bd
       0.07764783 0.05758173 0.00012441073 -0.11959163
000070 e0 af 28 3c dc 0f a3 3d e1 7f a7 ba 34 ff de bd
       0.010295838 0.07962009 -0.00127792 -0.1088852
000080 17 e0 00 be bf 95 df 3c 2a ed ed bd cb a4 3b bc
       -0.12585483 0.027293084 -0.11617501 -0.011452864
000090 d8 a5 e4 3d 85 d3 f3 bc a6 f9 f0 bd 1f 91 e2 bb
       0.11164445 -0.029763946 -0.11766367 -0.0069142724
0000a0 74 ef c8 bd 71 9c 18 ba 76 d2 62 bd 7e 96 01 3d
       -0.09811297 -0.00058216514 -0.055376492 0.03163766
0000b0 80 3a 4f 3d f4 01 2a bd 0a ba a1 3b 38 4d 66 bd
       0.0505929 -0.04150577 0.0049355077 -0.056225985
0000c0 34 d0 91 3b 96 a3 d3 3d c0 58 3f bd d1 2b 8e 3c
       0.0044498686 0.10333936 -0.046715498 0.017354878
0000d0 5c 70 17 bd 1d 96 1d bd ed e8 16 3e f4 01 ca bd
       -0.03697239 -0.038473237 0.14737292 -0.09863654
0000e0 1c d5 ac bb a8 26 13 3e 7d fb f5 bd 72 74 1f 3e
       -0.005274428 0.14370215 -0.12010858 0.15571764
0000f0 3a a5 92 bd 7a 23 33 bd 59 c3 19 3e 49 fa dd bd
       -0.07160421 -0.043735005 0.15015925 -0.10838754
000100 61 c7 93 bd cc ad 05 bd a5 aa c3 3d b9 9e d4 bd
       -0.07215763 -0.03263645 0.09554032 -0.103818364
000110 9c 66 ae bd 30 d0 ca 3c fa 61 e9 3d 7f e3 18 3e
       -0.08515665 0.024757475 0.11395641 0.14930533
000120 31 a6 a3 3d cd 91 21 3e 31 b9 b8 bd e1 5d e3 3d
       0.07990683 0.15778275 -0.090196975 0.1110189
000130 1a 11 12 3e 53 0b df 3c 36 46 07 3d 75 30 80 bd
       0.14264336 0.02722708 0.033025943 -0.062592424
000140 43 ca 83 3d 8f fb 14 3d b7 4f b5 bc 0c d9 ed 3d
       0.06435063 0.036372717 -0.022132738 0.11613664
000150 4d 59 9a 3c 38 96 1c 3e bd 1b ad bd 8d 41 5a 3d
       0.01884141 0.15291679 -0.08452556 0.05328517
000160 96 9c 41 bd 49 96 f7 bb 74 ad 00 3e 9c 03 33 bd
       -0.047268473 -0.007555757 0.12566167 -0.043704614
000170 c3 92 13 3e 3f 65 e5 3d 7e 4c d1 bc 41 b2 bd 3d
       0.14411454 0.11200952 -0.02554917 0.09262515
000180 5a 15 f3 3c 55 92 f5 bd 9b 6c 5b 3d 6a da 14 3e
       0.029673267 -0.11990801 0.05357037 0.14536443
000190 e9 f6 f4 3d a6 a1 68 3c 28 ac 9c 3d 66 4a 22 3e
       0.11961157 0.014198696 0.07650024 0.15848693
0001a0 45 8d 9a 3d 6b 78 88 bc 25 56 9c bc 81 ed b1 3a
       0.07546476 -0.016658982 -0.019084046 0.001357481
0001b0 59 d8 64 3d a6 32 fc bd 90 19 07 3e d3 11 1d bd
       0.055870388 -0.12314348 0.13193345 -0.038347077
0001c0 9b 14 92 3d a0 6b b5 3d a3 90 0f 3e 6d 46 16 bd
       0.071328364 0.088584185 0.14020018 -0.036688257
0001d0 27 c6 c7 3d 91 48 97 3d 8d eb cb 3d 86 b3 61 bb
       0.097545914 0.07386888 0.09957037 -0.003443928
0001e0 45 d6 4d bd f0 78 51 3c 3f 94 a5 bd d7 ac 87 bd
       -0.05025317 0.012785181 -0.08084916 -0.066247635
0001f0 2a aa 18 3e c7 4c 7c 3d 9c de 1a 3e 46 6a e7 3d
       0.14908662 0.061596658 0.15123981 0.11299567
000200 72 9a cd bd a7 55 f6 3d 74 a3 c7 3d e5 d0 bf bb
       -0.10039224 0.12028056 0.09747973 -0.0058537596
000210 b1 33 f7 3c 00 bb ca 3d d7 40 90 3c fc 9d e5 bd
       0.030176016 0.09898949 0.017609043 -0.11211774
000220 37 47 90 3d 33 af 57 3b 8a 90 ba 3d b2 f6 12 3e
       0.07044833 0.0032910823 0.091096 0.1435192
000230 3a 03 cd 3d 4c 36 b2 3d d5 b8 cf 3d 2c d4 e0 bd
       0.10010381 0.087017626 0.10142676 -0.109779686
000240 65 2f 76 3d 84 4f 4b bd 1c 28 fd bd 8e cf 8e bd
       0.060103793 -0.04963638 -0.12361166 -0.06973182
000250 59 94 48 bd 33 e8 65 bd 8f f0 df bb 99 a7 fc bd
       -0.0489696 -0.056129646 -0.0068340967 -0.12336654
000260 bb 16 82 3d 4d e5 89 3d fb 81 00 ba 33 c2 0a be
       0.06351992 0.06733189 -0.0004902181 -0.13550644
000270 73 d4 04 be 20 78 a9 bd 07 15 d3 3d a7 e1 c9 bd
       -0.12971668 -0.08274865 0.10306745 -0.09857493
000280 e6 2e 3d bd b2 7b 9b bd 80 3c 86 bc 72 36 a6 bd
       -0.046187304 -0.075919524 -0.01638627 -0.08115853
000290 ea 5f 16 3d ee 78 b3 3c 5f 63 be bd c5 f0 ba 3d
       0.036712565 0.02190825 -0.09296297 0.091279544
0002a0 43 56 b6 bc 02 9f 11 bd d2 16 09 be 07 26 b7 3c
       -0.02225793 -0.035552032 -0.13387612 0.022357
0002b0 31 b9 07 be 9c 46 9e 3d 00 2b d6 bd cb 7b bb bd
       -0.13254239 0.077283114 -0.1045742 -0.09154471
0002c0 c4 f7 d1 bd 73 bc e2 bd 74 97 72 bd 80 a2 a4 3d
       -0.10252336 -0.110711 -0.05922647 0.08038807
0002d0 dc 57 07 bb 47 76 6c bc 29 56 80 bd 43 db 0c 3e
       -0.0020651734 -0.014432496 -0.06266434 0.13755517
0002e0 47 f4 b5 bd 80 79 e0 3a 90 83 84 3d 1b 55 d8 38
       -0.08884483 0.0017126054 0.06470406 0.00010315535
0002f0 0f fe b3 bd d4 ad 05 be ab d5 b5 bd c7 ad 81 3d
       -0.08788692 -0.13054591 -0.088786446 0.063319735
000300 a5 a5 07 be d6 b2 e3 bd a3 d6 7f bd 0d 8d 8b bd
       -0.13246782 -0.111180946 -0.062460553 -0.06814013
000310 e4 69 7e 3c 2e 38 d0 3c 82 cb c2 bd fb 37 cb 3b
       0.015528176 0.025417414 -0.09511472 0.0062017418
000320 4f 2a 86 3d 59 41 0c 3d 15 21 af bd 46 7b ca bd
       0.065510385 0.034242008 -0.08551232 -0.09886794
000330 84 50 05 3e c9 c9 1f 3e ad 94 fc bb 8e 22 a7 bd
       0.13018996 0.15604319 -0.007708153 -0.08160888
000340 93 89 61 bd bf 38 87 bd 84 d6 7c 3d 50 9c 8c bd
       -0.05506284 -0.0660262 0.061728016 -0.06865752
000350 1f 97 e5 bd 0d c7 ee 3c 0a eb ed bd 3a 49 60 bd
       -0.11210465 0.02914765 -0.11617096 -0.054757334
000360 8d 0d 9c bd 04 43 9e bd cc de b8 bd 9f 3e 31 bd
       -0.07619772 -0.07727626 -0.0902687 -0.04327261
000370 09 b0 f0 3d ca e9 e7 3a 49 f8 95 3d fb 97 1f 3e
       0.11752326 0.0017693576 0.07322747 0.1558532
000380 ae 93 5f 3c 7c be 1e 3e a9 78 f3 3d 1a 2e e5 bc
       0.013646049 0.15502352 0.118882485 -0.027976085
000390 41 54 6e 3c 5c ef c2 3c 2e b2 d3 bd 0f e3 1e 3e
       0.014546455 0.023795776 -0.103367195 0.15516303
0003a0 ae 24 7f bd 91 10 80 bd 16 97 c3 3d 00 02 fa bb
       -0.06229084 -0.0625316 0.09550302 -0.007629633
0003b0 85 2d 1a 3e 28 53 1f 3d 00 f3 75 3c 2a 26 eb bd
       0.15056427 0.038897663 0.015011549 -0.114818886
0003c0 24 52 e9 bd 17 ce 02 3c ff 2e 64 bc 7b 7e cc bd
       -0.1139262 0.007983706 -0.01392722 -0.09985062
0003d0 5c 94 a2 bd 7e d4 bc bd f1 9e 9a bd 2f 17 b5 bd
       -0.079384536 -0.09220217 -0.07549847 -0.088423125
0003e0 17 a8 80 3c 20 8d d6 bd fa 57 16 3d 20 67 95 bd
       0.015705151 -0.10476136 0.036704995 -0.0729506
0003f0 db 86 08 3e 59 3d 0c 3e 30 59 b6 bd 17 98 6f bd
       0.13332693 0.13695277 -0.0890373 -0.058494654

sequential_5_1/conv2d_12_1/Relu;sequential_5_1/conv2d_12_1/BiasAdd;sequential_5_1/conv2d_12_1/convolution; f4 [32]
000000 22 99 ac 3c 25 1b b3 3c c9 60 3e 3c 52 c1 64 3c
       0.021069113 0.02186353 0.011619755 0.013962107
000010 16 55 9b 3b 4e 46 6b bc 97 3d aa 3c 6c 11 8b 3c
       0.0047403676 -0.014360024 0.020781321 0.01697608
000020 16 1e a7 3c ea e5 95 3c 1d 27 ac 3c ff 7c a5 3c
       0.020400088 0.018298108 0.021014744 0.020201204
000030 33 ef 69 3c b7 ee b1 3c be 65 89 3c 9a 9e 5a 3c
       0.014278221 0.021720273 0.016772147 0.013343478
000040 9c 07 dc bb 64 ad cd bb b9 a1 2f bc e9 e3 cb bb
       -0.0067147743 -0.0062767733 -0.01071971 -0.0062222374
000050 74 99 9c 3c 6e 85 57 bc 7e 61 90 3c 35 1d 45 bb
       0.01911614 -0.013154371 0.017624613 -0.0030077223
000060 d6 b2 99 3c 95 6d 8d 3c 04 e3 bb 3c 1e c4 c4 bb
       0.018762033 0.017264167 0.022935398 -0.0060048243
000070 72 e8 b2 3c 2e ab 54 3c 3a c6 86 3c 10 99 b5 3c
       0.021839354 0.012980266 0.016451944 0.022167712
