assets/models/pose_cnn_model.tflite (tflite, 573080 bytes, 8 tensors)

arith.constant f4 [64]
00000000: c6e9 bdbc 3555 f5bd 3024 4ebe 282b 07be
00000010: 091f 19bd 8e31 9cbd 5e63 aebc c0f0 54ba
00000020: 7ebb b7bd 4fc6 e83d e729 943a bec9 353e
00000030: 411c babc 3ba1 00be 1606 bf3d c07e 06be
00000040: fb44 843d 7168 44bd 333c 453e e278 3fbe
00000050: 501e 243d b25f 92bc 9f8d 6b3e 4e08 65bc
00000060: 241c 49bd bb0d 3ebc e86c 043e cbd7 abbd
00000070: 8023 8dbc f9ca 6ebe 4e86 adbb 4e62 bf3d
00000080: 1592 ed3b 6b25 ab3d f3fc 273c 6220 473e
00000090: 50b6 55bd 1ab2 fcbd 4124 183e c344 843d
000000a0: 0f1b 333e bb77 783d 40d1 a8bd f073 8a3d
000000b0: 021b a8bc 663d 213e b405 05bd 5257 0bbd
000000c0: 1e67 f1bc 1d7b cbbd 8365 8a3b e602 313d
000000d0: fc66 4fbe 7100 283e 540f 553c 2451 133d
000000e0: d270 4fbc c281 4a3e 6d25 a7bc e5ee 7b3e
000000f0: 60bd 373c 8453 3f3b baae d73d 00a9 f8bc
-0.02318276 -0.119791426 -0.20130992 -0.13200057 -0.037383113 -0.07626639 -0.021287616 -0.0008123033
-0.08971308 0.11365949 0.0011303992 0.1775274 -0.02271855 -0.12561505 0.09327333 -0.13134289
0.064584695 -0.047951166 0.19261245 -0.18698457 0.04006797 -0.017867897 0.23003243 -0.013979031
-0.049099103 -0.011599953 0.1293217 -0.083907686 -0.017228842 -0.23319615 -0.0052955514 0.09344922
0.0072500804 0.08356746 0.010253179 0.19445947 -0.05217582 -0.12338658 0.1485758 0.06458428
0.17490791 0.06066106 -0.08243036 0.067603946 -0.02052069 0.15746078 -0.032476142 -0.034018822
-0.029468115 -0.09935591 0.004223527 0.043215655 -0.20254129 0.16406418 0.013004143 0.035966054
-0.012661176 0.19776061 -0.020403588 0.2460285 0.011214584 0.0029194066 0.10531373 -0.030354023

arith.constant1 f4 [64, 3, 3, 32]
00000000: 2a1d 6fbc b47f 73bd a2c2 76bd 995c 3b3d
00000010: 0f98 363a b0e3 cdba b8c9 52bc bf50 9e3e
00000020: 0f8d 003e 09f9 13bc 7c50 2a3d c054 cabd
00000030: 1202 b5bd eea5 4f3e 0a61 2b3e d3f2 b7bd
00000040: b10d 52bd 514c 7a3d ef70 133d 0b31 92bd
00000050: 47f0 1abe b50a 81bc 5a6d c33d bc0d 4f3d
00000060: 477d 21be a01f 31bd 43f8 f5bd d7e9 f6bd
00000070: eca7 58bd 0431 003e 9929 4cbd 04b7 e7bd
00000080: fdea 0dbe be4b e13d 1d1b 53be fb84 ec3b
00000090: 26dd c93d 1456 b8bd e6cb 3f3d b04b 1bbe
000000a0: cf78 4f3d 0ffd 803c c6eb 2a3e 0535 aaba
000000b0: f061 543e a3ad fcbd 5d21 d63d eb7e 21be
000000c0: 9445 8bbe baf1 b0bd e030 1abe 2d73 1bbe
000000d0: d6ac 3dbc 0a14 41be 2471 cbbd 654e 10bd
000000e0: aaf2 94be 5754 1dbe 042c 07be a9ba 88bd
000000f0: 7cf1 5f3d 1a2d dc3c 0f92 05be fc28 6bbe
00000100: 036e 46be 732d 9e3d 87a0 bbbd 053f 883d
00000110: e8b6 dcbd f7a8 883c e474 52bc 6692 b73d
00000120: 5874 723c 0834 f0b9 3aee 78bc fbbc 70bc
00000130: 6339 0fbe 95e1 ecbd 401d 0ebc 95c5 8cbd
00000140: 9d0a 0abe e4db dbbd cae7 953c acd9 babc
00000150: a938 87bd 5b93 01be e53f 71bc 226a 9c3d
00000160: 82d2 c6bd 0f7d a63d 249a fe3c 9892 dbbc
00000170: d026 84be 54b1 e83d f7ca 5bbe 7714 df3d
00000180: c7f3 acbc 4775 293d cbbd 3e3e 54c0 253d
00000190: 536d c93d 2ec1 ac3d 798a e3bd a6ce 98bd
000001a0: 1dfe 933d 7d2e fb3d 114c e93d b50a ca3d
000001b0: 3810 853e 0fac 63be b078 bb3d 1198 c83b
000001c0: 9a11 1b3c dce2 543e 37f7 0bbd 632f eebd
000001d0: ce23 853e 7f47 0fbe 64e8 e0bc 8b66 003e
000001e0: 0933 8bbd 9a5a 44be 2579 603e 983c 37be
000001f0: 275f 663d a2d8 f9bd 447f b53d 5c1d 5bbd
00000200: 0dfd cd3c 6011 c5bd 9427 293e 8153 ccbd
00000210: c86c 323e 9e2b 0bbd 97f3 dcbd 0a18 9ebd
00000220: 3ad4 6dbd 0084 b73c 82d4 c5bb 7496 023d
00000230: 3c14 4d3d dccf f83c 1b77 a43c c855 7cbe
00000240: f330 193d 50dd 153e 4f9e 573d 0c20 523c
00000250: eee9 633d 6413 393e 91e2 3f3c 5666 863d
00000260: 185a 363e 092b db3d 4bb6 d03d 85fe d4bb
00000270: bb5d 86bd 1863 d93d 5a19 c53d e1ca 713d
00000280: ac3e 91bc d258 8d3c 3b48 223e 05e7 10bd
00000290: aee5 bd3d dcbe 99bc 18e0 0cbe 724f c23d
000002a0: 0021 07be 6b27 d4bc 970e a63d c101 243e
000002b0: 5161 a03d a509 6d3e e996 03be eb56 4bbe
000002c0: d7d7 61be c51d 2b3d dffe 553d 1a2d ac3d
000002d0: e868 84bc ed5c a43d 6a85 0abe 18e4 25be
000002e0: c164 21be bbf9 2ebc 24b8 0d3e f208 bd3d
000002f0: 52e2 e03d 02c2 273d 08e1 3bbe 2581 0a3d
00000300: 7d22 babd 05ab 1bbd accb 7abe f181 debd
00000310: 5da7 803d f3bc b33d 813f 3ebe e306 4cbd
00000320: f3e5 47bd a015 17be 64d2 333b 1efb 51be
00000330: 73c8 81bc 8b6c cbbd 7fc7 4abc 5947 693e
00000340: 3bd7 43bd 4a8a 36be edd8 55be 8cfe 11be
00000350: 77ac a7bd bb00 8cbd 7044 22bd fc8e 2b3c
00000360: 0857 cdbc 13db dabd 3859 dabd 1379 123d
00000370: 8727 b33d db84 2b3d 8161 0f3b 41f2 583c
00000380: eb3b 4fbd 5385 033e 54c4 98bd 2dd9 30bd
00000390: 5479 6a3d 3fb6 753d ce67 d43d 62e5 7a3c
000003a0: 15a6 5b3d 1da2 9fbd d989 053d 50ab f63d
000003b0: d4c7 1d3e 0721 45be 4bd2 30be b291 bf3e
000003c0: 2327 1c3e ce12 973d 7a36 663d 7eff 05be
000003d0: 2c32 a6bd a8c2 dabc 5234 8e3d 91c3 133d
000003e0: 6c93 063d 7efa b73d 151b 57bd 04de f03d
000003f0: 7c45 c93d 5172 2dbd c96f 72bd 2b38 173e
-0.014594356 -0.05944796 -0.06024421 0.045742605 0.00069654075 -0.0015708115 -0.012865476 0.3092098
0.1255381 -0.009031543 0.041580662 -0.09879446 -0.088382855 0.20278141 0.16736236 -0.08981862
-0.05128259 0.061107937 0.035996374 -0.071382605 -0.15130721 -0.015752176 0.095423415 0.050550207
-0.15770446 -0.04324305 -0.12010243 -0.1205632 -0.052894518 0.12518698 -0.049844358 -0.11314204
-0.13859172 0.11000775 -0.20615812 0.007218001 0.09856634 -0.09000793 0.046825312 -0.15165591
0.05065232 0.015745668 0.16691503 -0.0012985772 0.20740485 -0.12337806 0.10455582 -0.15771072
-0.2720152 -0.08639856 -0.15057707 -0.15180655 -0.011576852 -0.188553 -0.09933689 -0.035231013
-0.29091388 -0.15364204 -0.13200384 -0.066762276 0.054673657 0.026876975 -0.13043998 -0.22964853
-0.19377904 0.077235125 -0.091614775 0.06652645 -0.10777074 0.016682131 -0.012845252 0.0896347
0.014798246 -0.00045815133 -0.015193516 -0.014693494 -0.13986735 -0.11566464 -0.008673966 -0.06873623
-0.13480611 -0.107353 0.018299002 -0.022808872 -0.06602604 -0.12653868 -0.014724706 0.07637431
-0.0970812 0.08129322 0.03107936 -0.0268033 -0.25810862 0.11361948 -0.21464144 0.10892575
-0.021112336 0.04137161 0.18627088 0.04046662 0.09835305 0.084352836 -0.11110396 -0.0746129
0.07226203 0.12264726 0.11391462 0.098653235 0.25988936 -0.22233604 0.09153879 0.0061216434
0.009464646 0.20789665 -0.03417131 -0.11630132 0.2600388 -0.13992117 -0.027454562 0.12539117
-0.067968436 -0.19175187 0.21921213 -0.17894208 0.056243088 -0.121995226 0.088621646 -0.053494796
0.025145078 -0.09622455 0.16519004 -0.099768646 0.17424309 -0.033977143 -0.107886486 -0.07719429
-0.058063723 0.02240181 -0.006037296 0.031881765 0.050068125 0.030372553 0.020076325 -0.24642098
0.037400197 0.14635205 0.05264121 0.012825023 0.055643015 0.18073803 0.0117117325 0.06562488
0.17807806 0.10701568 0.101910196 -0.0065000677 -0.065608464 0.10614604 0.09623976 0.05903137
-0.01773008 0.017254267 0.15847866 -0.035376567 0.092723235 -0.018767767 -0.1375736 0.09487809
-0.13196182 -0.025897702 0.081082515 0.16016294 0.07831062 0.2314821 -0.12850536 -0.19857375
-0.22054993 0.041776437 0.052245017 0.0840704 -0.016163304 0.08025537 -0.13527456 -0.16200292
-0.15761091 -0.010679658 0.13839775 0.09230222 0.10980667 0.040956505 -0.18347561 0.033814568
-0.09088609 -0.038004894 -0.24491757 -0.10864628 0.06281922 0.087762736 -0.18578912 -0.049811255
-0.04880328 -0.14754343 0.0027438635 -0.2050595 -0.015842652 -0.09932812 -0.012376665 0.22781123
-0.04781268 -0.1782619 -0.20883532 -0.14257258 -0.08187192 -0.06836077 -0.03961605 0.010471102
-0.025065914 -0.10686316 -0.106615484 0.035759997 0.087477736 0.041874748 0.0021878185 0.013241352
-0.05059425 0.12843828 -0.074593216 -0.043175865 0.057244614 0.059988257 0.10371362 0.015313478
0.053625185 -0.077945925 0.032602165 0.12044394 0.1540826 -0.1925088 -0.1726772 0.37415844
0.15249304 0.073766336 0.056204297 -0.13085744 -0.08115038 -0.026704147 0.06943573 0.03607518
0.032855436 0.089833245 -0.05251606 0.11761096 0.09827706 -0.04234535 -0.059188638 0.1476752

arith.constant2 f4 [5, 128]
00000000: 034e 433e 8543 113e 4d52 62be 12d5 5fbd
00000010: 735b e5be 202a 663b 994b 163f 4f05 ae3c
00000020: 2714 4cbe e411 353e 1cd5 c1be 590e 203e
00000030: fc4f 223d 77ce 56be 36f9 593e b8c3 46be
00000040: e978 6f3e 1edf 1d3e 71fa 00bd 4df7 8ebc
00000050: 84b8 b23d f035 2e3e 5463 0b3e d820 51be
00000060: a626 613d 4c38 453e fba5 1fbe 9ad1 403d
00000070: c4e9 cd3e 25be 52be 856d 50be 349b acbe
00000080: 17f0 dfbd 9e24 87be 227c 99be 7773 19bf
00000090: 13da 7b3e 38b4 0cbe 0366 473e d997 ffbe
000000a0: 65eb 513e f1d1 ca3d 2dab bdbd 48e6 e0bd
000000b0: 963b 353d d3f8 d6be 35fc 1e3d 9692 353e
000000c0: 5924 7dbd fcb3 20be 5b46 a13c 6793 9dbe
000000d0: bf08 c5be 9f18 4b3e 92c5 d53e a657 053e
000000e0: d0e1 6d3e 1872 a23e 8b10 953d 4a1d 873d
000000f0: ee78 0c3e a8f4 86be 3297 dcbe 4d59 7f3e
00000100: 8501 14bf d832 c3be 447f 0cbe ecce 4bbd
00000110: b88d 3dbe 173d 863d f42a 543e c365 1c3e
00000120: 28a1 383e c877 563d a823 e3bd 5622 b63c
00000130: e705 a9be fafb c4be 1ec7 e8be 5d06 96bd
00000140: 4908 f23c d7e6 1c3e 70b5 6f3d 0bfd fa3d
00000150: 3d0a d3be 4024 99bf 2c6a 15bf 447b eebe
00000160: fff8 94be cea7 81bb 3440 cfbe 93a0 1bbe
00000170: dfb6 463e 670b a5bd 2d4d b33d 52ca 00bf
00000180: c352 a33d 42fc b4be 8f6d 963e d627 24be
00000190: 2684 edbd f6f7 ad3c 4209 3ebd 219d dc3d
000001a0: 5ee1 9e3e 1a28 3ebe 8330 febd f8ae 36be
000001b0: 466d 823d e958 fabd 3352 35be 6d0f 3d3e
000001c0: d000 013e 36cc 0bbf f456 17bd 49f6 9abe
000001d0: 25f7 ab3e c70c bcbe 4046 253e d5c4 a33d
000001e0: db31 073d 1bde 03be 6fe8 c03d 6532 283e
000001f0: 66c9 5f3e 849f 8fbe 78ae 023f 04c2 9a3e
00000200: b73a 93be b88c 953e 56bb 0bbf b1bd 83bd
00000210: 09f4 b93e 26dd fdbe e277 d13e 8b3e 9dbc
00000220: 6d69 c4bd 2d7d f9be 9e64 dd3d 40f3 07be
00000230: 1dba bfbe 30e7 663f d111 b1be 6d48 32bd
00000240: 66d8 613e cdb9 34bd 6430 9ebc add4 9cbc
00000250: 43d6 09bf d1e4 4f3e 14eb 383e b636 60bd
00000260: d8ae bf3d 61fa 3ebe 1c99 353e f63e 0bbe
00000270: ad4f 5abd c12f a13c 4a6a cd3e efc7 f7be
00000280: fff3 0cbe 9355 e73e 92a1 333e 1090 c9be
00000290: dd70 bd3e cb80 34be 3901 4d3e 73bd 1c3d
000002a0: d0c3 83be 98e7 003e 0a5e 453f b9bd 25be
000002b0: 30d9 0abe 7513 25be 8bd8 1fbe 7c03 0bbf
000002c0: 25e5 a1bd 8e30 2a3f 06c6 1abe 6db9 f03d
000002d0: c143 a63e cb48 96be 7d0a 87be e06d 06be
000002e0: 2f4e 49bd 9b45 c53d 9907 843d 6425 173e
000002f0: 2e7f fdbd 8a8c 92be a3ee 9bbe 88fe 90bb
00000300: 9aff 263f d528 7a3e 8022 033e a7fe f13d
00000310: 209e 223e 193e 143e db82 e83d 61ce 47ba
00000320: c7ea 333d 12b5 68be 46dd 13be 1850 183b
00000330: 8346 2f3e 3417 09be ee97 d63d 6fdb a23d
00000340: c80c 493d cccc 1b3e ab32 183e 4a62 573e
00000350: 5c57 833e 572f 343e 503c bebd a7dd 113e
00000360: 003f 043d 639f 2cbe fd7e 86be d893 05bf
00000370: 2b34 81bf 1727 573e cf5c 513e 259b 123f
00000380: 83e9 413e 01dd b03e 968f 043f eb96 9e3e
00000390: f815 4abe 9966 f0bd f5bf 1bbe b77b 143c
000003a0: 9c5b 8dbe a5a6 bd3e a858 4b3e 0399 823d
000003b0: c023 9cbd 21c4 fd3d c0d5 f03d 0530 1dbe
000003c0: 024f 28bf 5195 223e 264c 12be ea9d a43e
000003d0: e022 dd3b b793 e73d b6b7 02be 544c 20bf
000003e0: 0ad2 1a3e 0864 943d 88ed 193e 966b 1d3e
000003f0: cda4 a83d d373 5c3f 6b02 453f 0b18 81be
0.19072728 0.14185913 -0.22101708 -0.05464656 -0.44796333 0.0035120323 0.587091 0.021242766
-0.19929563 0.17682606 -0.37857902 0.15630473 0.03962706 -0.20977198 0.21286473 -0.19410598
0.23385967 0.15417144 -0.03148884 -0.017451907 0.087266 0.17012763 0.1361211 -0.20422685
0.0549685 0.19259757 -0.1559066 0.04707489 0.40217412 -0.20580347 -0.20354278 -0.3371216
-0.109344654 -0.26395124 -0.29977518 -0.5994181 0.24594907 -0.13740623 0.19472508 -0.49920538
0.20499952 0.099033244 -0.09261165 -0.10981423 0.04424628 -0.41986713 0.038814742 0.177317
-0.061802242 -0.15693659 0.019686868 -0.30776522 -0.38483235 0.19833611 0.41752297 0.13021716
0.23230672 0.31727672 0.07278546 0.06597383 0.13718006 -0.26358533 -0.43084103 0.2493641
-0.5781482 -0.38124728 -0.13720423 -0.049757883 -0.18511093 0.06554621 0.2071951 0.15273194
0.18030226 0.052360326 -0.11090785 0.02223317 -0.33012316 -0.38473493 -0.45464414 -0.073254324
0.029544966 0.15322433 0.05852264 0.12255295 -0.4121875 -1.1964188 -0.5836513 -0.4657842
-0.2909622 -0.0039567715 -0.4047867 -0.15197973 0.19405697 -0.080588154 0.087549545 -0.50308716
0.0797477 -0.35348707 0.29380462 -0.16030821 -0.11597471 0.021236401 -0.046395548 0.107721575
0.31031317 -0.18569985 -0.124115966 -0.17840183 0.063684985 -0.122239895 -0.17707138 0.18462916
0.12597966 -0.54608476 -0.03694816 -0.30266026 0.33586994 -0.36728498 0.1614008 0.07996527
0.03300653 -0.12877695 0.09419333 0.16425474 0.21854171 -0.28051388 0.5104747 0.30226147
-0.28755733 0.29208922 -0.54582727 -0.06432665 0.36318997 -0.49582785 0.40911776 -0.019194862
-0.09590421 -0.48728314 0.10810207 -0.13276386 -0.3744668 0.90196514 -0.34583905 -0.0435261
0.22055206 -0.044122506 -0.019310184 -0.01914438 -0.5384256 0.2030213 0.18058425 -0.054739676
0.09359521 -0.186502 0.17734188 -0.13598236 -0.05329864 0.019676091 0.40120155 -0.48394725
-0.13764952 0.45182475 0.17542103 -0.39367723 0.3700017 -0.17627256 0.20019998 0.03826661
-0.2573533 0.12588346 0.7709662 -0.16185655 -0.13559413 -0.16120704 -0.15609948 -0.5430219
-0.07905034 0.6648034 -0.15114602 0.11754117 0.32473567 -0.29352412 -0.2637519 -0.13127851
-0.049146827 0.09632417 0.06446762 0.14760357 -0.12377773 -0.28622848 -0.30455503 -0.0044248737
0.6523377 0.24429639 0.1280613 0.11816149 0.15880632 0.14476813 0.11353084 -0.00076220004
0.043925073 -0.22725323 -0.14439878 0.00232411 0.17116742 -0.13387758 0.10478197 0.0795201
0.049084455 0.15214843 0.14863078 0.21033588 0.25652587 0.17596184 -0.092888474 0.1424471
0.032286644 -0.16857676 -0.2626876 -0.52178717 -1.0094045 0.21011005 0.2044556 0.5726798
0.18936734 0.34543613 0.51781595 0.30974516 -0.19734943 -0.11738319 -0.15209945 0.009062699
-0.27608955 0.37041202 0.19858038 0.06376841 -0.07624006 0.12390924 0.117595196 -0.15350349
-0.65745556 0.15877272 -0.14286861 0.3215173 0.006748542 0.11307471 -0.12765393 -0.6261647
0.15119186 0.07245642 0.15032017 0.15373072 0.08234558 0.86114234 0.76956815 -0.25213656

arith.constant3 f4 [128, 960]
00000000: ee22 a03c fa4c 203e 3d9b a43d 45f7 063e
00000010: 9be9 cabe b5e2 053e 0e5b e53d 80e8 903d
00000020: 3298 813d 6507 99bc 5bbe 873d 7710 c9bc
00000030: 35b6 593d 51a4 233d 5d0e 46be a22f 9abd
00000040: b25d 393c 3f7f cd3d 715a 2e3e 993f 143d
00000050: f2b2 923b acbe 453d 709f cebc 7a13 83bd
00000060: d8aa e53d e006 893d d021 c33e e631 143d
00000070: 9d7d 82be 0eed f7bc 0873 e43d eaec a03d
00000080: f241 b63e 0f8e 0e3e e5dd 8e3d 36e7 15bd
00000090: 361d a33c 34c7 e2bb ca3e 6bbb dfb9 843d
000000a0: d343 543e 733d 153e a58a 60bc 10ff 1bbd
000000b0: 718d 3cbd 07ce ddbc 7534 bd3d 902f 9ebc
000000c0: f961 8f3d 2313 2f3e 6d56 dfba 5aea e4be
000000d0: 3e70 ad3d d215 d6bc 4b20 513e 880c 823d
000000e0: c232 41bd a462 44bd 61ee 20bd 9d70 9cbe
000000f0: c82d 0d3d 66f4 003e 49da 0b3e 9f0a 3f3d
00000100: 360c 283d b4f8 c93d 422c 053e 91a3 fc3d
00000110: 4acd 7ebe d139 303c b804 513e 61bf 953d
00000120: 6e07 0a3e 8b09 96bd e884 903e 1ec7 023e
00000130: ffbb 763c 5b88 803d b4d8 7abe 84d1 d5bc
00000140: 9691 cd3d 9156 bcbc d91a 1cbe 109f 6a3d
00000150: be1c 26bd 9620 e23b a1d1 a43d 3c7d 343d
00000160: 0d6a 0c3e 487a 3bbd 534d b93e 0fed a8b9
00000170: f0ca 53bd 4142 2abd 9503 5abe 8ba3 0e3e
00000180: 2c44 023c b708 263e a1af 8fbe ea34 87bb
00000190: 8381 79bd db66 80bd 777b 593e 13ba c1be
000001a0: cfb8 3a3c 9f16 833d 030a f53c c3d9 de3c
000001b0: f27f 0f3d 827c 10be e33a 893c e27c 00be
000001c0: 9366 333d 65bf 8abc 9764 55bd acbd b0be
000001d0: 6959 883d a34d 9d3e fbbe 4f3e 1b5d bcbd
000001e0: ae4e 5c3d 4e1b 453d 7e2b 693d fd2d acbe
000001f0: c1b3 983c afcd e2bd 0fac 653e b964 59be
00000200: af5f a43d 89a4 c83c 5843 e93d 35ff 53be
00000210: 5b45 f3bd 91f6 04bb 1400 f2bc 9283 cb3d
00000220: b158 203e f065 4e3d 2f09 c6bd b970 20be
00000230: 644f 123d e12a 273e fc57 30be 5952 093e
00000240: c047 833b 707e 003e 8dfd 523d d5fd 57bd
00000250: ea7f 3d3e 4dde 523c a006 163e 406d 27bc
00000260: 2257 563d 6c28 36bd 8d40 df3e 023c 913d
00000270: 605c 873e 0d4c 8b3d a9bd 083d 706a 61bc
00000280: 5eef e8bd 1bdf 513c 1ff6 293e 2821 debd
00000290: bd02 5c3e 23c0 593d b3c0 a13e 0011 05bf
000002a0: 534c f23c 0808 82be 3c36 0c3d 9272 133e
000002b0: cc0e 98bc ca5f 67be 184e 273d c20d 743d
000002c0: 9293 033e fe09 2fbe ee52 1fbd 105d f9bd
000002d0: d938 4a3d 5cf8 9c3c 6306 613d 9038 4dbe
000002e0: e15d dc3c 0bd2 3d3d 8e38 06bd e7a0 8b3d
000002f0: 65d3 c03d 15c1 293d 8dd2 183e d46d 3cbe
00000300: 9079 383d ae16 d4bd f819 b3bd e046 3abe
00000310: 6cbe 233e ce91 4cbe 8561 933d 0564 28be
00000320: c77d 21bd a456 e43d d4b7 d13d 722e 8f3e
00000330: abce f33e 1b2d c8be de39 3bbe 4da4 973d
00000340: 02b3 3d3e eb56 073d 2190 34bc e5eb 79be
00000350: 5fae 4a3d ff04 16bd 918c f7bc 64e8 5bbd
00000360: 7c5a ba3e 2876 993d 65dd 1c3e 81db 1dbd
00000370: 5fcd a53e 10a7 93bd 272a 37bd 94bf cebd
00000380: cbac 773e b916 df3e 53ce aa3c 3fd1 f8bd
00000390: c52b fe3d 0619 ee3d e71f 713e d8fc 52be
000003a0: fd70 9739 928a f43d 1505 65bd 8822 123d
000003b0: 7f2a 613d af2e 3dbe 2fbc fdbd 5f82 863e
000003c0: 4769 13be 4998 27be 4cc6 923d 2a74 0d3d
000003d0: 649d 71be ea8b b7bd b7ec 88be 3a7c 85bc
000003e0: 2b42 d0bc dd16 af3e 2f54 6d3c 1788 973d
000003f0: b422 b33d fb5f a9bd 7296 ce3e f7b7 2a3d
0.019547906 0.15654364 0.08037422 0.13180263 -0.39631352 0.13074763 0.11199008 0.07075596
0.06327857 -0.018680284 0.06628104 -0.024543984 0.05315228 0.039951626 -0.19341417 -0.075286165
0.011313843 0.10034036 0.17026688 0.036193464 0.0044768983 0.048277542 -0.02522251 -0.06400199
0.112142265 0.066907644 0.38111734 0.0361804 -0.2548646 -0.030264404 0.11154753 0.07857688
0.35597187 0.13921379 0.06975917 -0.036597453 0.01991139 -0.0069207195 -0.003589558 0.064807646
0.20728998 0.14574222 -0.01370493 -0.038085043 -0.046033327 -0.02707578 0.09238521 -0.019309789
0.07001109 0.17097144 -0.0017039307 -0.44710046 0.08468674 -0.026133452 0.20422475 0.063500464
-0.047167547 -0.047945634 -0.039289836 -0.30554667 0.03446749 0.1259323 0.13657488 0.04664099
0.04102727 0.098618895 0.13005164 0.12335885 -0.24882999 0.010755972 0.20411956 0.07311893
0.13479397 -0.07326039 0.282264 0.1277127 0.01505947 0.06276008 -0.24496728 -0.026100881
0.10037534 -0.022990497 -0.15244617 0.0572806 -0.040554754 0.006900857 0.08047796 0.044064745
0.1371233 -0.045770913 0.36191806 -0.0003222008 -0.05170721 -0.04156709 -0.21290429 0.13929574
0.007950824 0.16214262 -0.28063682 -0.004126181 -0.060914528 -0.06269618 0.21238504 -0.37837276
0.011396601 0.06400799 0.029912 0.027203446 0.035034128 -0.14109996 0.016751712 -0.12547639
0.043798994 -0.016936967 -0.052097883 -0.34519708 0.06657679 0.30723295 0.20287697 -0.09197446
0.053785972 0.048121743 0.056926243 -0.33628836 0.0186404 -0.11074387 0.22428916 -0.21229829
0.08026063 0.024492519 0.11389798 -0.20702823 -0.11878463 -0.0020288567 -0.029541053 0.099372044
0.15658833 0.050390184 -0.096697204 -0.15668 0.035720244 0.16324951 -0.17221063 0.1341032
0.004006356 0.12548232 0.051511336 -0.052732307 0.18505827 0.012870383 0.14650965 -0.010218918
0.05232919 -0.044472143 0.43603936 0.07091524 0.26437664 0.06801615 0.033384 -0.013758287
-0.11373781 0.01280954 0.16597794 -0.10846168 0.2148542 0.05316175 0.3159233 -0.51979065
0.02957741 -0.25396752 0.03423141 0.14399174 -0.018561743 -0.22595134 0.04084596 0.059583433
0.12849262 -0.17093655 -0.038897447 -0.121759534 0.04937062 0.019161396 0.05493773 -0.20041108
0.026900234 0.04634289 -0.03276878 0.06817799 0.0941532 0.041443903 0.14924069 -0.18401271
0.045037806 -0.10355888 -0.087451875 -0.18191099 0.15990609 -0.19977495 0.07196335 -0.16444404
-0.03942659 0.11149338 0.102401406 0.27965122 0.47618613 -0.39096913 -0.18283793 0.07404385
0.18525317 0.033041876 -0.011020691 -0.24406393 0.0494827 -0.03662586 -0.030218394 -0.05368842
0.3639716 0.0749324 0.1531883 -0.038539413 0.32383248 -0.07209599 -0.044717934 -0.100951344
0.24187009 0.43572024 0.020850336 -0.121492855 0.12410692 0.116258666 0.23547326 -0.20604265
0.00028885147 0.11940493 -0.05591305 0.035677463 0.054972168 -0.1847484 -0.12389409 0.2627134
-0.14395629 -0.16366686 0.071667284 0.03453461 -0.23595196 -0.08962233 -0.267431 -0.016294587
-0.025422176 0.3419713 0.014485403 0.07399004 0.087468535 -0.0827026 0.40349156 0.04167935

arith.constant4 f4 [5]
00000000: d589 df3d bd17 a7bd d5b9 8dbd e0a3 fb3c
00000010: 7d78 3e3c
0.10914961 -0.081588246 -0.0692021 0.03071779 0.011625406

arith.constant5 f4 [128]
00000000: edcb 8c3c 8e23 673d 580d 8dbd b876 88bc
00000010: dd95 253d 906a 41bd ad32 cf3d 68c9 17bd
00000020: e7c2 19bc 5602 ecbd 59b8 903c 6268 b1bb
00000030: c451 70bd cfee bb3c 41ea 683c 1450 c1bb
00000040: c440 d83c cac7 5bbc 9635 52bd 8893 b8bc
00000050: c755 223b ab8f 40bd e0f7 f9bb 44f1 22bc
00000060: 3ded 25bd 2af2 c6bc fee8 00bc b79f 33bc
00000070: 677d 043d 7fdb cdbd 472c 843d 62ea 1cbc
00000080: f2e7 33bc 3b4d ebbd 7914 913c 6f23 cebd
00000090: c6d6 963d 2c78 a0bc 5b14 d9bb 7f1d 22bb
000000a0: 5a3b b13d a8cb 2c3d cbe8 5fbd 036b 9abc
000000b0: 51e1 20bc c8eb 663c 855b 0ebc 1a42 913c
000000c0: 4a51 0dbc 23c2 3f3d 9b30 943d cab6 07bd
000000d0: 3771 343d 49d3 cc3d ed0e 9a3d 0884 2abd
000000e0: 935c 973d ad74 7c3d d7fa d1bb a9c1 c4bb
000000f0: e551 0fbd 7566 153d 700e 59bd b7a5 b03d
00000100: dbce c6bc 94db a83c ec34 9cbc 8835 09bd
00000110: 116f 5abc 2e58 eebc 3ca9 4ebc c6d1 0bbc
00000120: 0d10 643d ffef 2dbc 9460 d7bc b73e d3bb
00000130: 5095 c63c a463 083c 81bb 903c 2b4d 23bc
00000140: ec57 07bd 19b2 00bc bf9c bfbc 3f2c 82bc
00000150: 0c84 7e3d e2e4 ae3d e69e 6ebb ef0f 813c
00000160: 63ab 4e3c 0a55 4dbc 1761 543d eb2d ad3d
00000170: e8f0 fb3d 1780 61bd 930d 63bc d7f3 043d
00000180: e147 19bc ff0b 1a3d da26 f83d 693f 203d
00000190: 9ab6 20bd 697c c9bc 9381 27bd a033 1b3c
000001a0: 7044 bcbd fde7 1538 4eec abbd 25c0 f8bc
000001b0: 61fa f9bc fe26 50bc 66ac 21bd 0797 b3bc
000001c0: 941f 9e3d 3e5c 37ba 7d74 f3bb 1e7a cf3b
000001d0: 884b 9d3d 1816 823d 9c97 d3bc 06fe 943c
000001e0: 4547 83bb fac5 dfbb 5576 4d3d 4c84 10bd
000001f0: 3ef0 cc3c 1f36 2fbd 5266 ddbc 1ff1 7dbc
0.017187083 0.056430392 -0.06887311 -0.016658172 0.040426124 -0.047220767 0.101170875 -0.03705731
-0.009384847 -0.11523883 0.017666029 -0.0054140547 -0.058671728 0.022941021 0.014216007 -0.0058994386
0.02639807 -0.013414333 -0.051320635 -0.022531286 0.0024770366 -0.047012012 -0.007628426 -0.0099452175
-0.04050945 -0.024285395 -0.00786805 -0.010963372 0.032346155 -0.10051631 0.06453758 -0.009577366
-0.010980593 -0.1148934 0.017709957 -0.10065352 0.073651835 -0.019588552 -0.006624741 -0.002473682
0.086538985 0.04218641 -0.054665368 -0.018849855 -0.009819345 0.014094301 -0.008688812 0.017731715
-0.008625338 0.046816003 0.07235833 -0.033133306 0.044053283 0.10001237 0.07522378 -0.04162982
0.07390704 0.06163471 -0.0064080763 -0.0060045314 -0.03499021 0.036474664 -0.052992284 0.086253576
-0.024268558 0.020612516 -0.019068204 -0.033498317 -0.013332144 -0.029094782 -0.012613591 -0.008533901
0.05567937 -0.010616302 -0.02629117 -0.006446685 0.02424112 0.008324537 0.017667534 -0.009967129
-0.033042833 -0.007854962 -0.023390172 -0.015890239 0.06213765 0.0853975 -0.0036410629 0.015754668
0.012614104 -0.012532482 0.051850405 0.08456024 0.123018086 -0.055053797 -0.013858217 0.032459106
-0.009355516 0.037609097 0.12116785 0.039122973 -0.039236642 -0.024595456 -0.040895056 0.009472758
-0.09192741 3.5740424e-05 -0.08394681 -0.03036506 -0.030514898 -0.012704609 -0.039471053 -0.021922601
0.07720867 -0.0006994641 -0.007429658 0.006331696 0.07680422 0.0635187 -0.025829129 0.018187534
-0.0040062987 -0.0068290206 0.05016168 -0.035282418 0.0250169 -0.042776223 -0.02702633 -0.015499382

sequential_7_1/conv2d_18_1/convolution f4 [32, 3, 3, 1]
00000000: 7b44 3bbb 7fa4 81bc 7bf3 0e3e 9b96 163e
00000010: f982 4dbe 02ae 2d3e e21c 743e 5078 bdbe
00000020: a375 463e 7af9 473e e7c0 a6be dcb2 de3d
00000030: 662b 3bbd e088 ccbc 4ce6 88bc 9fc2 28bd
00000040: 3c53 03be 4328 fd3d 66b9 fd3d 9c26 1bbd
00000050: b6f3 9bbc 8df3 82be 3cd7 b4be e61e 26bd
00000060: cad7 8d3c 4156 3c3e c9be 843e bd84 b5bd
00000070: 8b56 cebd a14a 51be 0b48 ac3e 1e22 763e
00000080: cb8a 7d3e c511 5c3e 48fb a1bd 28fe 32be
00000090: 5af0 2a3e f93e 223e 78fa 213e fa63 3c3e
000000a0: e20b 7abe 94ca 503b ad6e 523d 4afb 88be
000000b0: 33fd 6dbe cafa 943d b3a4 563d c74c f23d
000000c0: 1cdc f53d 30a2 1e3e e06a 5a3d e15c 39be
000000d0: 4a4f 1e3e fd13 cebd 1605 70bd a79c 70be
000000e0: 9a27 acbe 3da8 73be 2037 9dbd 6b4f c23d
000000f0: e90f 503e be6b 623d b1bc b4bd 3f6e b93d
00000100: f170 823e e47b 3ebe 35fb 9c3d b99d abbd
00000110: b161 9c3d 9394 4f3e 82f0 973d 05cc b4bd
00000120: 7b16 863e a707 e3bd e0c5 7f3e 6cfc 703c
00000130: 1fb7 b6bd 2eb0 d9bd 93e6 adbd 8272 91bd
00000140: 12b2 273e bfd8 463e 0e3d efbd 9904 913e
00000150: 5cf1 7a3d 4832 83bd 55a3 81bc 8bdf 11be
00000160: b7ad 46be 91d0 933d 86fe 243e 84f7 49be
00000170: cc91 263e 78d4 543d 0e46 1dbe a0bd 10be
00000180: 662d d5bd f790 2abe 1bb6 333e 3c90 4bbd
00000190: 2fc8 d0bd 789e 0dbd 2780 1cbe d7cb b0be
000001a0: 0fde 643d ee72 8c3d 103d e1bc 8303 c73e
000001b0: fa04 f53d bbb1 f3bd 0cf3 173d 12e7 f5bd
000001c0: ffd2 27be 4e0e 623e e6a0 c73d 504d a5bd
000001d0: 47fa 69be 8f3f c7bd 12f7 213d 4b9e 69bd
000001e0: 3911 a53d 167b c73c 3300 733e caf7 aa3e
000001f0: 05fd 183d 1fed 28be 4c9c 793e 3b10 6bbe
00000200: 942d d4bd a2c4 223e 0f85 403e 81c7 313e
00000210: 59b6 b73d 03c7 573d 5f14 4a3d 477e 8dbd
00000220: 24ee 033e 37bc 343e 9fda 003d da95 abbd
00000230: 3f80 21be 328d 453d fac3 d3be ef6a d63e
00000240: 1d04 1a3e 5cd6 673c 3c5f 0c3d 0daa 35be
00000250: f11c ccbd 884c 06be d00f 80be b67a 763d
00000260: c1cb b83e 84be 38bd ec7c 9f3d a4f3 753d
00000270: ff60 cb3d a314 5b3e f4f0 c63c 08d7 21be
00000280: 4a94 2dbe e8b3 743e 4e92 2c3e 0103 ea3d
00000290: 43d3 b8bd a215 043e 0be8 ed3d bd8b 053e
000002a0: 5fc3 87be 14ab 9abd 545b 66be b850 8a3d
000002b0: d2cd 053e 8b4e c4bd 85bf 8d3c 5228 633e
000002c0: 5766 d13b a142 22be 7f83 163e 955e 86bd
000002d0: d1bf 3cbe 4e4e 713d 54b3 adbd d461 5dbb
000002e0: a640 81be 813d 7abe 3cbb 853d b1d7 963e
000002f0: f927 633e ebad d03d 5cac 113d 884f a3bd
00000300: 2555 0dbe ca81 cbbd e0f9 c53d fe71 af3e
00000310: 0781 75be 6ab9 943e 409f 9b3e 3ac2 533e
00000320: a9e8 8ebc 006f 58be 48aa 6d3c c214 86be
00000330: 7389 83be ff2a bc3d e546 a53e 49a8 7bbe
00000340: 3306 2f3e 4e34 6bbd 6ec0 cf3c 4885 6abd
00000350: 32b5 893e 5e1d f4bd 89c0 f13d 6651 81bc
00000360: 88fd b8bd cc66 e63c e908 d6bc 244f b9bc
00000370: 479c 81be b904 2b3d f01d c03e 03b1 8bbe
00000380: f100 a03e 42b9 6e3e 9b7d 4e3e 385e 1cbe
00000390: b495 86bd 1188 943c 3581 39be def9 8dbe
000003a0: beea 593e a6ab 763c 5b92 01be e51d 53bc
000003b0: aebe d7bc 1780 23be e6dd 83be 3e3f 87be
000003c0: 6396 303e d17a 053e 3ff6 923e 135a 83be
000003d0: 6d65 c9be 7dde 96be 461b 21bd 61cd 48be
000003e0: 6cff aebd 4584 fb3d 30fe f4bd f064 65bc
000003f0: 54cd 6e3e 0e23 afbe 7bd0 613d 2833 43be
-0.0028574753 -0.015825508 0.13960068 0.14705889 -0.20069493 0.1696091 0.23839143 -0.37005854
0.19380812 0.19528762 -0.32569048 0.108739585 -0.045695685 -0.02496761 -0.016711377 -0.04120123
-0.1282472 0.12361195 0.123888776 -0.037878618 -0.019037109 -0.2557644 -0.3532046 -0.04055681
0.01731481 0.18392278 0.25926808 -0.088632084 -0.100751005 -0.20438625 0.33648714 0.24036452
0.24759977 0.21491154 -0.07909256 -0.17479765 0.1669325 0.15844335 0.15818202 0.18397513
-0.24418595 0.0031859027 0.05137508 -0.26754218 -0.23241119 0.07274397 0.052403163 0.1183105
0.12004873 0.15491557 0.05332458 -0.18101837 0.15459934 -0.10062406 -0.0585986 -0.23497258
-0.33623964 -0.23794647 -0.0767653 0.09487804 0.20318569 0.055278532 -0.088250525 0.09054231
0.25476792 -0.18601948 0.076651014 -0.083796926 0.07635821 0.2027152 0.0741892 -0.08827976
0.26189026 -0.11085444 0.24977827 0.01470862 -0.08921646 -0.10629307 -0.08491244 -0.07101919
0.16376522 0.1941862 -0.11681567 0.2832382 0.061265334 -0.06406075 -0.015824953 -0.14245431
-0.19402204 0.07217515 0.16112718 -0.19723326 0.16266555 0.05196044 -0.15358755 -0.14134836
-0.1040905 -0.16656862 0.17549936 -0.0496981 -0.10194432 -0.034574956 -0.15283261 -0.34530517
0.055875834 0.068578586 -0.027494937 0.38869867 0.1196384 -0.11899134 0.037097022 -0.12006964
-0.16389082 0.2207577 0.09747486 -0.08071387 -0.2284938 -0.0972892 0.039542265 -0.057035726
0.080599256 0.024350684 0.23730545 0.33392173 0.037350673 -0.16496705 0.24376029 -0.2295541
-0.10360256 0.15895322 0.18800758 0.17361261 0.08970327 0.052680027 0.049335834 -0.06908851
0.12883812 0.17649923 0.031458493 -0.08378191 -0.15771578 0.048230357 -0.41360456 0.4187846
0.15040632 0.014150228 0.03427051 -0.1774065 -0.09966458 -0.13115132 -0.25012064 0.06017562
0.36092952 -0.045103565 0.07787499 0.060046807 0.0993061 0.21394591 0.024284817 -0.15804684
-0.16951099 0.23896754 0.16852686 0.11426354 -0.0902467 0.12898877 0.11616524 0.13041587
-0.26516244 -0.07552162 -0.22495776 0.06753677 0.13066795 -0.095852934 0.017303238 0.2218335
0.0063903737 -0.1584573 0.146986 -0.06561009 -0.18432547 0.058912568 -0.0848147 -0.0033780234
-0.25244635 -0.24437524 0.06529853 0.29461434 0.22183217 0.10189422 0.035564765 -0.07974154
-0.13802011 -0.09936865 0.096668005 0.34266657 -0.23975001 0.2904771 0.30394936 0.2067956
-0.017444925 -0.21136093 0.01450593 -0.26187712 -0.25690803 0.09187888 0.3228065 -0.24575914
0.17092209 -0.05742293 0.025360312 -0.057256013 0.26896054 -0.11919664 0.11804301 -0.015785884
-0.09032732 0.02812519 -0.026127296 -0.022620745 -0.25314543 0.04175255 0.3752284 -0.27283487
0.31250718 0.23312858 0.20165102 -0.15270317 -0.06571522 0.018131288 -0.18115695 -0.27729696
0.21280953 0.015055573 -0.12653486 -0.012885545 -0.02633604 -0.15966831 -0.25755233 -0.26415437
0.17244868 0.13035132 0.28703496 -0.2565466 -0.39335194 -0.2946662 -0.03933265 -0.19609596
-0.085448116 0.12281088 -0.11962545 -0.014001116 0.23320514 -0.34206432 0.055130463 -0.19062483

sequential_7_1/conv2d_18_1/Relu;sequential_7_1/conv2d_18_1/BiasAdd;sequential_7_1/conv2d_18_1/convolution; f4 [32]
00000000: 944d 0dbe 61d6 c33d 5f73 f73b a8aa 42be
00000010: 4611 683c 15db 23be 557d 023e d4ae 53be
00000020: 7f03 c9bd 1424 e2bc c9ae f13d 8ea9 4bbb
00000030: caee dc3d 3d90 7bbe 785e 81be 4276 1dbd
00000040: 8128 cfbd 1b9a 2cbe d76b ad3c a245 1ebe
00000050: 4692 823c aa32 23be b2f3 aabd 65b6 37bd
00000060: e2be e8bc df92 54bd b298 6d3d d091 833e
00000070: d29b 7a3d 9090 d83c 5e0c 4bbd 177d 11be
-0.13799125 0.09562374 0.007551595 -0.19010413 0.014164275 -0.16001542 0.12743123 -0.2067216
-0.0981512 -0.027605094 0.11800916 -0.0031076404 0.10787733 -0.24566741 -0.25267386 -0.038442858
-0.101151474 -0.16855662 0.021169586 -0.1545625 0.01593889 -0.15937296 -0.083472624 -0.04485168
-0.028411333 -0.05189788 0.05800695 0.25697184 0.061183758 0.02643612 -0.04957234 -0.14207874
