assets/models/Standing_Hip_Circle_model.tflite (tflite, 570996 bytes, 7 tensors)

arith.constant f4 [64]
000000 2a 7e 59 3c da a3 e2 3b 60 6a 27 3c 9f c7 7b 3c
       0.013274709 0.0069165053 0.010218233 0.015367418
000010 c3 9f 98 bb 87 84 0c 3c 61 86 8e ba e9 61 4e b0
       -0.004657717 0.008576519 -0.0010873788 -7.50815e-10
000020 86 87 95 3c 7f 1c 7b 3c b9 a6 93 3c 00 00 00 00
       0.0182531 0.015326618 0.018023835 0.0
000030 91 ca 70 3b 00 00 00 00 70 bf 96 3c f0 14 bf 3b
       0.0036741833 0.0 0.018401831 0.0058313534
000040 f9 f9 c6 bb 00 00 00 00 0a 6a 90 3c 59 cb 8b 3c
       -0.0060722795 0.0 0.017628688 0.017064737
000050 a8 11 73 3c b9 84 b9 bb e2 9d 0e 3c c8 b6 91 3c
       0.014835753 -0.0056615737 0.008704634 0.017787352
000060 4e df c9 3b ca 88 93 bb f5 90 c4 3a 00 00 00 00
       0.006160653 -0.0045023905 0.0014996814 0.0
000070 95 14 e6 3b ab 83 93 3c 1c 49 92 bb d4 5a 97 3c
       0.0070214965 0.01800712 -0.0044642817 0.018475927
000080 54 05 ce 3b 53 cc 64 3c 08 92 8e 3c 72 6a c4 bb
       0.0062872563 0.01396473 0.017403618 -0.0059941346
000090 00 00 00 00 00 00 00 00 4e a3 8e 3c d7 fa 91 3c
       0.0 0.0 0.017411854 0.017819805
0000a0 b7 a5 94 3c 91 21 98 3c d4 59 95 3c 95 dc 92 3c
       0.018145425 0.018570693 0.01823131 0.017927447
0000b0 7d 6b 8e 3c 53 0d 93 3c 28 5a c4 bb 3a 63 8d 3c
       0.017385239 0.01795069 -0.005992193 0.017259229
0000c0 0c 59 7b 3c da 65 6e 3c 88 3a 91 3c 69 24 90 3c
       0.015341055 0.0145506505 0.017728105 0.017595487
0000d0 70 42 a1 3c 0c e8 29 3b 90 00 83 3c 3c 0c 2b bc
       0.019685 0.0025925664 0.01599148 -0.010439929
0000e0 61 9d d2 bb 26 8a 96 3c 6e c1 0d 3c 49 80 78 3c
       -0.0064274524 0.018376421 0.008652074 0.015167304
0000f0 b0 4d 81 3c 00 00 00 00 50 e4 75 3c 29 fb 8e 3c
       0.015784115 0.0 0.015008047 0.017453747

arith.constant1 f4 [64, 3, 3, 32]
000000 58 02 55 3d 3b d7 b0 3c dc 62 02 3d a7 07 13 3d
       0.05200419 0.021587005 0.03183256 0.03589597
000010 8d 26 41 3d b1 b2 8a 3d 89 19 9f bd 00 c6 82 bd
       0.047155906 0.06772364 -0.07768542 -0.06385422
000020 7a aa 1d 3d cb 9a 69 bb a3 4b af bd c0 06 1c bd
       0.038492657 -0.0035645242 -0.085593484 -0.038092375
000030 df 65 86 bd 84 87 2a bd fa 21 1d bd 06 1f 51 3d
       -0.06562399 -0.041633144 -0.03836248 0.051054977
000040 89 c0 d5 bc ec 3d 30 3d dd 7a 11 bd 42 3b 73 bd
       -0.026092784 0.043027803 -0.035517562 -0.059382685
000050 2d 2f 0d bc ff 04 80 bc 65 30 a7 3c 0e d4 96 bc
       -0.008617205 -0.015627382 0.020408818 -0.018411662
000060 bf 84 8e 3d 0a 7b 8e bd ef 67 c0 3c 00 bd 9d bc
       0.06958913 -0.069570616 0.02348706 -0.019255161
000070 06 9a 7a bd b9 32 22 bc 9b 69 3d 3d f1 4c 58 3d
       -0.061182044 -0.009899789 0.04624329 0.052807752
000080 15 11 38 3d 0c 2e 37 3d 0f 9e f2 bc 58 dc 2f 3d
       0.044938166 0.044721648 -0.029616384 0.042934746
000090 10 fe ed 3c 25 b7 84 3b 54 16 56 bd 0d 6a 75 bc
       0.02905181 0.004050153 -0.052267388 -0.014978898
0000a0 df 4b c0 3d f3 b2 ba 3d 20 4e a4 3d 7a 87 22 3c
       0.09389471 0.09116163 0.08022714 0.009919995
0000b0 ae 49 87 bc b4 63 61 bd b8 10 a7 3d fb 12 a8 bd
       -0.016514625 -0.055026725 0.08157486 -0.08206745
0000c0 c5 5c f8 3a 1b 46 5d bd e0 1a ad 3d 12 41 93 3d
       0.0018948546 -0.054021936 0.084523916 0.071901456
0000d0 73 ca 51 bd f8 a6 eb bc 1b ff 15 bc f4 67 50 bd
       -0.05121846 -0.02876614 -0.00915506 -0.050880387
0000e0 d4 4f c3 3d 78 68 27 3d 56 9b d1 bc d1 18 9a 3d
       0.095367104 0.040871114 -0.025586765 0.075242646
0000f0 48 6f 1e bc fa 8e 40 bc 6d 8c 80 bd e1 65 c7 bc
       -0.009670086 -0.011752838 -0.06276784 -0.024340572
000100 83 55 94 bc d1 4b 52 bd b0 af 9f 3b 35 ae 82 bd
       -0.018107181 -0.051341835 0.0048732385 -0.063808836
000110 86 3e fc bb 77 53 a3 3c a9 0d 83 3d ad 24 ba 3c
       -0.007697883 0.01993726 0.0639909 0.022722567
000120 29 23 79 3c c1 a1 d7 3c d1 e9 19 bd 6d 28 97 bd
       0.015206137 0.026322247 -0.0375765 -0.073807575
000130 ce 7f 6a bd c0 b8 83 3a 64 37 9d bd eb cd 12 bd
       -0.05725079 0.0010049567 -0.076765805 -0.03584091
000140 8b 0a 81 3d 3d 36 8d bd 81 81 c2 3d 9a 8d 05 3d
       0.06300839 -0.06895111 0.09497357 0.032605745
000150 1f 61 1f bd 3a 14 bc 3d 6c 46 c1 3c 93 94 a9 3b
       -0.03891098 0.091835454 0.02359315 0.005175182
000160 c0 ea 4c 3d 37 b0 e8 3c bd 41 db 3b 96 05 63 bd
       0.050028563 0.028404338 0.006691186 -0.05542525
000170 93 fd e5 bc ed 98 6c bd ff 05 b9 bb 02 b1 eb 3b
       -0.028075015 -0.05776303 -0.0056464667 0.007192732
000180 4f 4c 9c bb 16 d4 7b 3a 54 52 f9 3c 82 c5 52 bc
       -0.004769839 0.00096064934 0.030434765 -0.012864472
000190 4d 0e fb 3c e0 e3 73 3c a6 82 1e 3d fe 3c 9e bd
       0.030646468 0.014885873 0.038698815 -0.07726477
0001a0 76 5d a3 bd 3c a0 33 3d 22 59 bc bd 6b 5a 60 bd
       -0.07976811 0.043853983 -0.09196688 -0.05477373
0001b0 04 c8 9a 3d 0d 0e 9a 3d 80 c7 58 3d 5e 64 a6 bd
       0.07557681 0.07522211 0.052924633 -0.08124612
0001c0 ab fb 3d bc 1b 14 4a 3d 67 d4 14 3d 55 b9 9a 3a
       -0.011595647 0.04933558 0.036335375 0.0011804501
0001d0 74 88 69 bc 53 78 6e 3c 02 3d 52 bd 6a 9f 4b bd
       -0.014253724 0.014555055 -0.051327713 -0.049712576
0001e0 06 d7 a8 bd c6 67 61 bd 1d b6 6c 39 bc 75 95 3d
       -0.082441375 -0.055030607 0.00022574556 0.07297847
0001f0 c7 93 3c bc 9c e5 29 3d 1d 95 0e bd c6 09 81 3c
       -0.011509842 0.04147874 -0.034810174 0.01575173
000200 44 ef 6c bc 38 65 b4 3c 3e 89 52 3c 9a 54 4c bd
       -0.014461342 0.022020921 0.012850104 -0.04988537
000210 b2 7f e6 3b 13 b1 ce bc a1 3f 11 bd 72 9b 98 3d
       0.0070342654 -0.02523092 -0.035461072 0.07451524
000220 d2 59 b3 3c e7 76 e9 3c 2d 43 b3 3d 05 08 1f bd
       0.021893416 0.02849908 0.08753047 -0.038826007
000230 f4 1b 82 3d f8 a4 84 bc c9 63 00 bb 86 8c 13 bd
       0.06352988 -0.016191944 -0.0019590727 -0.036022685
000240 65 26 3a 3d f8 ff e7 bc 33 26 21 3d 18 78 89 3d
       0.045446772 -0.028320298 0.03934307 0.06712359
000250 da db ca 3d e7 ef 46 3d 1b 0f 10 bb cf f2 47 39
       0.099052146 0.048568632 -0.002198166 0.00019068572
000260 ef 9f 9f 3d 19 35 b8 3d fd f0 4c 3d cc 77 62 bd
       0.07794177 0.089945026 0.05003451 -0.05529003
000270 47 d9 3e bd e3 95 9c 3d f7 82 00 3c dd 5d 68 3d
       -0.04659393 0.07645776 0.007843724 0.05673014
000280 94 d3 2b bc bf 24 2d 3d 16 bb a6 3c 23 d8 49 bd
       -0.010487456 0.042271372 0.020352881 -0.04927839
000290 ba 08 7c 3c 74 83 8c 3d 79 c5 e1 3c 46 32 0f 3d
       0.01538294 0.0686101 0.027559983 0.034960054
0002a0 c5 d2 92 bd 31 f2 9a 3d f8 38 04 3d 82 02 5f bd
       -0.07169107 0.075657256 0.032280892 -0.05444575
0002b0 aa b1 6c bd 65 a4 89 bd 64 f8 c1 bc 40 2b 16 3c
       -0.05778662 -0.06720809 -0.023678012 0.009165585
0002c0 a0 91 0e bd 02 97 0e bd 01 10 a4 3d ad 6f 8e 3d
       -0.034806848 -0.03481198 0.08010865 0.06954894
0002d0 65 70 7e 3c 93 f0 1e 3d ec 05 c4 3c c5 65 a0 3b
       0.015529727 0.03880365 0.023928605 0.0048949444
0002e0 3d fe 50 3d 83 17 65 bd 05 a0 5f bd 21 c9 89 3d
       0.05102371 -0.055930626 -0.054595966 0.067278154
0002f0 fc 43 64 3c 32 e9 68 bd 44 f9 87 3d 2e 41 90 3d
       0.013932224 -0.056863017 0.066393405 0.07043682
000300 d3 ea 4e 3d 78 52 85 3c d8 16 2a 3c 43 bb bb bd
       0.050516915 0.016274676 0.010381423 -0.09166577
000310 47 d7 65 3d 62 bd 09 3c 3b f4 1c 3d fb 52 85 3d
       0.056113508 0.008406969 0.038318854 0.06509968
000320 48 ca 81 3d 0a 0f 30 3d 66 e2 6e 3d f0 fc 2e bd
       0.0633741 0.042983092 0.05832138 -0.04272169
000330 33 7f 68 bd d8 38 16 3b 63 8f 82 3d d8 0f 16 3c
       -0.05676193 0.0022922065 0.06375005 0.009159051
000340 84 4d 5e 3d 62 c6 0a bd 18 65 a3 3d 3b d7 3c bb
       0.054273143 -0.0338806 0.079782665 -0.002881481
000350 91 24 21 bd 1c 44 ae bd 88 bb 47 3c 6e 72 a8 bc
       -0.039341513 -0.085090846 0.012190707 -0.020562377
000360 76 19 8a bd 69 50 46 bc 76 1e 0a 3d ab 31 89 bd
       -0.067431375 -0.012104132 0.033720456 -0.066989265
000370 7a f0 98 bd 38 2e 93 bd d1 42 b6 3c 1e fc 86 bc
       -0.07467742 -0.0718655 0.022248657 -0.01647764
000380 de 5b 85 3b 53 c1 68 bd 8e 32 91 bd 3e 8f 7f bd
       0.0040697893 -0.056824993 -0.07089721 -0.062392466
000390 d3 4d 8f 3d 29 68 2d 3d 2b 87 80 3d 51 a7 e1 3c
       0.06997266 0.042335663 0.06275781 0.027545603
0003a0 f4 18 6e bd c3 d7 84 3d 82 87 3a 3d 59 f8 5a 3d
       -0.058129266 0.06486466 0.045539387 0.0534595
0003b0 4d f6 00 3a 04 aa 87 3d 84 7e 78 3d 60 c2 f3 3c
       0.0004919514 0.06624225 0.06066753 0.029755771
0003c0 c8 47 c7 bc 6b 4e 9c 3d d0 35 3f bd ee 35 6e 3d
       -0.02432622 0.076321445 -0.04668218 0.0581569
0003d0 f6 ad 8c 3d 33 91 a4 3d 2a 6e 3b 3d f6 19 b6 3d
       0.06869118 0.08035507 0.045759358 0.088916704
0003e0 f2 5e b1 3c d5 5f 95 3d 6d ea b0 3c 0d 29 ba 3c
       0.021651719 0.07293669 0.021596158 0.022724653
0003f0 15 29 98 3d 79 4d c6 3d 84 21 bb bb 6e 66 81 3d
       0.07429711 0.096827455 -0.0057107825 0.06318365

arith.constant2 f4 [1, 128]
000000 74 37 32 be b2 e7 87 bc 13 41 bf bc 74 3d 3c 3e
       -0.17403966 -0.016589973 -0.02334646 0.18382818
000010 04 62 a7 3d 5a 1f 4d bd 5f 4f be bd a6 14 28 be
       0.08172992 -0.050078727 -0.092924826 -0.16414127
000020 4d 07 c9 3c d3 5e 30 3e b2 36 cd bd 4a 73 58 3e
       0.024539614 0.17223673 -0.10020198 0.2113773
000030 77 bf d0 bd 2b 72 05 be 5d a6 3a bd a8 ca 30 3e
       -0.10192769 -0.13031833 -0.045568813 0.17264807
000040 f0 d1 dc 3c 64 ff d5 bd 90 2d 2c 3d d0 f5 a7 bd
       0.026955575 -0.104491025 0.04203564 -0.08201182
000050 3f e2 06 3e bc fd 24 be 9b e3 3c 3d c4 47 50 be
       0.13172244 -0.16112417 0.0461155 -0.20339876
000060 ad f0 4b bd b8 7e 64 3e 38 4f a5 3d 90 68 cf bd
       -0.049790073 0.22313964 0.080717504 -0.101273656
000070 2c cd 1f 3e bc dd e6 3d d2 7d 65 3e 08 bf 89 bc
       0.1560561 0.11272761 0.22411278 -0.016814724
000080 0d 26 56 3e 3d 4d 1c 3d ee 04 15 3e 10 d7 2c be
       0.20912953 0.038159598 0.14552662 -0.16878915
000090 a0 20 6c bd 55 36 56 bd 89 04 f5 bd 00 f8 b5 b9
       -0.0576483 -0.05229791 -0.11963756 -0.00034707785
0000a0 35 5e a8 bd 7f 72 34 be f2 87 f5 3d 8f 92 35 be
       -0.082210936 -0.17621802 0.1198882 -0.17731689
0000b0 d2 ca 23 bd bc 1a b5 3d 8b 07 21 3e d8 b7 4e 3d
       -0.039988346 0.0884299 0.15725534 0.050468296
0000c0 d2 a7 52 3d 17 00 40 3d 0d 63 38 3e b8 b1 95 3d
       0.051429577 0.046875086 0.18006535 0.07309288
0000d0 87 e5 81 bc 12 3a 45 3c b7 09 16 be 63 7c 95 3c
       -0.015856517 0.012037771 -0.14652143 0.018247789
0000e0 18 98 82 bd ac f0 04 3d 9d 45 0d 3e c8 ee d7 3d
       -0.06376666 0.032456085 0.13796087 0.10543591
0000f0 d5 85 d7 bd d7 2a 0d 3e 35 39 16 3d 50 45 73 bd
       -0.10523573 0.13785873 0.03667565 -0.059392273
000100 63 54 96 3c 71 b4 bd 3d 8a aa f4 bd bf 55 89 3d
       0.018350786 0.09262932 -0.1194659 0.06705808
000110 f7 9c bd 3d b4 3b d2 bc ba 15 87 bd d2 11 0c be
       0.09258454 -0.025663234 -0.06595941 -0.13678673
000120 48 4c 94 bd 42 85 89 3d ef 4f 2f 3e 78 8c 1c be
       -0.07241112 0.0671487 0.17120336 -0.1528796
000130 fa c9 59 3e 9c bc 39 3e f9 5d ba bd 4a e9 89 bd
       0.21268454 0.18138355 -0.09099955 -0.067339495
000140 91 ec 09 3e cc e8 09 be 00 18 84 3d df d4 37 be
       0.13469149 -0.13467711 0.0644989 -0.17952298
000150 00 a5 60 bd 65 10 02 3d 9b 42 9a 3d 74 e1 f1 3d
       -0.054844856 0.031753916 0.07532235 0.1181058
000160 b7 70 27 3e b6 f4 2d be ab 29 1d 3e 34 99 8d bd
       0.16351591 -0.16987881 0.15347926 -0.06913987
000170 ca 9a 6e 3e 18 45 1c 3e 1b a4 32 3e 85 b2 dd 3d
       0.23301235 0.15260732 0.17445414 0.108250655
000180 b8 a4 2b bd 63 09 81 3d 5f 8d f5 3d d4 42 d3 3d
       -0.041905135 0.063006185 0.11989855 0.10315481
000190 9c 4f be 3d ac 43 16 be d3 98 c2 3d c9 7e b0 bd
       0.09292528 -0.14674252 0.09501805 -0.08617932
0001a0 10 87 70 3d 79 99 46 3e a2 a2 5e bd 66 8a 6c 3e
       0.058722556 0.19394483 -0.054354317 0.2309967
0001b0 c2 fd 5a 3e 99 85 cb 3c f6 4b 46 3e 0c 66 3b 3d
       0.21385863 0.024843978 0.19364914 0.045751616
0001c0 f9 4b a4 3d ad fd 3d be eb ba 4a be df 0f 7a bd
       0.08022303 -0.18553801 -0.19797866 -0.061050292
0001d0 1a 15 1a be 2f c8 f0 3d bd 8b cb bd 1a b1 ba 3d
       -0.15047112 0.11756932 -0.09938762 0.09115811
0001e0 9f 52 19 be 6c d5 82 3d 87 9b a8 3d 80 5e 3d 3e
       -0.14972924 0.06388363 0.082327895 0.1849308
0001f0 75 1a ea bd a4 6e 53 3d 94 c8 3e be fc d1 37 be
       -0.114308275 0.051619187 -0.18631202 -0.17951196

arith.constant3 f4 [128, 960]
000000 f0 6a 10 bc 7a 44 40 bd 06 b6 8f 3d 40 f6 be 3c
       -0.008814558 -0.046940304 0.0701714 0.02331078
000010 44 7b 68 3d 30 c8 97 3b af ad 8d bd a4 8b ef bc
       0.05675818 0.0046320185 -0.06917893 -0.02924139
000020 90 f0 93 bb 00 3e 98 3b 08 10 40 bd 8e 5d 91 bc
       -0.0045147613 0.004646063 -0.04689029 -0.017744806
000030 f8 69 54 3c 82 03 4e 3d 54 44 6f 3d 60 a6 e0 3c
       0.012964718 0.050296314 0.058414772 0.027423084
000040 c0 01 03 bb 86 2c 2d bd a0 6c 33 bd a4 d1 52 bd
       -0.0019990057 -0.04227879 -0.043804765 -0.05146946
000050 be f2 27 3d 5b 0e 97 bd 64 9d aa bc 86 cf 86 3d
       0.04100298 -0.07375785 -0.020827003 0.06582551
000060 38 b8 70 3c 6a 8f 87 bd 7f c9 26 bd 4e d4 26 3d
       0.014692359 -0.06619151 -0.040719505 0.040729813
000070 18 d9 b4 3c 1c 00 1f 3d 44 a2 84 3d 00 2f af bb
       0.022076175 0.038818464 0.06476262 -0.005346179
000080 40 ff 64 bd 78 df 89 3d f0 fe f4 3c 20 c5 57 3b
       -0.055907488 0.067320764 0.02990672 0.0032923892
000090 90 0e 3f 3c 10 a1 81 3d 58 75 95 3d dc 7a 59 3d
       0.011661187 0.06329548 0.07297772 0.053095683
0000a0 e8 66 19 bd e4 d8 5b 3d c4 63 20 3d f8 2f 1b bc
       -0.037451655 0.05367364 0.039157644 -0.009471886
0000b0 dc d4 11 bd c2 88 b2 bc ba 82 94 3d 1f 6d 82 bd
       -0.03560339 -0.021793727 0.072514966 -0.063684694
0000c0 ee b1 58 bd a2 74 4c 3d 2e 3b 1f 3d 4c c3 a2 3c
       -0.052904062 0.049915917 0.038874798 0.019868515
0000d0 d0 4d f5 3b 20 62 85 bb 9e 00 87 3d 04 04 83 3c
       0.0074860826 -0.0040705353 0.065919146 0.015993126
0000e0 8c cb 7f 3d 3c 17 cc 3c d0 bc 66 bd e8 4b b5 bc
       0.062449977 0.024913423 -0.05633241 -0.022130921
0000f0 60 29 e8 3b f4 e6 79 bc 50 27 96 bb 4a db 4e 3d
       0.0070850104 -0.015252817 -0.004582323 0.0505021
000100 80 a9 96 3d 98 2c 16 3c 18 9a b7 3c 00 06 e5 3b
       0.07356548 0.009165905 0.022412345 0.0069892406
000110 d0 ac 94 3d 61 5f 1b bd 70 3b 08 3c 8a 19 93 bd
       0.07259524 -0.037932757 0.008314952 -0.071826056
000120 a8 08 f0 bc 38 b5 1d 3c 08 c7 6b 3d 58 75 95 bd
       -0.029301003 0.009625725 0.057562858 -0.07297772
000130 5a bf d8 bc ff 62 97 bd f0 63 9d 3c bd df 84 bd
       -0.026458431 -0.07391929 0.019212693 -0.06487987
000140 68 b2 42 3c 52 1b 00 3d 76 d1 92 3d 0e 38 81 3d
       0.011883356 0.031276055 0.07168858 0.0630952
000150 68 b4 2c bd 70 0e 85 3c 3c 33 a8 3c 75 b6 78 bd
       -0.042164236 0.016242236 0.020532243 -0.06072088
000160 ef 36 48 bd 20 a2 89 3c 62 3e c1 bc 12 93 f2 bc
       -0.048880514 0.01680094 -0.023589317 -0.029611144
000170 66 27 13 bd dc ac 09 bd 63 fa 7d bd e8 30 18 3c
       -0.035926245 -0.033612117 -0.062006366 0.009289004
000180 0e dd 28 3d a2 66 46 3d b2 90 72 bd be 8a b8 bc
       0.04122644 0.048437722 -0.059220023 -0.022527095
000190 98 f0 88 3d c4 fb 6c bd f4 f1 6a 3d 9e ab 2e bd
       0.066865146 -0.05785729 0.05735965 -0.042644136
0001a0 00 bc 5c bc b9 06 13 bd c0 e3 12 3b b0 d7 6d 3c
       -0.013472557 -0.035895083 0.0022413582 0.014516756
0001b0 00 f3 93 3c 0a e2 96 bc a0 45 5a bb fa 0e 24 3d
       0.018060207 -0.01841833 -0.003330566 0.040053345
0001c0 28 6a 27 3c 60 12 24 3b 90 63 34 3d 3c 69 60 3d
       0.010218181 0.0025035366 0.044040263 0.05478786
0001d0 2a 5b 7a bd 80 ef 65 3b e4 89 d6 3c 68 66 68 3d
       -0.061122097 0.003508538 0.026188798 0.056738287
0001e0 9e 11 9f bc f2 ba 80 3d c2 ea 83 bd 10 c3 89 3c
       -0.01941758 0.06285657 -0.06441261 0.016816646
0001f0 67 cb 96 bd 96 75 4e 3d 60 da 89 3b a1 a0 08 bd
       -0.07363015 0.050405107 0.0042069405 -0.033356313
000200 10 c0 7d 3d c8 cc 9e 3c f2 38 e5 bc f0 a6 9e bc
       0.061950743 0.019384757 -0.027981255 -0.019366711
000210 f8 4c 34 3d 20 94 d4 3b c0 62 e4 3a 2e 14 4d bd
       0.044018716 0.0064873844 0.0017424449 -0.050068073
000220 e8 ca 76 3d 24 b1 f4 bc 4c 78 ef 3c a0 bd 84 bd
       0.0602521 -0.029869623 0.029232167 -0.064814806
000230 88 fd 09 3c 3a 1f 23 3d 4c b5 85 3d 80 78 3a 3d
       0.008422263 0.0398247 0.0652872 0.045525074
000240 24 37 f0 3c 80 f3 e0 ba 88 9e 3d 3c e4 8e da bc
       0.029323168 -0.0017162412 0.011573441 -0.026679464
000250 08 f9 57 3d 98 7d 19 3d fe d1 42 3d 90 bc 34 3d
       0.05272773 0.03747329 0.047563545 0.04412514
000260 6a 65 2a 3d 96 76 2a 3d 6a 44 a7 bc a8 4f 63 3c
       0.041600622 0.041617 -0.020418365 0.013873972
000270 d0 09 9c bc e8 54 37 3c 90 a0 f5 bb 68 96 2a 3d
       -0.019047648 0.011189677 -0.007495947 0.041647345
000280 a0 f6 75 3c 18 3c 6e 3c f8 67 9c 3c f2 c9 79 bd
       0.015012413 0.014540695 0.019092545 -0.060983606
000290 40 7b 6a 3b 92 0b 42 bd ac a8 85 3c f0 84 27 bc
       0.003577903 -0.047374316 0.01631578 -0.010224566
0002a0 1a 66 10 bd 5d 09 5b bd 14 b6 73 3d cc 07 81 3d
       -0.03525362 -0.053475726 0.059499815 0.06300315
0002b0 ce c0 37 bd de fa 82 3d 0a e5 1e 3d 4c 45 54 bd
       -0.044861607 0.06395505 0.038792647 -0.0518239
0002c0 16 cb 62 bd 58 20 7c 3d 6a 8b 85 3d e0 c3 9f 3b
       -0.05536946 0.061554283 0.06520732 0.004875645
0002d0 88 d8 39 3c 18 18 41 3c 1a ed 46 bd 98 21 55 bd
       0.011343129 0.01178553 -0.04856596 -0.05203399
0002e0 fc 6b 57 bc 0f 17 81 bd 68 f0 5f 3d e6 d6 4b bd
       -0.013148304 -0.06303226 0.05467263 -0.04976549
0002f0 10 6d 19 bc 20 94 c8 3b 84 dd 44 3d 48 8b 93 3d
       -0.009364381 0.0061211735 0.048062816 0.072043
000300 44 bf 92 3d b8 a0 10 3c 90 ec b6 3b 98 cc 6a 3d
       0.07165387 0.008827381 0.0055823997 0.057324022
000310 04 57 95 3d 28 17 58 bc 70 ef b3 3c 1a 2f 91 3d
       0.072919875 -0.013189115 0.021964759 0.07089062
000320 3a 03 73 bd 28 73 0b bc e0 b7 4e 3b f8 2f f2 3c
       -0.05932925 -0.008511342 0.0031542704 0.029563889
000330 4f 95 31 bd 54 76 93 3d 3c 46 d8 bc 16 e9 78 bd
       -0.043355282 0.07200304 -0.026400678 -0.060769163
000340 1a fc 56 bd c8 73 0d 3c ac 44 ac 3c 50 dc 08 3c
       -0.052486517 0.008633561 0.021028839 0.008353308
000350 86 d0 8a 3d 68 de 97 bd e2 c2 1d 3d 04 f8 f6 3c
       0.06778054 -0.074154675 0.038515933 0.03014756
000360 de c5 b9 bc dc 60 ca 3c b6 e9 d0 bc 82 04 04 bd
       -0.022677358 0.02470439 -0.025502067 -0.03223086
000370 d6 e5 96 3d a2 67 4c 3d 90 9b 0e bc 00 28 c5 b8
       0.073680565 0.04990352 -0.008704081 -9.4011426e-05
000380 70 77 81 3d b0 5d 82 3b 88 12 2d 3c b0 8f 40 bd
       0.06321609 0.0039784536 0.0105635 -0.04701203
000390 96 5b ac bc 14 08 7c bd 40 8e 71 bd 9a c9 8e 3d
       -0.021039765 -0.06153114 -0.05897355 0.06972046
0003a0 a0 0a 47 3d ae 74 0f bd aa 99 84 bd 00 9c 4d 3a
       0.048594117 -0.035023384 -0.064746216 0.0007843375
0003b0 50 45 e0 bb c6 e0 c7 bc d3 61 71 bd 36 f0 29 3d
       -0.0068442 -0.024399173 -0.058931183 0.04148885
0003c0 0c bc 9f 3c d8 75 af bc 04 68 94 3d 7c d5 b8 3c
       0.019498847 -0.021418497 0.07246402 0.022562735
0003d0 1a a3 d1 bc 1d 51 2d bd 34 77 62 3d d0 e9 38 bd
       -0.025590468 -0.042313684 0.055289462 -0.045144856
0003e0 20 3b 8c bb 9f 4c 7c bd 5a 94 44 bd 68 44 26 3d
       -0.004279509 -0.06159651 -0.04799304 0.04059258
0003f0 e1 fa 8f bd c8 a6 6b 3d 20 2d 14 3b 80 d2 4f 3c
       -0.07030273 0.057532102 0.0022609904 0.012684464

arith.constant5 f4 [128]
000000 00 00 00 00 66 a7 0a bc a8 73 c4 bb 00 00 00 00
       0.0 -0.008462762 -0.0059952326 0.0
000010 00 00 00 00 46 41 3f bc 23 89 d5 bb 00 00 00 00
       0.0 -0.011673277 -0.006516592 0.0
000020 5c 8e 8e 3c 5b 69 84 3c 2b 8e 15 bc 00 00 00 00
       0.017401867 0.016163519 -0.009128134 0.0
000030 80 58 40 bc 40 13 b6 bb 67 2c f2 bb 00 00 00 00
       -0.01173985 -0.005556494 -0.007390547 0.0
000040 00 00 00 00 00 00 00 00 00 00 00 00 04 67 24 bc
       0.0 0.0 0.0 -0.010034326
000050 15 f9 7f 3c 00 00 00 00 c9 12 83 3c 15 c8 c4 bb
       0.015623351 0.0 0.016000168 -0.006005297
000060 b6 f3 dd bb cf cd 7f 3c 00 00 00 00 00 00 00 00
       -0.0067734374 0.015613033 0.0 0.0
000070 42 57 84 3c 00 00 00 00 a4 76 1f 3d 00 00 00 00
       0.016154889 0.0 0.038931504 0.0
000080 66 30 80 3c b2 d2 81 3c 00 00 00 00 00 00 00 00
       0.015648078 0.015847538 0.0 0.0
000090 00 00 00 00 6c 6f 06 bc 44 bf c4 bb 00 00 00 00
       0.0 -0.008205276 -0.006004246 0.0
0000a0 ef b1 24 bc bc c2 c4 bb 84 d0 82 3c 25 72 0a bc
       -0.010052188 -0.0060046595 0.015968569 -0.008450066
0000b0 fb bc 2a bc 00 00 00 00 38 b7 80 3c 00 00 00 00
       -0.010421033 0.0 0.015712366 0.0
0000c0 75 33 87 3c ef df 83 3c 2f 39 7f 3c 00 00 00 00
       0.016504029 0.01609799 0.0155775985 0.0
0000d0 26 8f c4 bb 62 04 13 bc e4 4d 3b bc 8b c7 63 3c
       -0.00599851 -0.008973213 -0.011432145 0.013902555
0000e0 00 00 00 00 00 00 00 00 37 5d 76 3c 00 00 00 00
       0.0 0.0 0.015036873 0.0
0000f0 e4 2d a7 bb 7b 52 72 3c 25 67 83 3c 00 00 00 00
       -0.005101906 0.014790173 0.016040394 0.0
000100 4d ac 6a 3c c7 92 82 3c f2 a2 17 bc 5a b9 82 3c
       0.014323306 0.01593913 -0.009255158 0.015957523
000110 df 72 72 3c cb ae c4 bb 8c 86 c4 bb 69 42 04 bc
       0.014797895 -0.0060022823 -0.0059974845 -0.008072474
000120 00 00 00 00 c1 b3 4f 3c 98 7c 7f 3c ca 1b fb bb
       0.0 0.012677134 0.01559367 -0.007663225
000130 53 24 1e 3d 00 00 00 00 18 c2 c4 bb 00 00 00 00
       0.03860886 0.0 -0.006004583 0.0
000140 a2 b4 75 3c 34 bb 1e bc e8 75 84 3c f2 0b b6 bb
       0.0149966795 -0.009688187 0.016169503 -0.005555623
000150 00 00 00 00 e7 5d 81 3c 73 ed 82 3c 6a ac 7a 3c
       0.0 0.015791846 0.015982365 0.015299896
000160 b7 9e 47 3c 00 00 00 00 25 05 74 3c 00 00 00 00
       0.012183837 0.0 0.014893805 0.0
000170 7e 82 79 3c 54 db 80 3c 2a 63 7f 3c a1 2d 56 3c
       0.015228866 0.015729584 0.015587607 0.013072402
000180 00 00 00 00 5d 8f 7d 3c 78 08 80 3c 88 18 7a 3c
       0.0 0.015476075 0.015629038 0.015264638
000190 00 00 00 00 c3 09 a9 bb 2a 5b 84 3c af 7c 08 bc
       0.0 -0.0051586344 0.016156752 -0.008330508
0001a0 00 00 00 00 fc 3e 8a 3c d1 41 24 b8 ef 93 80 3c
       0.0 0.016875736 -3.9161943e-05 0.01569554
0001b0 10 34 7f 3c 87 8e 91 3c 00 00 00 00 86 93 46 3c
       0.0155763775 0.017768158 0.0 0.012120133
0001c0 b8 41 7e 3c 12 42 0a bc 00 00 00 00 f2 fa a8 bb
       0.015518598 -0.008438604 0.0 -0.005156868
0001d0 43 87 e7 bb 04 22 74 3c e0 41 ab bb 52 03 81 3c
       -0.007065685 0.014900688 -0.005226359 0.015748654
0001e0 99 14 ea bb d8 98 81 3c cb 56 7d 3c 2c 70 84 3c
       -0.0071435687 0.015819952 0.015462588 0.016166769
0001f0 ad 63 26 bc 07 fb 72 3c 00 00 00 00 b0 c7 c4 bb
       -0.0101556005 0.014830357 0.0 -0.00600525

sequential_6_1/conv2d_14_1/convolution f4 [32, 3, 3, 1]
000000 a5 62 2f bd 18 1c 39 3d ef 50 7e 3d 5e f9 90 3c
       -0.042818684 0.045192808 0.062088903 0.017697033
000010 56 3e 23 bc 05 1b d1 3d 0d 64 e9 3d 4a c9 5d bd
       -0.0099635925 0.10210232 0.11396036 -0.054147042
000020 17 ae 1e 3e cc 4f b3 3c d7 d1 13 be 0d 6f 3e 3d
       0.15496098 0.021888636 -0.14435516 0.046492625
000030 d6 4b 8d 3d 6a 9f 20 3d 36 f3 a2 bd f6 66 f4 bb
       0.0689923 0.03921453 -0.07956545 -0.007458563
000040 d0 f1 88 3a 5a ac 35 bc 98 69 d9 bd a4 ca 3f 3d
       0.0010448042 -0.011088455 -0.106158435 0.046824113
000050 78 73 ef bd 90 85 f3 3d 54 34 04 be 21 ad dd 3d
       -0.11691946 0.118907094 -0.12910587 0.10824037
000060 cf b2 2c bd 7b 71 a9 bd 93 41 f8 bc 61 15 7f bd
       -0.042162713 -0.08273598 -0.030304706 -0.062276248
000070 ff 68 9c bd 72 14 95 3c 1d 91 1c bd ae 69 d2 bd
       -0.07637214 0.018198226 -0.03822433 -0.10274063
000080 6c 9d bd 3c a2 d5 f7 3d 39 fa c7 3d 37 2b 91 bd
       0.023146354 0.12101294 0.09764523 -0.07088321
000090 e1 d6 c5 3d d0 ef 27 3d da 6b 0f 3e 32 d8 39 3d
       0.096601255 0.041000187 0.14005986 0.045372196
0000a0 24 d5 00 3e f6 f6 47 bd e9 d9 c7 3d 5f eb 7b 3d
       0.12581307 -0.048819505 0.0975836 0.061503764
0000b0 e2 ff e9 3c 3b cc 97 bd 63 b5 b2 3c e1 cd b9 3d
       0.028564397 -0.07412001 0.021815008 0.090724714
0000c0 a1 e7 8b bd 41 02 e2 bd 44 2d 81 3c 24 b4 f9 3d
       -0.06831289 -0.11035586 0.015768655 0.12192562
0000d0 e1 72 29 3d 4c a4 ab bc 1b df a0 bd 67 3e ee 3c
       0.041369323 -0.020952366 -0.07855054 0.02908249
0000e0 b9 89 f8 3d c2 cb 87 3d 45 13 49 bd 4a 44 08 3d
       0.121356435 0.066306606 -0.049090642 0.03326825
0000f0 4b f5 6a bd e3 4a c5 3d 50 76 e2 bd 4c 87 b1 3d
       -0.057362836 0.09633424 -0.110577226 0.08668384
000100 d9 3f 86 bc de 64 dd 3d 92 cc a4 3d 03 91 f4 3d
       -0.016387867 0.108102545 0.08046831 0.11941721
000110 5b c5 ae 3d 52 88 48 bd 02 b4 4f 3d 88 96 b7 bd
       0.08533736 -0.04895813 0.05070878 -0.089642584
000120 9b b1 d0 bc 83 ec 28 bd 8a 5f 55 bd 5b ea dc 3b
       -0.025475314 -0.04124118 -0.052093066 0.0067418045
000130 8d fb 5d bd 18 5f d1 3d d7 ce eb 3d e8 77 a5 bd
       -0.054194976 0.10223216 0.11514061 -0.08079511
000140 31 49 85 3d 57 17 bc 3d d6 72 98 bd e2 0a e6 bc
       0.06508101 0.09184139 -0.07443778 -0.028081361
000150 76 1c 16 3d 10 45 de 3d b6 1d aa 3d 2a b2 a6 bd
       0.036648236 0.108530164 0.08306448 -0.08139451
000160 ae eb da bd fc 19 ad 3d d8 07 56 bd ec 43 0a be
       -0.106894836 0.08452222 -0.052253574 -0.13502473
000170 0a 9f f2 bd b8 aa de 3d aa f2 0a be 08 9a a7 3d
       -0.118467405 0.10872406 -0.13569131 0.08183676
000180 cb fc db bd 53 ee bc 3d b3 a1 85 bd c6 02 f4 3d
       -0.10741576 0.09225144 -0.06524982 0.119145915
000190 f3 a7 7d 3d 8b 63 1d bd fb 56 26 bd 3c 46 50 3d
       0.061927747 -0.03842501 -0.040610295 0.05084823
0001a0 e0 9c d2 bc 7c 64 6b 3d f4 c6 d2 bd dc 78 09 bb
       -0.02570957 0.057468876 -0.102918535 -0.0020976579
0001b0 ec ff 0e 3e 4d 2d 1e 3e 69 03 ce bc a2 4b fe 3c
       0.13964814 0.15446968 -0.02514811 0.031041924
0001c0 0f 55 1f 3e 42 46 fd bc ba 6a 0c 3e 95 ce ca bd
       0.15559791 -0.03091729 0.13712588 -0.09902684
0001d0 43 0d 09 3e 58 0f 85 3d c6 e3 b4 3c 0a b9 04 be
       0.13383965 0.06497067 0.022081267 -0.12961212
0001e0 d6 2a 80 bd 36 79 bc 3d 68 4c cd 3c 41 7d d0 3d
       -0.0625817 0.09202807 0.025060847 0.1018014
0001f0 8f 93 fc 3c 93 a2 a3 3d 8e 6b d9 3d 09 a4 b0 3d
       0.03083208 0.07989993 0.106162176 0.08625037
000200 ef f5 c0 bd 30 c8 af bd 0b 5c 05 be 34 a3 1e bd
       -0.09421908 -0.085831046 -0.13023393 -0.03872986
000210 a2 6a 5b 3c d0 77 fc 3d db a1 b5 3c b1 7b 08 be
       0.013392122 0.1232754 0.022171905 -0.13328435
000220 a8 cb b5 3c ec 88 e0 bd 1a 2c 3e bd 4e e4 b8 bd
       0.022191837 -0.10963616 -0.046428777 -0.09027921
000230 40 7f 3e bc 0a 6e 30 bd 14 9c 22 3d 18 e4 59 bd
       -0.011627018 -0.04307369 0.03969963 -0.053196043
000240 8b b8 18 3e 8e bd 17 3e 05 c5 7f bc 25 16 ba 3c
       0.14914148 0.14818403 -0.015610938 0.022715637
000250 cf 5c d5 bd ac 8e 40 bd 63 07 1c 3e 76 7b 62 3d
       -0.104180925 -0.047011063 0.15237193 0.055293523
000260 63 a7 f6 3d e5 83 b5 bd 68 18 e3 3d 47 4d 3c 3c
       0.12043645 -0.088630475 0.110886395 0.011493034
000270 c2 f5 ec bd 79 29 d5 bd eb 7e 2d 3d 36 55 8b 3d
       -0.11570312 -0.10408301 0.042357367 0.06803362
000280 dc d3 be 3d 90 7f 8c 3c 66 77 20 3e 17 d9 9c bc
       0.09317753 0.01715067 0.15670547 -0.019146485
000290 05 75 22 3e e3 03 3a 3d eb 18 10 3e 19 37 f7 bd
       0.15864952 0.045413863 0.14072005 -0.12071056
0002a0 8f ab bf bd e9 64 20 3e 03 e3 16 bc e8 22 14 3d
       -0.09358894 0.15663494 -0.009209397 0.0361661
0002b0 1b 8d 9f 3d e7 bd ec 3d 1f 7d 0a be 4f 81 06 3e
       0.077905856 0.115596585 -0.13524292 0.13135265
0002c0 f9 8a 09 bd 5e 54 6d bd 78 c1 00 be 99 12 00 bc
       -0.0335798 -0.057941787 -0.12573802 -0.007816934
0002d0 49 0a c6 bc a0 ba ff 3d 70 9f d1 bd 81 61 84 3c
       -0.024174826 0.12486768 -0.102354884 0.016159775
0002e0 2d 06 11 3e e9 02 5a 3d cf 40 e7 bd 1b 91 11 3e
       0.14162512 0.05322543 -0.11291658 0.1421551
0002f0 8a 83 70 bd a7 11 20 bd a5 12 20 3e 15 71 1c 3e
       -0.058719195 -0.039079335 0.15632112 0.15277512
000300 54 cd d6 bd 38 ed 12 3e 38 aa 6f 3d 4b 1f 99 3d
       -0.10488382 0.14348304 0.058511943 0.07476672
000310 ad fd 2f 3d ca c3 d6 3d 43 ce d4 3d f5 b1 cc bd
       0.042966533 0.104865626 0.10390904 -0.0999488
000320 21 19 cd 3d b5 ee 41 bc a9 ec ba bc 00 2d 7e 3d
       0.100145586 -0.011836697 -0.022817926 0.062054634
000330 2c 90 d2 bd 57 a6 13 3d f8 6b 0d be 36 e8 dc bb
       -0.10281405 0.036047306 -0.13810718 -0.006741549
000340 d6 8c c2 3d f4 6d 36 bd 77 8a 94 bc 74 1d 0b 3e
       0.094995186 -0.044538453 -0.018132431 0.13585454
000350 e2 ff 22 3d 31 cb fc 3d 60 50 d6 bc 10 6d 11 3e
       0.03979481 0.12343443 -0.026161373 0.1420176
000360 b9 11 0c bd 82 cb b3 3d 2e 53 16 3d 9b 76 d0 3d
       -0.03419659 0.087790504 0.03670042 0.10178872
000370 5f 25 f4 bd 99 d1 88 3d 45 58 21 bd 89 e9 90 bc
       -0.119211905 0.066806026 -0.03939082 -0.017689483
000380 33 ca 1d 3e cb d6 0a 3e 0d af 21 bd d1 56 87 3d
       0.15409164 0.135585 -0.039473582 0.06608356
000390 f6 f3 8a 3c 08 ca e3 3d ec f8 15 3e 48 53 9f bd
       0.016962033 0.11122519 0.14645737 -0.077795565
0003a0 0b 02 d5 3d 0d 00 7d 3c 2d e4 72 3d 45 28 de 3d
       0.1040078 0.015441907 0.059299637 0.108475246
0003b0 7c c4 9a bd 4e 53 f5 bd 94 5f 50 3c ec 07 06 bd
       -0.07557008 -0.1197878 0.0127181 -0.0327224
0003c0 e5 30 a2 bd 3d c2 8e bc 9b 45 da 3d 29 2e 90 3d
       -0.07919482 -0.017426604 0.106578074 0.07040054
0003d0 5b b7 60 3d 9d 04 05 be db 4c 4c 3d 14 37 ae 3d
       0.05486236 -0.12990041 0.049877983 0.08506599
0003e0 3b b6 ea bd 65 4f ca 3d 53 16 11 3e ea 25 dd bd
       -0.11460539 0.098784246 0.14168672 -0.10798247
0003f0 ba dd 6d 3d 6d 77 00 be 9b b1 91 3c b6 10 2f 3d
       0.058072783 -0.12545557 0.017784884 0.042740546

sequential_6_1/conv2d_14_1/Relu;sequential_6_1/conv2d_14_1/BiasAdd;sequential_6_1/conv2d_14_1/convolution; f4 [32]
000000 d8 da 2d 3c b3 72 1c bc 97 e3 e7 bb f4 87 9d 3c
       0.010611258 -0.009548831 -0.0070766914 0.019229867
000010 b4 cd 86 3c ca be 38 3c 7d 0c 05 3b 84 9d 5c 3c
       0.016455509 0.011275956 0.0020301633 0.013465289
000020 74 2d 9c 3c 49 fe 4a 3c 8c 37 54 bb cc 9f a3 3c
       0.019064642 0.012389728 -0.0032381741 0.019973658
000030 36 fd 58 3c b7 f5 30 3c fd c1 5a 3b 00 00 00 00
       0.013243964 0.0108007705 0.0033379786 0.0
000040 83 a5 9e 3c 19 97 82 3c 9a 74 a5 3c ed 31 63 3c
       0.019366032 0.01594119 0.020197202 0.013866884
000050 5a 12 9f 3c 68 03 9b 3c 97 8d 15 bb 90 8f 9c 3c
       0.01941793 0.018922523 -0.002281999 0.019111425
000060 6d a2 a0 3c 83 ac 4a 3c 38 97 7f 3c 1c 5c 8f 3c
       0.0196087 0.012370232 0.015600018 0.017499976
000070 83 bb 70 3c 19 91 24 3c 11 ec a9 3c 5c b2 ac 3c
       0.014693144 0.01004436 0.020742448 0.021081142
