assets/models/Walking_Lunge_model.tflite (tflite, 570996 bytes, 7 tensors)

arith.constant f4 [64]
0	0x3c8a5620	0.01688677
1	0xba81c8c1	-0.0009901748
2	0x3c991367	0.01868601
3	0x3c7bcb88	0.01536835
4	0x3caa096a	0.020756442
5	0x3c292b7a	0.010325307
6	0x3caf5dfa	0.021407116
7	0xbb81dadd	-0.003962858
8	0x3c9ef944	0.019405968
9	0x3b94edc7	0.004544947
10	0x3caaa36f	0.020829884
11	0x3ca3ed2c	0.020010553
12	0x3c82c392	0.015962396
13	0x3c76b23b	0.015057142
14	0xbc68f2ce	-0.014218045
15	0x3c7caf32	0.015422629
16	0x3c5e7542	0.013577761
17	0x3ca6f611	0.020381005
18	0x3c94f3a1	0.018182578
19	0xbbdcd7ab	-0.006739577
20	0x3c50a301	0.012734176
21	0xbbb6c27b	-0.005577383
22	0xb93efae6	-0.00018213279
23	0xbbc3c097	-0.005973886
24	0x3bac16d1	0.0052517434
25	0x3c8c2bfd	0.017110819
26	0x3c9d28e6	0.019184541
27	0x3acd97ad	0.0015685462
28	0x3a170660	0.0005761143
29	0x3c8608eb	0.016361674
30	0x3cbc601a	0.022995044
31	0x3ca6bd59	0.02035396
32	0x3c878211	0.016541513
33	0xbc42ce92	-0.0118900705
34	0x3ca94064	0.020660587
35	0x3c96136d	0.01831981
36	0x3b1f75fb	0.0024331796
37	0x3ca6ff4b	0.020385405
38	0xbb47e082	-0.0030498807
39	0x3caae571	0.02086136
40	0x3ca62b0c	0.020284198
41	0x3c4a41cd	0.01234479
42	0x3c9750fe	0.018471237
43	0x3ca48d5f	0.020086942
44	0xbb01ee98	-0.001982605
45	0x3c5d06d7	0.0134904
46	0x3ca78be5	0.02045245
47	0x3c8cec9a	0.017202664
48	0xbb9db251	-0.0048125167
49	0x3ca03607	0.019557012
50	0x3ca3be35	0.019988159
51	0x3ca793e1	0.020456256
52	0x3c99d2d0	0.018777281
53	0x3c6dacf1	0.0145065645
54	0x3caa4f21	0.020789685
55	0x3ca1c55c	0.019747429
56	0x3c8f116a	0.017464358
57	0x3caa306a	0.020775039
58	0x3ca9981f	0.02070242
59	0x3c7c5c91	0.015402929
60	0x3c326eac	0.010890644
61	0x3ca69a7b	0.020337334
62	0x3c455f78	0.012046687
63	0x3ca67e7c	0.020323984

arith.constant1 f4 [64, 3, 3, 32]
0	0x3dad82a8	0.08472186
1	0xbd41ae5e	-0.04728543
2	0x3d7a7e22	0.061155446
3	0xbd7b6b1f	-0.061381456
4	0xbbf0df5f	-0.0073508467
5	0xbd83d52c	-0.06437144
6	0xbc43aa17	-0.011942408
7	0x3d99042c	0.07471499
8	0x3d2a5a3c	0.04158996
9	0xbd2daee5	-0.04240312
10	0x3d972464	0.07379988
11	0xbd96215d	-0.07330582
12	0x3dcd5fc4	0.100280315
13	0x3bbff4a9	0.005858023
14	0x3d9512ff	0.07279014
15	0x3b0145d1	0.0019725452
16	0x3d9d4b00	0.07680321
17	0x3d1764d9	0.03696141
18	0xbd6597e2	-0.05605305
19	0x3d0c5212	0.034257956
20	0xbd41b84e	-0.047294907
21	0x3d04feed	0.03246968
22	0xbbd989d1	-0.0066387434
23	0xbd642ad0	-0.05570489
24	0xbd58355e	-0.05278527
25	0x3d927612	0.071514264
26	0x3bfc4a65	0.007699298
27	0xbd0bb357	-0.03410658
28	0x3d1db93b	0.038506728
29	0x3d91bdaa	0.07116254
30	0xbcfea447	-0.031084193
31	0x3d34af9e	0.044112794
32	0x3c9c18a5	0.01905472
33	0xbd6f2535	-0.058385093
34	0xbcb0f6e2	-0.021602098
35	0x3d094536	0.03351327
36	0xbd81ee94	-0.06344333
37	0x3d3afc8f	0.045651015
38	0x3db1e4e4	0.086862355
39	0x3d6dc019	0.058044527
40	0x3d8f3069	0.069916554
41	0xbd12be9a	-0.035826303
42	0x3d965389	0.07340152
43	0xbca07a64	-0.01958961
44	0xbbd98213	-0.0066378205
45	0x3d37c8b1	0.04486913
46	0x3d730296	0.059328638
47	0x3d6d95ef	0.058004316
48	0x3db546ab	0.088513695
49	0xbd578d07	-0.05262473
50	0x3dc0fb85	0.094229735
51	0x3d6d110d	0.05787759
52	0xbd3cb69c	-0.046072587
53	0x3caa3adf	0.020780025
54	0x3bb2ec44	0.005460294
55	0x3d59dff0	0.05319208
56	0x3c673dcf	0.014113857
57	0x3c0585c4	0.008149568
58	0x3d095494	0.033527926
59	0xbd9b6bbb	-0.07588907
60	0x3cb8e801	0.022571566
61	0x3da01bcb	0.07817801
62	0x3d245aea	0.040125765
63	0xbcc48f1a	-0.023994017
64	0x3d727703	0.05919553
65	0xbda3d40b	-0.07999428
66	0xbc87cc7e	-0.016577002
67	0x3d2d290a	0.042275466
68	0x3d534dd4	0.051587895
69	0x3beea0be	0.0072823456
70	0xbd8f0ce3	-0.0698488
71	0xbd3c609b	-0.045990568
72	0x3d8a773d	0.06761024
73	0x3ae654b3	0.001757285
74	0x3c064727	0.008195675
75	0xbc979bf5	-0.018506983
76	0x3d12c35a	0.035830833
77	0x3c12c25f	0.0089574745
78	0xbd184dc1	-0.037183527
79	0x3cd91785	0.026500473
80	0xbd94a55e	-0.07258104
81	0x3a7215b4	0.00092348014
82	0xbc397fa9	-0.01132194
83	0xbdbbfda6	-0.09179239
84	0x3c3174ac	0.010831039
85	0xbc2c2af9	-0.010508292
86	0xbdbbdb94	-0.091727406
87	0x3c2b091e	0.010439185
88	0xbd949ff5	-0.07257072
89	0x3c85496c	0.016270362
90	0xbc545455	-0.012959559
91	0xbd47402e	-0.04864519
92	0xbc9eb752	-0.019374523
93	0x3d82e633	0.06391563
94	0x3d610731	0.0549385
95	0xbda458ca	-0.08024748
96	0x3d28a376	0.041171513
97	0x3d312b4f	0.043254193
98	0x3be366c3	0.0069397404
99	0x3d6f887c	0.05847977
100	0xbb149829	-0.0022673702
101	0xbd677890	-0.05651146
102	0xbca36c7a	-0.019949187
103	0x3c7b6904	0.015344862
104	0x3d6af5c7	0.057363298
105	0x3bea47da	0.0071496787
106	0xbaf4c4df	-0.0018674395
107	0x3cf9fcdd	0.030516082
108	0x3d4185e6	0.047246836
109	0x3dc7dc9f	0.09758877
110	0xbcada8f7	-0.021198733
111	0x3db3b7a1	0.08775259
112	0xbd77b69a	-0.060476877
113	0xbc2c5d72	-0.010520326
114	0xbd2f3d08	-0.042782813
115	0x3d07f461	0.033192042
116	0xbc8885fd	-0.016665453
117	0xbd21ab52	-0.039470024
118	0xbd365423	-0.044513833
119	0xbc971ea9	-0.018447237
120	0xbcf66387	-0.030076755
121	0x3ccb1d63	0.024794286
122	0x3d1e8d6b	0.038709085
123	0xbd7777bc	-0.060416922
124	0x3dc96c8c	0.09835157
125	0x3ca6a838	0.020343885
126	0xbd417f1a	-0.047240354
127	0xbcf3bbcb	-0.029752633
128	0x3c8e85a3	0.017397707
129	0xbd00af7f	-0.031417366
130	0x3dc61137	0.09671252
131	0x3db40dd4	0.087917
132	0x3ca44dd9	0.020056652
133	0xbbc3622a	-0.00596263
134	0x3c68bd41	0.014205278
135	0xbd1fb50b	-0.038991015
136	0x3d0a027b	0.03369377
137	0x3db0215a	0.08600111
138	0x3d01781c	0.031608686
139	0xbcf44aed	-0.029820884
140	0x3d3a370a	0.045462646
141	0xbcd34758	-0.025790855
142	0x3c113a72	0.008864032
143	0xbce04670	-0.027377337
144	0x3db69a4b	0.08916148
145	0xbb8d11df	-0.004305109
146	0x3bbdeae2	0.0057958225
147	0x3c031da4	0.008002672
148	0xbcac7d7e	-0.021055933
149	0x3c8eb8c3	0.017422086
150	0xbc2f7de9	-0.010711172
151	0xbd60316c	-0.054734632
152	0xbd833665	-0.06406859
153	0x3d9c12cb	0.07620772
154	0x3cee3929	0.02907999
155	0xbda14248	-0.0787397
156	0x3d2c2426	0.04202666
157	0xbd3864f7	-0.045018163
158	0xbcfb3c70	-0.030668467
159	0x3cd4a969	0.025959687
160	0x3d08e617	0.033422556
161	0xbdbdf409	-0.09275062
162	0xbd7b0cd2	-0.061291523
163	0x3d869f1a	0.06573315
164	0xbc8b1212	-0.01697639
165	0xbcd70cf0	-0.026251286
166	0xbccd2760	-0.02504319
167	0xbc6c967d	-0.014440176
168	0xbc268748	-0.0101640895
169	0x3c754548	0.014970131
170	0xbd1bcf1f	-0.038039323
171	0x3d82f0fe	0.06393622
172	0xbd977ac7	-0.07396465
173	0x3bdb8ad9	0.0066999015
174	0x3d5771f4	0.05259891
175	0xbc25957d	-0.010106442
176	0xbad549bd	-0.0016272586
177	0xbcc3108d	-0.023811603
178	0x3d265a9a	0.040613748
179	0xbdaaf7bd	-0.083480336
180	0x3d95195a	0.07280226
181	0xbd94cd5d	-0.072657324
182	0x3d1fb68e	0.038992457
183	0x3b9de5dd	0.0048186616
184	0x3cbff2fa	0.02343129
185	0x3d524617	0.051336374
186	0x3d8c72e6	0.06857853
187	0x3d62a96d	0.05533736
188	0xbd823d46	-0.06359343
189	0x3cf74c20	0.030187666
190	0xbcaec60f	-0.021334676
191	0x3c656eca	0.014003465
192	0xbd2bf69b	-0.04198323
193	0x3bebe8f8	0.007199403
194	0xbd2178a8	-0.039421707
195	0xbc81470b	-0.015780946
196	0x3dbcb34d	0.092138864
197	0xbcb6989e	-0.02228957
198	0xbd96459e	-0.07337497
199	0xbd58e7d6	-0.05295547
200	0x3d83a7ff	0.06428527
201	0xbd2d5142	-0.04231382
202	0x3d84dd93	0.064875744
203	0x3c4aebe6	0.012385344
204	0x3d923847	0.0713964
205	0x3dc77701	0.09739495
206	0xbce916fb	-0.02845334
207	0xbd0a6d8c	-0.03379588
208	0x3bbd8ccf	0.005784608
209	0x3c9b94ea	0.018991906
210	0x3c1a4cba	0.009417707
211	0x3c61183b	0.013738687
212	0x3bed4f86	0.007242146
213	0xbd4f1a4f	-0.0505622
214	0xbd935687	-0.07194238
215	0x3d3d12df	0.046160575
216	0x3d71db0b	0.059046786
217	0xba16cacb	-0.00057522644
218	0xbc95e5ae	-0.018297996
219	0xbd874572	-0.066050425
220	0x3d741b36	0.059596263
221	0x3d86959a	0.06571503
222	0xbd3b2638	-0.045690745
223	0xbc9cfd4e	-0.019163754
224	0x3c3afeac	0.011413258
225	0x3cc7ab17	0.024373574
226	0x3ae7c760	0.001768332
227	0xbc57131e	-0.0131271165
228	0x3d4d0a2a	0.05005852
229	0xbb675659	-0.003529927
230	0xbac0ef4d	-0.0014719755
231	0xbd058ca1	-0.032604817
232	0xbd6f8a6f	-0.05848163
233	0xbb8c4240	-0.0042803586
234	0xbd0e4e79	-0.034742806
235	0x3c16e43c	0.009209689
236	0x3d726373	0.059176873
237	0xbcbc80d9	-0.023010658
238	0x3d625503	0.055256855
239	0xbb1964fe	-0.0023406143
240	0x3cfef33c	0.031121843
241	0x3cdccaaa	0.026952107
242	0x3d950a28	0.07277328
243	0x3db596b6	0.088666365
244	0xbc50c037	-0.01274114
245	0x3d9ebd85	0.07750992
246	0x3db8b4ff	0.09018897
247	0x3d06feee	0.032957964
248	0xbc9f6754	-0.01945845
249	0xbce9748f	-0.028497962
250	0xbc29af70	-0.010356769
251	0x3cef74d0	0.029230505
252	0xbd35f84e	-0.044426255
253	0x3c457215	0.012051125
254	0xbd14607c	-0.036224827
255	0xbcb3efbe	-0.021964904

arith.constant2 f4 [1, 128]
0	0x3dd5e211	0.10443509
1	0x3e2d4238	0.16919792
2	0xbe2c9104	-0.16852194
3	0x3e556685	0.2083989
4	0xbe33460e	-0.17507192
5	0xbd440fa2	-0.04786647
6	0xbd731310	-0.05934435
7	0x3dac1548	0.084024966
8	0xbcfca509	-0.030840414
9	0xbe18bfe7	-0.14916955
10	0x3e0f37b7	0.13986097
11	0xbe388a8d	-0.18021603
12	0xbe3b4e56	-0.18291602
13	0x3d30ab89	0.04313234
14	0x3e3cfff1	0.18457009
15	0xbdb355fe	-0.08756636
16	0xbe0a434c	-0.13502234
17	0xbd38ad6b	-0.04508726
18	0xbe300b05	-0.17191704
19	0xbdc7c0b2	-0.097535506
20	0xbcc6a1d8	-0.024247095
21	0x3b6a6d47	0.00357707
22	0x3db2783e	0.087143406
23	0xbe2e591e	-0.17026183
24	0x3dd9bf00	0.106321335
25	0xbb8d8e7e	-0.004319965
26	0xbd69f729	-0.057120476
27	0x3e0712cc	0.13190764
28	0x3df73a62	0.120716825
29	0xbe454837	-0.19265829
30	0x3e4eb9c9	0.20188059
31	0x3e5bc618	0.21462286
32	0x3d4c69c5	0.049905557
33	0x3e35d01f	0.17755173
34	0x3e540069	0.20703281
35	0x3e58ad8d	0.21159954
36	0x3d02ff26	0.03198161
37	0x3e5815f2	0.21102121
38	0xbde52a1e	-0.11189674
39	0x3de6448a	0.112435415
40	0x3e6b27ee	0.2296445
41	0x3dcfa8fc	0.10139653
42	0x3e1499cc	0.14511794
43	0xbe0c3d40	-0.1369524
44	0x3ded9a94	0.11601749
45	0x3d832894	0.06404224
46	0xbd160688	-0.036627322
47	0xbe4674b8	-0.19380462
48	0x3d9f0ebb	0.077664815
49	0xbe2fe1d8	-0.17175996
50	0xbdcf6acb	-0.10127791
51	0x3e2456c8	0.1604873
52	0x3e5781ca	0.21045604
53	0x3dc721ac	0.09723219
54	0x3ddd1af5	0.10796157
55	0xbd8ef246	-0.06979804
56	0x3e203ba4	0.15647751
57	0xbe36c13d	-0.17847152
58	0x3e3bd18a	0.18341652
59	0xbc428bfb	-0.011874194
60	0xbe090008	-0.13378918
61	0xbe33234f	-0.17493938
62	0xbccdf8a7	-0.02514298
63	0x3e65bf74	0.22436315
64	0xbe2566bc	-0.16152471
65	0xbe2a7bc9	-0.16648783
66	0x3e2e8345	0.17042263
67	0x3e103f72	0.14086702
68	0xbcc0d234	-0.023537733
69	0x3e47a280	0.19495583
70	0xbe4e611a	-0.20154229
71	0xbe242824	-0.16030937
72	0xbdc6047b	-0.09668823
73	0x3e0ba53c	0.1363725
74	0x3d8dfbfa	0.06932826
75	0xbdb9f665	-0.09080199
76	0xbd026a00	-0.03183937
77	0xbe4edd0f	-0.20201515
78	0xbd239a8f	-0.03994232
79	0xbd7a0878	-0.061043233
80	0x3e719216	0.23590884
81	0x3ce76912	0.028248344
82	0x3e30c32a	0.17261949
83	0xbe07a3ad	-0.13246031
84	0x3e768e7f	0.24077795
85	0x3d6bd77c	0.05757855
86	0x3d468b08	0.048472434
87	0xbd9221d4	-0.071353585
88	0x3d654120	0.05597031
89	0xbe3dcfac	-0.18536252
90	0xbd168203	-0.036745083
91	0xbdb8006e	-0.08984457
92	0xbd92083f	-0.07130479
93	0xbe3de070	-0.18542647
94	0xbd5d54b4	-0.054035857
95	0xbe362c2a	-0.17790285
96	0xbc6686c0	-0.014070213
97	0x3da67060	0.081269026
98	0xbdfd46ec	-0.12367043
99	0xbd9504c8	-0.072763026
100	0x3d6706e0	0.05640304
101	0x3e383ccd	0.17991944
102	0x3e17af5e	0.14812991
103	0x3a80eaeb	0.0009835636
104	0xbdd190d8	-0.10232705
105	0x3e243f9f	0.16039895
106	0xbdc93910	-0.09825337
107	0xbd0a19a0	-0.033715844
108	0xbe1ee6f2	-0.15517786
109	0x3aa154dc	0.0012308615
110	0x3d96020c	0.07324609
111	0xbe51f1da	-0.20502415
112	0x3b40b440	0.0029404312
113	0xbe3998eb	-0.1812474
114	0x3dc1e77b	0.094679795
115	0xbc75c230	-0.014999911
116	0x3bf6eac0	0.0075353086
117	0xbd7f276c	-0.062293455
118	0xbd44762e	-0.047964267
119	0xbe112492	-0.14174107
120	0xbe1f657c	-0.15566057
121	0xbe35e4f4	-0.1776312
122	0xbd89f83d	-0.06736801
123	0x3e32fd43	0.17479424
124	0x3d11ddf9	0.03561208
125	0xbe42a301	-0.19007494
126	0xbcb02604	-0.021502502
127	0x3e53e654	0.20693332

arith.constant3 f4 [128, 960]
0	0x3d329d7c	0.04360722
1	0x3d5df31a	0.054186918
2	0xbd07505a	-0.033035614
3	0x3d1e8a9e	0.038706414
4	0x3dbe190d	0.09282122
5	0x3d59a30a	0.053134
6	0x3da50a9e	0.08058666
7	0x3bb51ad3	0.0055268793
8	0x3d0ce1c1	0.034394983
9	0x3d9d84c1	0.076913364
10	0x3c569522	0.0130970795
11	0x3d392baf	0.045207676
12	0x3d4332f5	0.04765602
13	0xbd262c14	-0.04056938
14	0xbcc91f7a	-0.024551142
15	0x3d236b5d	0.03989731
16	0x3d18cc16	0.037304007
17	0xbd2521af	-0.040315326
18	0x3d2aeb6b	0.04172842
19	0xbc849870	-0.01618597
20	0x3ca2a460	0.01985377
21	0x3ba7dca0	0.005122736
22	0x3b33403a	0.0027351514
23	0xbba97510	-0.0051714256
24	0xbd1fe991	-0.039041106
25	0xbb34cd73	-0.0027588278
26	0x3d9ddb46	0.07707839
27	0x3d27c814	0.040962294
28	0x3cda4654	0.026644863
29	0x3da55fe3	0.080749296
30	0xbc0f2c36	-0.008738568
31	0xbc6e6948	-0.014551468
32	0xbcb1c88d	-0.021702075
33	0x3d1f9fa1	0.038970593
34	0x3d7972a4	0.060900345
35	0xbcbb5b1f	-0.022870598
36	0xbd331436	-0.043720447
37	0x3b42b310	0.002970878
38	0xbd2609ce	-0.040536694
39	0x3db8f658	0.09031361
40	0x3d4bcba3	0.04975475
41	0x3d155cf3	0.036465596
42	0x3da44470	0.08020866
43	0x3a81de5f	0.0009908191
44	0xbd32ac54	-0.043621376
45	0x3da06539	0.07831807
46	0x3d8fa171	0.070132144
47	0x3c393f06	0.01130653
48	0xbd688383	-0.056766044
49	0x3d2a4b36	0.041575633
50	0xbcbded74	-0.023184516
51	0x3a21a609	0.0006166404
52	0x3c741274	0.014896978
53	0x3d996659	0.074902244
54	0x3cf2383f	0.029567836
55	0x3db7b9e6	0.08971004
56	0x3d4db2c9	0.05021933
57	0x3c813ded	0.015776599
58	0x3c06af77	0.008220545
59	0xbcca0efb	-0.024665346
60	0x3cc14b69	0.023595529
61	0x3ca3f9b5	0.02001653
62	0xbd06b3b3	-0.03288622
63	0x3d600c63	0.054699313
64	0xbd3f2bda	-0.04667268
65	0xbd235aa6	-0.03988137
66	0x3d809103	0.06277659
67	0xbcb3b732	-0.02193794
68	0x3d760af2	0.060069032
69	0xbbd416f4	-0.006472463
70	0x3cd89737	0.026439292
71	0x3c229a90	0.009924546
72	0x3d3b1b98	0.045680612
73	0x3d23a2c3	0.039950144
74	0x3d8917d2	0.066939965
75	0x3b2fe4d9	0.0026839285
76	0x3cfdb593	0.03097037
77	0x3d184eef	0.037184652
78	0x3b83125d	0.003999992
79	0xbd20cc85	-0.039257545
80	0x3d94d5c1	0.07267333
81	0xba4e36ed	-0.0007866461
82	0x3d3de632	0.04636211
83	0xbd0811c5	-0.03322007
84	0xbb77d90a	-0.0037818574
85	0x3ba64e00	0.0050752163
86	0x3d99fcd3	0.075189255
87	0xbcc6c8aa	-0.024265606
88	0x3cf3cbf0	0.02976033
89	0xbd86381b	-0.0655367
90	0xbce7f1f7	-0.02831362
91	0x3d6e7cb2	0.058224387
92	0xbcb8b236	-0.022545915
93	0x3d9c2f4e	0.0762621
94	0xbb67c501	-0.0035365226
95	0x3cbd5d0c	0.023115657
96	0x3d915fa6	0.070983216
97	0x3d62a09e	0.055328958
98	0x3cea9e8e	0.028640058
99	0x3d86d837	0.065842085
100	0x3d9e8bf3	0.07741537
101	0xbc376894	-0.011194367
102	0xbcee1dcd	-0.029066944
103	0x3b086b03	0.0020815737
104	0x3cc71988	0.024304166
105	0xbc39438b	-0.011307607
106	0xbcd9a6de	-0.026568826
107	0xbd60a1be	-0.05484175
108	0xbc6876ac	-0.01418845
109	0x3d552fde	0.052047603
110	0xbcb61602	-0.022227291
111	0xbbd39136	-0.0064565195
112	0xbd8a3ce3	-0.067498945
113	0xbb452274	-0.003008035
114	0x3da0bdb3	0.07848682
115	0x3db0b48b	0.08628186
116	0x3ceb2cfe	0.028707977
117	0x3cc2e928	0.023792818
118	0x3d2e496c	0.04255049
119	0x3c6b3642	0.014356198
120	0xbd60419a	-0.054750063
121	0x3d758a90	0.059946597
122	0x3d099f83	0.033599388
123	0xbd53f3b8	-0.0517461
124	0xbd4d88ed	-0.05017941
125	0xbd31ce17	-0.043409433
126	0x3d1b841a	0.03796778
127	0xbd8d46e3	-0.06898286
128	0xbd08d0e6	-0.033402346
129	0xbcda63a2	-0.026658837
130	0x3da73ecb	0.08166274
131	0xbcf0a445	-0.029375205
132	0x3a19df7b	0.0005869788
133	0x3d202dc8	0.03910616
134	0xbc273f8d	-0.010208023
135	0x3d59a292	0.053133555
136	0x3bb6e906	0.005581978
137	0x3bbdf040	0.0057964623
138	0x3db04fa9	0.08608944
139	0xbd71872e	-0.058966808
140	0x3c7bc4f0	0.015366778
141	0x3c470741	0.012147726
142	0xbd77d049	-0.06050137
143	0xbd07a9a0	-0.03312075
144	0x3d8a96d3	0.06767049
145	0x3d9aa880	0.0755167
146	0x3d95997a	0.07304664
147	0xbd632340	-0.05545354
148	0xbd6076a8	-0.05480066
149	0xbd52c77b	-0.05145977
150	0x3d912b4b	0.070883356
151	0xbc952e94	-0.018210687
152	0x3c8bf825	0.017086098
153	0x3d0cbbc7	0.034358766
154	0xbbd5006a	-0.0065002935
155	0x3d5e2014	0.05422981
156	0xbd2cb226	-0.042162083
157	0x3d00c1cc	0.03143482
158	0x3d88e2f4	0.06683913
159	0x3d86150a	0.06546982
160	0x3c6fee9f	0.014644294
161	0xbc8ad347	-0.016946448
162	0xbd403be3	-0.046932112
163	0x3d8dab4b	0.06917437
164	0x3d8167b0	0.06318605
165	0xbd3abd22	-0.045590527
166	0xbd3c2703	-0.045935642
167	0x3d32cb40	0.043650866
168	0xbd5448cd	-0.05182724
169	0x3da0f431	0.07859076
170	0xbcaa1f75	-0.020766953
171	0xbd29bd91	-0.04144055
172	0xbd285ac9	-0.041102204
173	0xbd4457cc	-0.047935292
174	0xbd00904a	-0.031387605
175	0xbd09849e	-0.03357374
176	0x3b9ebecd	0.0048445226
177	0x3da49060	0.0803535
178	0xbc981700	-0.018565655
179	0x3d47979a	0.048728563
180	0xbcc753bd	-0.024331922
181	0xbd72179c	-0.059104547
182	0x3d095e08	0.03353694
183	0x3b41ba4d	0.0029560507
184	0xbbfb8640	-0.007675916
185	0x3dacd844	0.08439687
186	0xbcd55286	-0.026040327
187	0x3cdd4228	0.027009085
188	0x3d69fb2e	0.05712431
189	0x3cd11d96	0.025526803
190	0xbcad104e	-0.021125939
191	0xbd786d8e	-0.060651354
192	0xbd0aac3b	-0.033855658
193	0x3db3ea6b	0.08784946
194	0x3da8f902	0.082506195
195	0x3c465039	0.0121040875
196	0x3d2bae58	0.041914314
197	0x3d1f33ea	0.03886787
198	0x3d9d4d94	0.076808125
199	0x3d144df1	0.036207143
200	0x3d9967a7	0.07490473
201	0x3d84d7cc	0.064864725
202	0x3d7a857d	0.06116246
203	0xbbee10df	-0.007265195
204	0x3d80711b	0.06271573
205	0x3d0957cc	0.033530995
206	0x3b28e9ad	0.0025774047
207	0x3da843ee	0.082160816
208	0x3d5b844f	0.053592976
209	0x3d41ef40	0.047347307
210	0x3c511fc0	0.012763917
211	0xbd962417	-0.07331102
212	0x3c3c9387	0.011509783
213	0xbd8e644d	-0.069527246
214	0x3d2b7685	0.041861076
215	0x3d914712	0.07093634
216	0x3d896f28	0.067106545
217	0xbb84eaeb	-0.0040563247
218	0x3d839725	0.06425313
219	0x3c916283	0.01774717
220	0xbd8e3135	-0.06942979
221	0x3d22a17e	0.039704792
222	0x3d6c4c61	0.057690028
223	0x3d781fd4	0.06057723
224	0xbb4d915e	-0.0031367163
225	0x3d8790ce	0.06619416
226	0xbd29840e	-0.041385703
227	0x3b962d42	0.004583032
228	0xbc864e45	-0.016394744
229	0xbc94dfd5	-0.018173138
230	0xbd3409e2	-0.043954737
231	0x3d6167f8	0.055030793
232	0xbd450cc7	-0.04810789
233	0xbd055926	-0.03255572
234	0x3dba49be	0.090960965
235	0xbd32ef3f	-0.043685194
236	0x3d6eff60	0.058349013
237	0xbd190c2d	-0.037365127
238	0x3d3f79de	0.04674708
239	0x3cb2d7ad	0.021831358
240	0x3d8daadf	0.06917357
241	0x3d24acc5	0.04020383
242	0xbb87fc34	-0.004149938
243	0xbd292218	-0.04129228
244	0x3cbf6c44	0.023367055
245	0x3da27b96	0.079337284
246	0x3d88d239	0.06680722
247	0x3d830175	0.06396762
248	0x3d0fae70	0.035078466
249	0x3d9da810	0.07698071
250	0xbc45818f	-0.012054815
251	0x3cb3b344	0.021936066
252	0x3c7298e2	0.014806958
253	0xbc82f24e	-0.01598468
254	0xbabbef86	-0.0014338351
255	0xbc9d8abe	-0.019231196

arith.constant5 f4 [128]
0	0x3c8f45ed	0.017489398
1	0x00000000	0.0
2	0xbbc5590b	-0.0060225776
3	0x3c518e5d	0.01279029
4	0xbbc4c6b8	-0.0060051344
5	0xbc5e2b7d	-0.013560173
6	0x00000000	0.0
7	0x00000000	0.0
8	0xbc14a300	-0.009072065
9	0xbc151963	-0.009100291
10	0x3c8b454f	0.017000822
11	0xbc00a4e1	-0.00785181
12	0xbc05b7b0	-0.00816147
13	0x3c974d01	0.018469336
14	0x3c892f05	0.016746053
15	0x00000000	0.0
16	0xbbb61e5e	-0.0055578193
17	0xbbe70206	-0.0070498018
18	0xbb423ffb	-0.0029640186
19	0xbbb61ab8	-0.0055573843
20	0x00000000	0.0
21	0xbc0033a3	-0.007824811
22	0x3c7ff3d6	0.0156221
23	0x00000000	0.0
24	0x00000000	0.0
25	0xbc11fab0	-0.008909866
26	0xbbeddf82	-0.00725931
27	0x3c5fc730	0.01365833
28	0x3c8989e1	0.016789379
29	0xbbe123cc	-0.0068707224
30	0x3c81f405	0.015863428
31	0x3c90ba0c	0.017666839
32	0x3c92ad4c	0.0179049
33	0x3c8f5a34	0.017499067
34	0x3c860c39	0.01636325
35	0x3c87727f	0.016534088
36	0x3c9358cd	0.01798668
37	0x00000000	0.0
38	0xbc1baa04	-0.009500984
39	0x3c8d6aac	0.01726278
40	0x3c873d8f	0.016508846
41	0x00000000	0.0
42	0x3c8a66af	0.016894666
43	0x00000000	0.0
44	0x00000000	0.0
45	0x3c8dedfa	0.01732539
46	0x00000000	0.0
47	0xbc07b2a3	-0.008282336
48	0x3c8f4993	0.017491138
49	0xbc2f208f	-0.010688915
50	0xbbce4839	-0.0062952307
51	0x3c8500df	0.016235767
52	0x3c89b20d	0.016808534
53	0x3c862d23	0.016378945
54	0x3c8a35d5	0.016871372
55	0xbbc48908	-0.0059977807
56	0x00000000	0.0
57	0xbbc4bbaa	-0.0060038166
58	0x00000000	0.0
59	0xbc0ed6ba	-0.008718187
60	0xbbe5db6f	-0.007014684
61	0xbbc4c0d6	-0.006004433
62	0xbc245b4b	-0.010031532
63	0x3d4d339f	0.050098058
64	0xbc0ddd5a	-0.008658731
65	0xbbaa5b05	-0.0051988387
66	0x3c8b7901	0.017025473
67	0x3c77437b	0.015091772
68	0xbb5bc08e	-0.003353152
69	0x3c8a9886	0.016918432
70	0xb7d06a6a	-2.4845085e-05
71	0xbc0a0c7a	-0.008425826
72	0xbbc4c64a	-0.006005083
73	0x00000000	0.0
74	0x3c84a20c	0.016190551
75	0xbbc4c61b	-0.0060050613
76	0x00000000	0.0
77	0xbbb61e9b	-0.0055578477
78	0xbbc45f38	-0.0059927963
79	0xbc0b0c49	-0.008486816
80	0x3c88f5fa	0.016718853
81	0x3c7f2fc2	0.015575351
82	0x00000000	0.0
83	0xbc167668	-0.009183504
84	0x3d9a6ed8	0.07540673
85	0x3c915a17	0.017743153
86	0x3c905bb0	0.017621845
87	0x00000000	0.0
88	0x00000000	0.0
89	0x00000000	0.0
90	0xbc29d1ea	-0.010364989
91	0xbbd94afe	-0.006631254
92	0xbc5601b8	-0.013061933
93	0xbc32ea8f	-0.010920181
94	0xbbc4b853	-0.0060034185
95	0x00000000	0.0
96	0x00000000	0.0
97	0x3c8a6fba	0.016898979
98	0xbbc4a0f1	-0.006000631
99	0x00000000	0.0
100	0x00000000	0.0
101	0x3c89a63a	0.016802896
102	0x00000000	0.0
103	0xbbc0ef96	-0.005887936
104	0xbc39de0b	-0.011344443
105	0x3c8b145d	0.016977483
106	0xbbc4c1d8	-0.0060045533
107	0x00000000	0.0
108	0x00000000	0.0
109	0xbc24ae64	-0.010051344
110	0x00000000	0.0
111	0xbbc4c3d6	-0.006004791
112	0x00000000	0.0
113	0xbbc4c7a2	-0.0060052434
114	0x3c84ed96	0.016226571
115	0x00000000	0.0
116	0x00000000	0.0
117	0xbc042cd4	-0.0080673285
118	0xbc200e3c	-0.009769019
119	0x00000000	0.0
120	0x00000000	0.0
121	0xbbc4c6d5	-0.006005148
122	0xbc5aa338	-0.013344578
123	0x3c6d6d3c	0.014491376
124	0x3c92c193	0.017914569
125	0x00000000	0.0
126	0xbc42d53c	-0.011891659
127	0x3c88f434	0.016718008

sequential_7_1/conv2d_16_1/convolution f4 [32, 3, 3, 1]
0	0x3dc9ad2c	0.09847483
1	0x3e0717b6	0.13192639
2	0xbdb266e8	-0.08711034
3	0xbc10999c	-0.008825686
4	0x3d800e6b	0.0625275
5	0x3df64616	0.120250866
6	0x3dd0cb80	0.101950645
7	0xbdbe28e3	-0.09285142
8	0xbcf27690	-0.02959755
9	0x3e111ca7	0.14171086
10	0xbd051378	-0.03248927
11	0xbd447f52	-0.047972985
12	0x3d159198	0.036515802
13	0x3e05c85d	0.13064714
14	0x3c8000a5	0.015625307
15	0x3d113bbd	0.03545736
16	0x3bbde039	0.0057945517
17	0x3de5e4ca	0.11225279
18	0x3e1b1d90	0.15147996
19	0xbd2509cb	-0.040292542
20	0x3cf32225	0.029679367
21	0x3d78037f	0.06055021
22	0x3d9fdaa9	0.07805378
23	0x3dee8562	0.116465345
24	0x3e1d6f0a	0.1537439
25	0x3e243448	0.16035569
26	0x3e06a902	0.13150409
27	0x3c29e802	0.010370256
28	0xbd864333	-0.06555786
29	0x3ca7ee38	0.020499334
30	0xbc866bd7	-0.016408844
31	0x3c464e0a	0.012103567
32	0x3e0bcf94	0.13653404
33	0xbe0e6c50	-0.13908505
34	0x3cd7ae84	0.026328333
35	0xbd2b9544	-0.041890398
36	0x3e1d71a1	0.15375377
37	0xbc25c9e0	-0.0101189315
38	0x3d37c422	0.04486478
39	0x3e0af8b5	0.13571437
40	0x3ddc6172	0.10760774
41	0xbd654c0c	-0.055980727
42	0x3c90f809	0.017696397
43	0x3cc1c935	0.023655513
44	0xbafa88f2	-0.0019114299
45	0xbe050e23	-0.12993674
46	0xbde2d7fa	-0.110763505
47	0x3d8ffe4b	0.070309244
48	0x3dfe6421	0.12421442
49	0x3dd72c1f	0.10506462
50	0x3d9c52bf	0.0763297
51	0xbca81fa5	-0.020522902
52	0x3c801d6c	0.01563903
53	0xbd819b5c	-0.063284606
54	0x3c530abc	0.012880977
55	0xbd778d1f	-0.060437318
56	0xbdcb15a4	-0.09916237
57	0xbce8b055	-0.028404394
58	0x3dd6d4e8	0.104898274
59	0x3de95608	0.11393362
60	0xbd4ef75d	-0.050528873
61	0x3ddd5595	0.10807339
62	0xbd20f6b7	-0.039297786
63	0x3d64acf9	0.055829022
64	0x3db8930c	0.09012422
65	0x3df3e943	0.119097255
66	0xbdd64df7	-0.10464089
67	0xbab6a409	-0.0013934384
68	0xbda2876e	-0.079359874
69	0xbcbfdc72	-0.023420546
70	0xbd0f7826	-0.03502669
71	0xbdf0871c	-0.1174452
72	0x3c72fc79	0.014830702
73	0x3d7bbbe4	0.061458483
74	0x3db2670f	0.08711063
75	0xbdc67035	-0.096893705
76	0x3e109b98	0.14121854
77	0xbc262197	-0.010139844
78	0x3d54b6d6	0.05193218
79	0x3c80f213	0.01574043
80	0xbca88ad8	-0.020574018
81	0x3d07828d	0.033083487
82	0x3dc4e408	0.09613806
83	0x3df30f71	0.118681796
84	0xbd7a78ca	-0.06115035
85	0xbe1cd1b5	-0.15314372
86	0x3d0fcb4d	0.035105992
87	0xbc2e5080	-0.01063931
88	0xbd911e8b	-0.07085904
89	0xbde7fba5	-0.11327294
90	0x3dec281b	0.11531087
91	0x3c5c23cf	0.013436272
92	0xbde3c9e6	-0.111224934
93	0x3d333f25	0.04376139
94	0xbda34d19	-0.079736896
95	0x3cbc1bf7	0.022962553
96	0x3cdc4df7	0.026892645
97	0xbd304c54	-0.043041542
98	0xbdf86f88	-0.12130648
99	0xbb1383a6	-0.0022508889
100	0xbd56f72f	-0.052481826
101	0x3daa43e9	0.08313734
102	0x3d0564f7	0.03256699
103	0x3da20887	0.07911783
104	0x3d3a3e79	0.045469735
105	0x3cdc2b9a	0.02687626
106	0xbdf8f436	-0.121559545
107	0xbe0a9abf	-0.13535593
108	0xbc99247e	-0.018694159
109	0x3df6703e	0.12033127
110	0xbbb95aed	-0.005656591
111	0xbd6d49df	-0.057931777
112	0x3d0fd8da	0.035118915
113	0x3c3f97cc	0.011693906
114	0x3cc88bf5	0.0244808
115	0x3da827a8	0.08210689
116	0x3e0cb8b7	0.13742338
117	0x3c27311e	0.010204582
118	0x3dd82fa4	0.10555962
119	0xbcc27892	-0.023739133
120	0x3e25a129	0.16174759
121	0x3d9ad4e7	0.07560139
122	0xbd7af03d	-0.061264265
123	0xbce85f1d	-0.028365666
124	0x3dbb3635	0.091411985
125	0x3d999630	0.07499349
126	0x3cfb5e8b	0.03068473
127	0xbd446206	-0.047945045
128	0xbddcb3e0	-0.10776496
129	0xbd8b2826	-0.06794767
130	0xbcd9475e	-0.026523288
131	0x3d92c0af	0.07165658
132	0xbd6e5ed9	-0.058195923
133	0x3dd46fe1	0.10372902
134	0xbdb57ae0	-0.08861327
135	0xbda6ff52	-0.08154167
136	0x3e1deb53	0.154218
137	0x3c1f92d1	0.009739594
138	0x3e19b3bb	0.15009968
139	0x3c6964f0	0.014245257
140	0x3dae9e52	0.08526291
141	0x3e031681	0.12801553
142	0xbdb326ee	-0.087476596
143	0x3d67d1e4	0.05659665
144	0xbdf1557f	-0.11783885
145	0x3e14c74b	0.14529149
146	0xbc615218	-0.013752483
147	0x3d063e21	0.032774094
148	0x3d7a2ea7	0.061079647
149	0x3e11e289	0.14246573
150	0xbdcef069	-0.10104448
151	0x3e1550db	0.14581625
152	0x3da751fd	0.08169935
153	0x3dd1a2e6	0.102361485
154	0xb9a4d96f	-0.00031442518
155	0xbded8cb9	-0.11599106
156	0x3d9eee0f	0.0776025
157	0x3d0bbe6b	0.034117144
158	0x3e0864d1	0.13319708
159	0x3e0bf369	0.13667072
160	0x3beca87a	0.0072222324
161	0x3df8b7fb	0.121444665
162	0x3cb2852b	0.021792015
163	0x3d2bd5e8	0.041952044
164	0xbd99aaec	-0.07503304
165	0x3ccafe6e	0.024779525
166	0x3d7e4c8e	0.062084727
167	0x3db91c7a	0.090386346
168	0x3cd6c051	0.02621475
169	0xbbf925b4	-0.0076033715
170	0x3d636716	0.055518232
171	0x3dc08023	0.0939944
172	0xbdf28d3b	-0.11843344
173	0x3d91a1ab	0.07110914
174	0x3e057046	0.1303111
175	0xbcd4e78c	-0.025989316
176	0xbd3075f9	-0.043081257
177	0x3dfb829f	0.12280773
178	0xbd2ea219	-0.042635057
179	0x3d005aee	0.031336717
180	0x3c115c83	0.008872154
181	0xbdb27682	-0.0871401
182	0xbc4f17c6	-0.012639945
183	0x3cee33be	0.029077407
184	0x3dd51922	0.10405184
185	0xbddaaf6c	-0.1067799
186	0xbdc3eda8	-0.09566814
187	0x3c35fad7	0.011107168
188	0xbd4ee8ad	-0.050514866
189	0x3e0fd601	0.1404648
190	0x3c76a328	0.015053548
191	0xbdc45608	-0.09586722
192	0x3e08805c	0.13330215
193	0x3d4e6c18	0.050396055
194	0xbce751e4	-0.02823729
195	0x3d95e4fa	0.073190644
196	0x3d91d3aa	0.0712045
197	0xbc55702f	-0.013027235
198	0x3e173a41	0.14768316
199	0xbd2f55b6	-0.04280635
200	0xbbfbfe0d	-0.0076901973
201	0x3dc33a33	0.09532585
202	0x3dbcf1bc	0.09225795
203	0x3db3943f	0.0876851
204	0x3dcc0d46	0.09963469
205	0xbdfe0e70	-0.124050975
206	0xbdc95f1f	-0.09832596
207	0x3e1b4156	0.15161642
208	0xbca3a37a	-0.019975413
209	0x3be160f5	0.0068780133
210	0xbdc7d310	-0.09757054
211	0x3db5f5d1	0.088847764
212	0x3c4d3881	0.012525679
213	0xbde04b93	-0.10951915
214	0xbd9a2754	-0.075270325
215	0xbca4b7ca	-0.020107169
216	0x3d3fa1ec	0.04678528
217	0x3dde2ec9	0.10848767
218	0xbdf8751b	-0.12131711
219	0xbd1c3ad7	-0.03814205
220	0x3e0263e9	0.12733425
221	0x3d1e0435	0.03857823
222	0x3d966f7b	0.07345482
223	0x3c592459	0.013253295
224	0xbcabb8bc	-0.020962112
225	0x3ddc7a64	0.10765532
226	0x3da67b4c	0.08128986
227	0x3db0221b	0.08600255
228	0x3def9281	0.11697865
229	0xbd9e9341	-0.0774293
230	0xbdc81183	-0.09768965
231	0xbd8a8805	-0.06764225
232	0x3e0a9058	0.13531625
233	0xbde9eb33	-0.11421814
234	0x3ddd637b	0.1080999
235	0x3da1cf37	0.07900851
236	0xbdd5249b	-0.104073726
237	0x3e10e630	0.1415031
238	0x3d3713db	0.04469667
239	0xbdfc25cb	-0.12311896
240	0xbbf8a619	-0.0075881598
241	0xbdb08732	-0.086195365
242	0xbd9e54b8	-0.077310026
243	0xbdc3dbb1	-0.09563387
244	0x39c396eb	0.0003730574
245	0x3daa5224	0.08316448
246	0xbd6d4a05	-0.05793192
247	0x3d9828f6	0.07429688
248	0x3d22e224	0.039766446
249	0xbdaebbb3	-0.085318945
250	0xbc9fbeed	-0.01950022
251	0xbd6f278e	-0.05838733
252	0x3e18d910	0.14926553
253	0x3e0c77d1	0.13717581
254	0xbda79f3e	-0.0818467
255	0xbe059bde	-0.1304774

sequential_7_1/conv2d_16_1/Relu;sequential_7_1/conv2d_16_1/BiasAdd;sequential_7_1/conv2d_16_1/convolution; f4 [32]
0	0x3cb6b055	0.022300879
1	0x3c0af1df	0.008480518
2	0x3cad7bf3	0.021177268
3	0x3c900e0e	0.017584827
4	0x3c98976b	0.01862689
5	0x3c18dcc9	0.009329983
6	0x3c840428	0.016115263
7	0x3c0f984c	0.008764338
8	0x3cb764ba	0.022386897
9	0xbc5fca45	-0.013659065
10	0x3b986dea	0.0046517747
11	0x3b6a268c	0.0035728542
12	0x3c572ed6	0.013133725
13	0x3caf5a82	0.021405462
14	0xbbdbb768	-0.0067052133
15	0x3cadf372	0.021234248
16	0x3cb5cbb8	0.022191867
17	0x3c8468d7	0.016163273
18	0x3bfc4106	0.007698181
19	0x3c55edd6	0.013057193
20	0x3cac076c	0.020999633
21	0x3caf0b10	0.02136758
22	0x3c060bbf	0.008181511
23	0x3c9fe7d4	0.019519724
24	0x3c86218b	0.016373416
25	0x3c4fe34c	0.012688469
26	0x3bac1d1f	0.005252495
27	0x3cb2a8a4	0.02180893
28	0x3c3e573f	0.011617481
29	0x3cb1e83a	0.02171718
30	0x39f9f6bc	0.00047676812
31	0x3c662b0a	0.014048347
